homework1/result/model_save/adam-32-0.001-S-3-32-0/model.pt (torch, 11223 bytes, 6 tensors)

proj_layer.weight f8 [32, 1]
00000000: a8d7 43db e9d0 e8bf d4c1 600d 25e4 e9bf
00000010: 3c5e 26d9 b0b7 da3f 8af6 2606 332c d8bf
00000020: ff82 0504 c371 f4bf 923a b3e4 8501 ff3f
00000030: 1e8c 4680 8da1 e93f b26e 7d59 6d11 e6bf
00000040: e65a 7cba 654e f7bf 7354 6c00 6b93 ecbf
00000050: f627 aecd a4bb e93f 03a7 6d75 0298 e03f
00000060: b269 b922 2522 f7bf 9fa4 515e 967f e03f
00000070: a0ab 7979 c990 e93f b580 2413 9052 ea3f
00000080: f740 0654 9aff e0bf 6ced c6b2 2f5e eb3f
00000090: 7bd3 a275 3c33 ec3f dae7 e397 100d e3bf
000000a0: 4333 c8bf c679 e03f 4804 4bc8 1612 e23f
000000b0: ebcc 3281 7b4e f7bf 3edb 4512 59e1 e3bf
000000c0: 3b92 4090 03e9 f3bf b763 2c16 b032 ed3f
000000d0: 7b42 0644 1708 df3f 85de 037c 457a dcbf
000000e0: 07ac 4dda ec48 debf 9d00 e0c2 e016 e9bf
000000f0: 060b 86b3 ede5 e23f c48b 16be 6a9f d7bf
-0.7755021364707675 -0.8090996991432413 0.4174615975002529 -0.37769771195221635 -1.2777738720980663 1.9378718312833922 0.8009707932836851 -0.6896273372508033
-1.456639984569557 -0.8929953583016313 0.8041557328408533 0.518555859901625 -1.4458361965576896 0.5155746309439059 0.7989241955341306 0.8225784658316316
-0.531201519117558 0.8552473537196597 0.8812544152811904 -0.5953448263746808 0.5148652787916962 0.5647081291173288 -1.4566607519926105 -0.6212582928554651
-1.244388164029387 0.9124374802660132 0.484868828230027 -0.4449628554425334 -0.47320100134555826 -0.7840427213814284 0.5905674463577675 -0.36910503924644567

proj_layer.bias f8 [32]
00000000: 85d9 cc8d cc29 fb3f 339e 31f4 fd9f fc3f
00000010: abde 3c6d d049 cfbf 3e6e 5697 7c8f ccbf
00000020: 856b 803c a104 0940 991a 2975 9742 00c0
00000030: 54cc 76d6 1949 ffbf 436a 6efa 4f00 0240
00000040: 57c8 1f2d 4677 0d40 c253 c971 cad7 0640
00000050: 473f 21c3 5cea f9bf 5b98 2002 7b08 02c0
00000060: 9028 7bd0 9d6b 0d40 3349 5097 6e4e 02c0
00000070: ad1e 39e2 7d45 ecbf 03e2 89c7 e162 fabf
00000080: 6a5f c9be 3d31 1140 e077 d231 22e6 03c0
00000090: bb43 e3c2 3aa4 05c0 8d23 492a b58b 1240
000000a0: 39b4 18e2 5df0 00c0 4673 7d32 f6e1 0bc0
000000b0: 300d 7e09 45fb 0d40 d169 a5fe f830 0f40
000000c0: 7c0e 836b 57d4 0940 8d5b ed15 478d 02c0
000000d0: 1bc4 71f6 9ab1 f2bf 9521 dc47 88d2 0e40
000000e0: 83bb bbe2 6a7f ff3f 408e 9478 f18b 0140
000000f0: f3ea 8b7f 3f72 0dc0 7cd0 531d 3cb1 c6bf
1.6977048434324342 1.78906054866992 -0.2444401296031534 -0.2231288660958501 3.1272606589022325 -2.0325154450577654 -1.9553469064237747 2.2501525464006433
3.6832393193554185 2.8553666009488277 -1.6197173712025277 -2.2541408697316405 3.6775471007904983 -2.2882968732239077 -0.8834828775806806 -1.6491411013104205
4.2980871019752644 -2.4873699085573975 -2.7051902032476085 4.636433277811091 -2.1173665679730473 -3.4853328651937856 3.7476902715294713 3.898912419722571
3.228682365357427 -2.318983241373138 -1.1683606745466537 3.8527989973119454 1.9686077935000135 2.1933316631637183 -3.680785175759746 -0.17728377754213287

hidd_layers.0.weight f8 [32, 32]
00000000: 7d91 aa1e 17c4 e13f 94b1 4d59 9c0a f53f
00000010: cfd8 2038 fe98 cd3f d490 208b 6260 ddbf
00000020: af8c edc8 2fe6 e6bf 558b 3f92 0223 c53f
00000030: 8f86 c6bc 907a c23f fb48 6dca 5c99 df3f
00000040: 476d 062a cab7 f4bf 538b cb75 855e f93f
00000050: e0d4 e3a2 8dd1 b3bf 7263 c71a 6369 ea3f
00000060: 2296 8cf2 11fd f5bf 8ed4 facc 4fbc e23f
00000070: 3b62 b74e 1b96 b63f 83d9 1cdd 113b abbf
00000080: 0271 e168 0979 e1bf 6241 819d bdb4 b7bf
00000090: 57b4 b3ea 0766 b73f a4ca 1b7c 927a dfbf
000000a0: f40e 1dca de02 e63f 50ce 70c5 4870 513f
000000b0: 77e5 1ef9 c3e5 f2bf e4cb 2dee 3945 cd3f
000000c0: 5769 7379 a10e eabf 7ac5 58a8 3a19 ad3f
000000d0: b679 9c08 217e d03f 3042 8e6b 710c debf
000000e0: f331 d2d1 99d2 efbf c107 8550 5669 de3f
000000f0: f2fd d19d 46ff b43f 5df2 4838 9d22 dbbf
00000100: fbe2 69bf 4e72 e83f 1b43 87a3 f80d f53f
00000110: 3db8 b34c c8c4 b33f d8d3 0ed8 e67b e0bf
00000120: c2b2 ab47 83dd e6bf 4c3a 41af 512f cb3f
00000130: a62e d1ca c29f b0bf 2160 0cad 0fd3 cc3f
00000140: 040d a9f0 e07e f6bf 0ad4 afea bfb7 fd3f
00000150: c467 7458 ad6e c9bf 0c06 51e8 15e0 ec3f
00000160: d458 7d4a 9edb f4bf 96f8 076f 7323 e83f
00000170: 90ab e449 3d8b c7bf ff05 adda 5d24 d1bf
00000180: 0b83 44b1 d9f4 e6bf cb59 f360 cc7c bebf
00000190: cc37 d46e b889 973f c626 4303 9397 dabf
000001a0: 3692 735d 4903 e63f e62e 9f9c bb50 c63f
000001b0: 8472 bdcf 160f f4bf 994d 0d6e b726 d43f
000001c0: b9e8 7983 336b edbf 4088 77f6 5d77 c13f
000001d0: 6c04 cbfe 6a64 d43f 1a54 c8cd c71f e5bf
000001e0: e600 6c78 6bb5 eabf c527 7e40 453d dd3f
000001f0: 6344 3a02 38b9 d43f 3bca 5b64 5d5e ddbf
00000200: b7b5 c48f 5fa1 cb3f c895 a9e6 a564 f23f
00000210: 62b6 1723 0c6f d23f bf43 0969 11ba f5bf
00000220: 867b 0112 4cbc f1bf a908 5e67 0dfa b93f
00000230: 66b5 6b1c 50d2 ac3f ffbe cd87 759a efbf
00000240: e332 6eee 8c1d febf 64b2 3f78 75e5 f83f
00000250: aefd 9d73 a0bf ccbf bae9 4626 a8b0 f03f
00000260: c1a6 e99d b79f fcbf b9b3 f5e9 9a94 f23f
00000270: b9de 8d47 b89f b5bf 83b6 342b b582 d1bf
00000280: b760 30a5 0f58 02c0 2a01 459c 40d2 c2bf
00000290: 601e 5f34 3084 c43f 30ea 7e0f dfa1 04c0
000002a0: 5664 d05a 3756 f03f a4ac 3e08 1fec d03f
000002b0: 9600 57c3 d543 febf 01d2 f391 0248 fabf
000002c0: 31cf 969f 289e f3bf b2dc dfb4 518d c7bf
000002d0: 1a5f 9b23 34a4 e43f 82da e270 15ef 01c0
000002e0: aeca ef33 477f 02c0 1ac2 5a03 8e6e d5bf
000002f0: 9cec 3db9 9c2b d83f 48e3 cd49 cf59 f6bf
00000300: f0a2 58fc 14f6 f13f e55b 24ed a5ce f73f
00000310: 3e64 f3ed 9b67 cf3f eacb ec0a 952f e1bf
00000320: 3109 d95d 5c42 edbf 4cc9 b2e7 2553 c33f
00000330: 91db 4238 105a c3bf dafb b770 c834 e13f
00000340: 3453 2f24 ecf1 f0bf 09d9 5793 5ac0 fa3f
00000350: 8629 e65b 3d6b ae3f be20 61da c882 e93f
00000360: 7bd8 1fde 2cf2 f4bf 18a7 80b4 060c e73f
00000370: 8b73 5263 749d adbf 95fd 73f3 0cbc d1bf
00000380: 885f b51e 25fa e0bf 0c0e ee90 a42d b5bf
00000390: 0cf3 5b39 1410 c83f acdf 9ab3 0e3b c3bf
000003a0: 316e 4be7 ccf6 ee3f 517f a89a 1833 a73f
000003b0: 1e17 118b 5c14 f2bf 23ab 1da4 3d67 de3f
000003c0: 7404 30bb 3e5f e7bf 0813 24fe 9982 a73f
000003d0: 4fe4 0409 7f7d e13f 12d9 ef90 22b3 d9bf
000003e0: 0055 236f 9aa7 f3bf 544e 81a5 5145 e93f
000003f0: 15f0 2481 6406 c63f 9655 eaec 214e e7bf
00000400: 809d cdb1 cdb1 f13f ce39 533a a1a7 e03f
00000410: 4ea4 9ff3 a6f1 e2bf e387 c080 cb25 d9bf
00000420: 909a ff1a 343f c33f 4bca bf0d 928d fbbf
00000430: d651 c6df 4e67 f6bf 24bf c527 32ac eb3f
00000440: bcac da7e b9bb c43f 56d0 84f3 b9d2 64bf
00000450: cecb 032c 27e6 f0bf ef06 1356 619f eebf
00000460: 829e effe a223 9abf b6b7 acc3 c71d e8bf
00000470: 9877 d666 7cbf f1bf 1652 d3e5 a900 f4bf
00000480: cf62 7f3a c05e cb3f 0e89 494d b2f9 f5bf
00000490: f1a3 abfd a5c3 f3bf 4445 c285 d56f d23f
000004a0: d1d6 20d2 7099 e4bf 8f30 f641 3418 f5bf
000004b0: 5bed 5152 b355 c03f fbb4 28b1 0108 e63f
000004c0: 6d20 759e 8361 c53f 0807 fcbf f897 f2bf
000004d0: e414 fb58 9b39 e6bf be81 14a6 6f66 b23f
000004e0: 35b5 022f 1ffa dbbf b0b3 dfcf 87d9 e13f
000004f0: 9bd0 e844 7877 f1bf 4b9e d839 8a2a debf
00000500: 9451 a1b7 8cdb ed3f 04ff 12f5 396f f63f
00000510: 9467 534e a3ac b63f cd17 f237 dff9 e1bf
00000520: 5e86 adbd e562 eabf a938 3f8c fa18 b63f
00000530: 2ef8 7010 9703 bb3f 5f28 0bd1 046e dc3f
00000540: 78d2 83e7 2a67 f4bf 7935 8160 da91 fd3f
00000550: a0f1 406b 0007 c1bf 4e68 2ea5 03e5 eb3f
00000560: 6f25 35a1 6613 f3bf 178a a9dd ed7f eb3f
00000570: a129 9228 2197 6ebf c86a 503b f1fb d3bf
00000580: 360e eacc edb3 e4bf f956 c6a7 2082 b3bf
00000590: e887 7dc0 583b 9c3f 87ab 87bb 509d e2bf
000005a0: 328f 6ab7 0355 ea3f 3d0f b762 fb23 c43f
000005b0: 3751 4ab0 75b6 f3bf c1fb 49f7 5430 c23f
000005c0: be4d 0a22 2185 eabf e5f4 878a b25b a4bf
000005d0: 6270 6de5 5125 de3f 7469 23d8 e77b e5bf
000005e0: ad5d 76f9 1b26 f2bf cc0b f872 65dc df3f
000005f0: a67b a15b 82de 903f 52c9 3ebe c9f3 d8bf
00000600: 8099 d93a 6847 f0bf fd33 80ce 74a9 fcbf
00000610: 5360 6534 151a d3bf 5387 2ebe 3edf e03f
00000620: e88b 073b e03c e33f d002 6335 eb27 aabf
00000630: 4b00 60b2 4850 abbf 4b50 c9fa 15a8 efbf
00000640: 8777 38ee 518e ed3f 7245 95e9 1281 00c0
00000650: f6fb 69f1 b74b cb3f 9711 923e 3ae7 ebbf
00000660: f9d1 8be6 ed22 ed3f 4da7 1cfa c356 ecbf
00000670: 1c3e 9ebc 160b b7bf f8ad 9c25 8c74 cc3f
00000680: 437b f73b d11e c7bf b9cb bcad 8f88 c93f
00000690: fe15 3742 750c ab3f 0522 1334 8211 8f3f
000006a0: fcc0 c5df 586b e7bf 2bd4 81b8 b1da c13f
000006b0: 388b 3457 dc23 e73f 0eb7 98ce 39a3 e9bf
000006c0: c82c e9c1 1342 d43f b406 03fc c25b a53f
000006d0: 12bd 14bd 28ae ddbf 4ef7 60cf c18e cabf
000006e0: 5ac8 c428 ad64 e83f d0a1 b15a a230 edbf
000006f0: 7e84 9f94 86d8 c1bf 9338 5614 07b3 da3f
00000700: 0369 1cd2 260c 05c0 a2f9 e4c3 89c5 06c0
00000710: 7d59 2e23 1844 d13f 556c 6d22 afd3 e53f
00000720: 1542 a047 033c 04c0 9516 d8ab d166 e33f
00000730: 3527 2897 a8d7 e43f 3dbf c411 9ad9 02c0
00000740: 975d 5784 20a8 00c0 67eb bf7a 1548 09c0
00000750: 733a 2b0d bb86 e83f d899 be7c 9cd9 67bf
00000760: be62 768a 9df8 01c0 1e74 27ad 1e7e c5bf
00000770: ee79 4fc9 03d0 dc3f f27f 1aeb c4d8 e83f
00000780: 4027 54ed c6a8 00c0 10c4 ae38 92ed e53f
00000790: e6f2 ce9b fad9 e33f 03ca dc73 420a f5bf
000007a0: 481c bf18 e689 9fbf a78d deb0 b9b3 e63f
000007b0: 7064 c815 72bd 01c0 1243 dd71 3c00 05c0
000007c0: cdd6 f014 78d4 06c0 fcc7 88db 9d21 e13f
000007d0: 4032 7328 0a2a ac3f 300b 17d9 a293 03c0
000007e0: 890a 2667 8be5 ef3f a906 4599 4697 01c0
000007f0: 6eab dc91 b094 e13f 324d e0be e121 e63f
0.555186805625041 1.3150905121247876 0.23123147717132617 -0.4590078695930633 -0.7155989574788658 0.1651309217550884 0.14436539857438332 0.4937355019402642
-1.2948705331426298 1.5855764962550054 -0.07741627909475168 0.825364639570678 -1.3742846941544333 0.5854872706901391 0.08822794601236066 -0.05318504165772977
-0.5460249947023217 -0.0926016339810807 0.09140061836269929 -0.4918562137601532 0.687850374939869 0.0010643683106196407 -1.1810950976635846 0.22867511873081903
-0.8142859813772628 0.05683310799612236 0.25769830552044526 -0.46950946334348753 -0.994458112532412 0.4751792703938201 0.08202020028146942 -0.4239876794488618
0.7639535654589901 1.3159109485461105 0.0772214114437881 -0.5151247234231233 -0.7145401382272996 0.21238156373370243 -0.06493775798406407 0.22519107770563188
-1.4059762383265602 1.8573607604460016 -0.19869009799077564 0.9023541963035213 -1.303617754912513 0.7543275040223019 -0.18393674953526018 -0.26784464221063325
-0.7173889601000111 -0.11909177176435219 0.02298629929014577 -0.41550135916314124 0.6879011941169384 0.17433877131985936 -1.2536838641018742 0.31486306903135525
-0.9193360870260882 0.13645529303090775 0.31862902528889125 -0.6601294535818198 -0.8346459724416746 0.45686465547680327 0.32380485742129944 -0.45888457108154385
0.2158622219080095 1.1495722780467634 0.28802779604925466 -1.3579267600036784 -1.1084709838248457 0.10147174619308665 0.05629206034596272 -0.9876048710266047
-1.8822144807519912 1.5560202309817663 -0.224597984746635 1.0431291098781075 -1.7889934700455543 1.1612805499128014 -0.0844683813755819 -0.27360276431395664
-2.2929985909832697 -0.1470413935694606 0.1602840667458052 -2.579038735447533 1.021048884146031 0.2644116955295408 -1.8915612822020527 -1.6425805760637788
-1.2261129602383785 -0.1840002186943131 0.6450443931052832 -2.241740114138623 -2.3121475274613976 -0.3348727257498766 0.3776618775370453 -1.39692620115075
1.1225786072993138 1.4879512084351003 0.24534939879120715 -0.5370583737734453 -0.9143506844486976 0.15097497762105616 -0.15118601557852832 0.5376932336365556
-1.0590630925627922 1.671961379584504 0.05941192385496934 0.7972149148199816 -1.309124820397783 0.7202180409851477 -0.05784190857341461 -0.27710269713130603
-0.5305352782988715 -0.082727704413678 0.18799069214573938 -0.1502397896745128 0.9676270024751316 0.04531170738141433 -1.1299710686011575 0.4750513174719108
-0.730376592255324 0.04591828563028427 0.5465693641809909 -0.4015585341834519 -1.2284187642410984 0.7897117836495888 0.17207008653520064 -0.7282876612904825
1.1059090562283416 0.5204626216089367 -0.5919985540650801 -0.39293181966252017 0.15036631887706564 -1.722063115794884 -1.4002217045973473 0.8647700096898672
0.16197889989903114 -0.00254188841440776 -1.0561897010163537 -0.9569555932177688 -0.025526568231639242 -0.7536352941294726 -1.1092494980907528 -1.2501620271260712
0.21382906776741215 -1.3734610575707538 -1.235265723133349 0.28807581007375327 -0.6437305549686362 -1.318409211790854 0.1276153709367048 0.6884773693215317
0.1670383952825917 -1.162102460803398 -0.6945320833116537 0.07187555126848275 -0.4371412238204642 0.5578040180240489 -1.0916674320006112 -0.47134643219985567
0.9330504976774585 1.4021548817835887 0.08857174551249464 -0.5617519467057207 -0.8245724396367213 0.08631864475248342 0.105523530496584 0.444215015548826
-1.2751874011566127 1.8481086511340818 -0.1330261729907649 0.8717058397480828 -1.1922365472003909 0.8593663529721337 -0.0037341735483710924 -0.31225233833690114
-0.6469639780265826 -0.07620433898986424 0.027570139645270247 -0.5817035353369285 0.8228777487133583 0.15734808273384174 -1.2320458303775703 0.14209997248323528
-0.8287511505936249 -0.039762095842869084 0.47102782635716356 -0.6713752004100528 -1.1343040222762781 0.49782692172464915 0.016473805277538077 -0.3898796422828542
-1.0174333857372346 -1.791371161121105 -0.2984669696502397 0.5272515978324271 0.6011811402244094 -0.0510858061475169 -0.053346893095295465 -0.9892682932063591
0.9236230519052108 -2.0630243538550355 0.2132482460765172 -0.8719760152894648 0.9105138304572044 -0.8855914959906187 -0.09001295189795439 0.2223067458775032
-0.18062797000944827 0.199480018456226 0.05282942231455577 0.015170113767809754 -0.7318539019161387 0.13948651799333453 0.7231275275447393 -0.8011750254715666
0.3165330308590453 0.04171571089092421 -0.4637548300260771 -0.20748160005489996 0.7622896000159571 -0.9121867915501358 -0.13942034012783106 0.41717698083892535
-2.630933419696818 -2.846454172539965 0.2697811454358073 0.682090346566279 -2.5293031307012463 0.6063011509256336 0.6513255073816483 -2.3562508953254153
-2.082093271175562 -3.1601972188777157 0.7664466149524983 -0.002911382331109307 -2.2463942353609516 -0.16791137175360488 0.45019621524070785 0.7764610854974292
-2.0824106732660823 0.6852503878673151 0.6203587573177998 -1.3150047803761715 -0.030799479732902563 0.7094391302566024 -2.2175027562885177 -2.6251152892731477
-2.8537446628568888 0.5353535926608397 0.05500823730253446 -2.447087951675165 0.9967705740567264 -2.1988651251020497 0.5494006012789734 0.6916359642076826

hidd_layers.0.bias f8 [32]
00000000: 22e6 deb6 87b9 c5bf 55f4 b777 ea8a bd3f
00000010: c6da 69f4 e7a6 c6bf 4b63 32bf 5f0b c2bf
00000020: c729 2eed 985d e0bf 7338 5528 b2e4 65bf
00000030: 9bdd 1bb5 c83a c4bf ec7b b19f f6cb d43f
00000040: b0f3 0e9c 07a4 d2bf aaf3 f0dd 35cb e03f
00000050: 189a 0aac ffc2 c03f bf1c 77cb 688d a0bf
00000060: f536 41e0 79e1 a7bf 732b 44fe 4011 af3f
00000070: 9886 4dbc f998 b63f 33d7 23bc c791 dcbf
00000080: 98b7 2534 30f7 bcbf a13c 5bbf b845 a83f
00000090: cb57 abd0 e50c d3bf 0a06 6a61 6c62 babf
000000a0: efae 4575 14fe a93f 6bf8 5bc1 86ae 8bbf
000000b0: a896 ac0f 04b8 c2bf 3136 0e23 5c82 dbbf
000000c0: a267 14b0 85da 93bf da28 3608 4dc0 e13f
000000d0: cef7 e8fb 1c1d a1bf cdc5 952c bab7 aa3f
000000e0: 98da 8a83 9af6 813f 6c51 deeb 30ec 8abf
000000f0: 6c75 4073 b04a df3f 919f 71f6 eb00 dfbf
-0.16972443036301949 0.11540093825165461 -0.1769685691285387 -0.1409721072748432 -0.5114254600933287 -0.0026725272788672926 -0.15804394572454047 0.32494893641518163
-0.29126157989577006 0.5248059592046179 0.13095088863811166 -0.0323288677569109 -0.04664212095722845 0.06067851165615581 0.08827172133671934 -0.44639771817252266
-0.11314679406288375 0.04740693412679176 -0.29766221406805177 -0.10306432131076107 0.05076660090966622 -0.013516476417404463 -0.14624071851101417 -0.42983153746976926
-0.01938828360753287 0.5547242317564056 -0.03342524123262046 0.05218297762156574 0.00877114023147145 -0.013145811269887196 0.48893367056901726 -0.4844312578848014

out_layer.weight f8 [1, 32]
00000000: a4b9 381d a011 d7bf 7a9f e3e8 bf20 e0bf
00000010: 016f 45f3 438c e3bf 0144 df6e 483b d6bf
00000020: 529d a7ae 1527 e2bf a0ff d48b 80fc ddbf
00000030: c0b3 74e1 01ec e33f a1a8 c078 8bf0 ea3f
00000040: b642 61d9 f872 e6bf 89ce 04cd e249 e63f
00000050: a1de 3ff6 9b48 e63f d425 60d8 ad72 dabf
00000060: c013 fddd 93a6 d5bf 7e3d 4302 4758 ec3f
00000070: ea77 da0b 8e71 e53f b00d f89d 90ec da3f
00000080: ebd2 15e5 996b ddbf d46f 32b4 b653 e43f
00000090: 1e94 b610 eafe dfbf 832a 98f8 fc91 e2bf
000000a0: 8759 2378 8a0f eb3f ea9d bd4b 598b dabf
000000b0: 81bc 0538 8239 e1bf b08d 03e1 6584 e9bf
000000c0: ff12 348e 476c e93f 5020 d25e 0675 ea3f
000000d0: 437c 6c66 d474 e23f 3acb 2108 7940 d4bf
000000e0: 5caa 6532 21ca ee3f 1c71 d191 66a2 ea3f
000000f0: 9f91 1506 05c1 ec3f c328 185a 2aeb f6bf
-0.36045077184362584 -0.5039977596870664 -0.6108722449675669 -0.3473683436141642 -0.5672710810876345 -0.46853650718184703 0.6225594905314367 0.8418633802841847
-0.7015346761418957 0.6965192798874834 0.696363430934941 -0.4132494557421442 -0.3382920902116062 0.8857760471527596 0.6701116782676284 0.4206887762704481
-0.459692453113617 0.6352189559433961 -0.499933735200388 -0.580320821319518 0.845647081989953 -0.4147551765113052 -0.5382701009929322 -0.797411860923992
0.7944677140627333 0.8267852642029627 0.5767614365066794 -0.3164351062215932 0.9621740326231918 0.8323242996225733 0.8985619658310958 -1.432413436823979

out_layer.bias f8 [1]
00000000: 9f3e 9e50 d27c cd3f
0.23037175117905392
