homework1/result/model_save/adam-32-0.001-Relu-3-32-0/model.pt (torch, 11223 bytes, 6 tensors)

proj_layer.weight f8 [32, 1]
00000000: 53fa cd13 223b c33f feff 777b 73e2 db3f
00000010: c895 bb23 f2c6 c33f 2a81 e35a 32b6 d53f
00000020: 5435 eb80 11f6 bc3f 5c79 9bc3 be35 de3f
00000030: 7bc5 826f 0af7 d93f 0000 0080 4c2e e2bf
00000040: b65b c4f4 7ebb e53f 0146 f35b babe d03f
00000050: 0000 0000 fcd3 c1bf 0000 0000 24e2 c0bf
00000060: 0000 0000 89a5 c5bf ad4d 0ef7 e50c e93f
00000070: b5b7 84cc 0348 bc3f 260f 50b7 9250 ea3f
00000080: 4590 c228 eb65 d73f 0000 0040 f5ca efbf
00000090: 5e63 26f4 0164 bf3f ac5c 3063 97a1 d63f
000000a0: 2f25 8d22 535d e53f 8598 8adc 2787 cd3f
000000b0: ea9d 78cd 42a2 c1bf 98d4 2f81 db3b d13f
000000c0: bdc7 669a 12cb de3f fe8d ef44 291f b0bf
000000d0: 30bc 1822 cca1 d33f e993 1918 dc8e b23f
000000e0: 6dc4 1c8f 55aa dbbf 334d 8ee9 f8be df3f
000000f0: 7df4 e343 8598 e03f a0f1 d562 c7f9 e3bf
0.15024209944745567 0.4356964784383307 0.15450884575618162 0.3392454040131435 0.11312970540457928 0.4720303449847927 0.4057031716320904 -0.5681517124176025
0.6791376858335443 0.26164111117859085 -0.1392817497253418 -0.13190126419067383 -0.16911423206329346 0.7828244996366515 0.11047385924459159 0.8223355846716671
0.36559561710805993 -0.9935251474380493 0.12261974535648565 0.35361275373856915 0.6676421809035328 0.23068712490675494 -0.13776431114932502 0.2692784082021915
0.4811445720507626 -0.06297548230173075 0.30675032930134005 0.07249236667992388 -0.4322713754255066 0.49603102501096713 0.5186182332978572 -0.6242405825028534

proj_layer.bias f8 [32]
00000000: 8ee0 38a2 252f eabf 234f 1e2b 5d56 f5bf
00000010: e38f f4e9 829f eabf fc8d 35fd 10b3 d9bf
00000020: 0665 e56c 7e3b d4bf 35d2 1c39 c9a0 f1bf
00000030: cf07 dbc6 1d74 f3bf 0000 00c0 c22c efbf
00000040: 615c 6dc3 b688 f43f a9d7 1e2f 5c36 f6bf
00000050: 0000 0000 ca08 ddbf 0000 0080 6403 d8bf
00000060: 0000 0000 ed87 e1bf a752 888d c713 d2bf
00000070: 75f3 fd5b 8b5b d7bf 57ef 7c1b 3a20 f8bf
00000080: 9236 39dc ba21 f73f 0000 0080 2113 debf
00000090: 2784 be10 b1f5 ed3f 61d0 385a 1889 e23f
000000a0: e0bf 5d6f 8ec7 01c0 9940 38b2 1d75 f2bf
000000b0: 30db dcfd aed0 db3f e407 a8c1 c37c fb3f
000000c0: 451a 9a4d 4345 f73f 0226 a389 9f9d fd3f
000000d0: eeb4 3a7a c1fb f3bf 0723 39cd 667f eebf
000000e0: 43c9 c0c6 10bd d83f 4d88 4c93 953b f9bf
000000f0: a799 4f78 8aac e8bf 3d57 b1a1 bbf6 e73f
-0.8182552498247035 -1.3335849460899645 -0.8319716042938093 -0.4015543434854576 -0.31613121637708763 -1.1017544012985472 -1.2158487098499682 -0.9742139577865601
1.283377421748604 -1.3882715073245697 -0.4536614418029785 -0.3752070665359497 -0.5478425025939941 -0.2824572450784139 -0.3649624250754678 -1.507867915511232
1.4457348444442784 -0.4699176549911499 0.9362416579280123 0.5792352449557364 -2.2224396419987755 -1.1535927736004281 0.43461203376084523 1.717960125417897
1.4544098883940404 1.8509822250802022 -1.2489638113577786 -0.9530519493356174 0.38653964433173743 -1.5770469430795118 -0.7710621213744177 0.748868766599777

hidd_layers.0.weight f8 [32, 32]
00000000: 8738 76af c9a8 bdbf 1ee5 5c10 c2f7 d3bf
00000010: a370 ad2d e0c9 b0bf 2391 fa81 1230 c5bf
00000020: ee32 d452 ebf4 c9bf 3c19 8839 bca1 ccbf
00000030: dcbd 5aef 6761 bcbf 0000 0000 ab86 9f3f
00000040: b338 5193 0f5a b2bf 577b 7a96 d58a b9bf
00000050: 0000 0000 a635 a4bf 0000 00c0 dfdb b53f
00000060: 0000 0000 ae15 a13f dac7 e74b e583 793f
00000070: ca5d 7a0a 108e d1bf 43cb cdd0 27fb c7bf
00000080: 08aa 7825 6cfe 673f 0000 0040 e153 be3f
00000090: 04e1 5db8 ed24 b63f 06bd ad48 49da b43f
000000a0: 6bfb cf59 09a2 c2bf b481 462a 3ec0 dcbf
000000b0: 3783 2277 c81d c53f 5a6c 9590 92ca d03f
000000c0: c2aa 833a 7b05 c73f 9c26 29fe a9ee c83f
000000d0: bb41 70fd 8320 ddbf 0000 0000 6e1c 98bf
000000e0: 20ae 1b4e 7967 553f dc1d 2f77 3dde d3bf
000000f0: 95e2 6fe1 c2a4 cbbf 517b 2470 d281 c4bf
00000100: b1e8 7bcb 9032 b1bf 3b6c f9a5 85f8 c2bf
00000110: 82ad d19c c5da e4bf 5d41 105c 30ec b4bf
00000120: 6649 678b 5603 8abf 6dd0 d376 6a44 cfbf
00000130: 43d2 773a a4fd c7bf 0000 0020 6b9a c03f
00000140: 36b7 490e 1d66 ce3f a927 56ef dd6d e8bf
00000150: 0000 0020 8f37 c13f 0000 00c0 8d5f b73f
00000160: 0000 00c0 6939 b53f 36aa 5677 1e02 c23f
00000170: 3e34 828a f3fc 633f 95c3 0aaf cd1d c6bf
00000180: 080c fd25 a220 bd3f 0000 00a0 16f1 c3bf
00000190: 81f6 9a6b 2560 c53f 4be0 e7ae 84ca bb3f
000001a0: 6ef6 b88b 3b18 d3bf ddb5 7f5c 2140 cfbf
000001b0: e7e4 c9d3 d41d cb3f 442d 7bb1 774f ce3f
000001c0: 1988 d617 4e86 c83f d568 6b82 926a f03f
000001d0: 14ba f988 6d97 c1bf e696 da64 05e1 b63f
000001e0: 0d1d 295a 0d43 c4bf 9e07 72b2 f2d3 d4bf
000001f0: 5bd0 b3d4 ac32 a8bf 9de7 b0da a5bb c1bf
00000200: f7c4 4a8d 2b2b d0bf a2a8 df59 5796 d3bf
00000210: c8bb a7fe 849c 9bbf 1120 c0f7 cb56 b73f
00000220: f390 66da f44c cdbf 8515 77bd 7213 ccbf
00000230: 1c32 9b1f a990 d3bf 0000 0000 f03d 753f
00000240: 5b80 06fe d774 b43f 1e2a 6eee e841 b23f
00000250: 0000 0060 7535 c53f 0000 0040 29c5 ba3f
00000260: 0000 0080 62dc a0bf 1dad 62af abdd c4bf
00000270: 55f6 c203 bb36 c1bf e675 69fb 7752 a2bf
00000280: e5a1 c22f 9154 c03f 0000 0040 05df ba3f
00000290: 6563 4169 7e4a 99bf e902 53ba 3cf4 a43f
000002a0: d8f1 5a14 9faa b3bf 9118 262e d38f d0bf
000002b0: 5524 c40f bd41 d23f 652c 0d8d 0f5d c03f
000002c0: 93ac 4783 0dd8 ae3f f6ab 193b a2a7 c83f
000002d0: 4ac9 90fb 8736 c9bf 0000 0000 1a8c b13f
000002e0: ddc8 a3d4 a77b c0bf 0abb e902 3d59 cdbf
000002f0: e76d 55de 285c cebf 25a7 1b6f 1dc1 b2bf
00000300: 21be 28c8 b569 a2bf b680 3f61 a64e 903f
00000310: 8979 679e caad d9bf 4668 1b2f e9eb c13f
00000320: 1202 09be a035 93bf bcd5 ee6b 2668 cabf
00000330: 6c50 1c58 5ab7 aebf 0000 00c0 886f c3bf
00000340: 69a5 86b1 373a b43f 44e1 1c9d 9091 d8bf
00000350: 0000 0000 4d8e 99bf 0000 0080 b5a9 a63f
00000360: 0000 00a0 6290 c33f e523 bad5 e092 b3bf
00000370: 573f 1acb 8506 c3bf 9701 00d9 e613 94bf
00000380: ac9b 1ee3 6a51 cf3f 0000 00e0 40ae c03f
00000390: 9402 d0e2 1138 a3bf 848a d5c2 534b aa3f
000003a0: bdc8 2dc5 8a5e a33f dcdb 72e9 507a d0bf
000003b0: 7040 19cc 31ac cdbf 463f c368 7d27 cc3f
000003c0: 3870 db90 faee c43f a895 1f95 68ac e13f
000003d0: 9f00 86db cef3 a7bf ff28 28fe 5682 af3f
000003e0: c664 1caa c836 b6bf 8563 2f8b 78f9 a03f
000003f0: 7b96 2379 e357 b5bf fd71 d96f f1af b13f
00000400: 30a7 ac81 eea4 bf3f a4df 34b5 119e a83f
00000410: 5107 8c01 e8c2 ba3f ffdb 8b3a 866d c43f
00000420: d5a6 c16a f59a a53f 02f5 003a ac3c c53f
00000430: 2a05 35cc 2e83 c33f 0000 0040 583a bc3f
00000440: 62a3 f02e 4a5e aa3f a005 6927 e304 94bf
00000450: 0000 0000 179d c2bf 0000 00e0 f1a5 c4bf
00000460: 0000 0000 c097 4d3f 7d88 2cd5 3319 c03f
00000470: e4de d12e 8846 bdbf bd0d 2ad0 0edd acbf
00000480: 5519 ae9c 6340 aa3f 0000 0080 cb00 c3bf
00000490: 94dd fa2c 8515 c5bf 6d3e a253 1742 c23f
000004a0: 61fb a436 868c b6bf c1b4 2631 6a8e c4bf
000004b0: fbd0 2f21 36d2 c0bf ca59 384f 6f80 ac3f
000004c0: 1098 b845 2e96 b8bf 7026 e741 e16b d0bf
000004d0: 1acf 3d65 da18 c53f 3116 f9f0 71c7 a43f
000004e0: fef4 6d0f e0e1 b83f f59e aebd ee91 a0bf
000004f0: cd0d feaa bb64 c03f 07f5 cc4f 18f4 953f
00000500: 0234 3345 b6d0 bcbf 88d0 fc32 ac34 8bbf
00000510: 230a a211 f065 87bf e7eb bbda dc61 923f
00000520: be4a aeab e489 ebbf 17ca 4a63 3d98 c3bf
00000530: ddef 73bb c232 e2bf 0000 0080 c712 b13f
00000540: ce6a 885f 0d75 b8bf 5738 9eb5 17d9 babf
00000550: 0000 0020 a41f c63f 0000 00a0 6ecc c13f
00000560: 0000 0080 8b43 b3bf 1447 1038 6645 b4bf
00000570: 5849 c0c2 972d cdbf d411 d6de e110 d0bf
00000580: 7411 87fe 926c ba3f 0000 00e0 f155 c03f
00000590: 1d0f 8d98 0572 b2bf 8b2c f9ce ccfe a6bf
000005a0: bc4b cf29 1630 90bf ec85 d0ad db43 d1bf
000005b0: 95bc 7ccc 8749 da3f 1122 a7f6 7142 84bf
000005c0: 3523 6676 6929 9d3f 2863 e937 8188 d73f
000005d0: 6234 2a08 c191 d5bf 0000 00a0 775c c53f
000005e0: 2fe5 2f27 5264 bc3f 7c5d d73b 5a75 b5bf
000005f0: a41d 132e cabb cbbf 40d6 dd92 78da bb3f
00000600: 0000 0000 322e 87bf 0000 0000 ec62 a23f
00000610: 0000 0060 df5b c23f 0000 00a0 de32 b8bf
00000620: 0000 0060 77ca c03f 0000 00e0 56c6 c4bf
00000630: 0000 0000 e887 b2bf 0000 00c0 d17c c0bf
00000640: 0000 0040 69af c0bf 0000 0080 f350 bebf
00000650: 0000 00e0 6cfc c33f 0000 0000 2620 a4bf
00000660: 0000 0040 7ed8 b23f 0000 0040 29b5 bf3f
00000670: 0000 0080 f9f8 aa3f 0000 0000 3073 56bf
00000680: 0000 0080 9028 c4bf 0000 0000 ceb2 843f
00000690: 0000 0080 0371 aa3f 0000 00c0 59e8 b63f
000006a0: 0000 00a0 360b c43f 0000 00c0 78f4 bd3f
000006b0: 0000 00e0 8184 b8bf 0000 0000 85dd a4bf
000006c0: 0000 0020 a901 b1bf 0000 00a0 6dcf c5bf
000006d0: 0000 0080 c8f9 a3bf 0000 00e0 9ee2 c53f
000006e0: 0000 00e0 0f3b c23f 0000 00a0 3235 c13f
000006f0: 0000 0000 37f7 bcbf 0000 0080 47b2 b03f
00000700: 10a1 136d b958 b83f 0e08 93bb 7a44 a6bf
00000710: 715a e48b ad3a a13f b065 65ad 5eda c23f
00000720: 6a98 a442 5fa7 c13f 2882 118f 9e1f adbf
00000730: 1f13 a535 de2a c3bf 0000 0000 7bfd 9fbf
00000740: 1952 0353 9c2e c03f c543 28a8 e81c a8bf
00000750: 0000 0040 db67 aebf 0000 0080 d824 a7bf
00000760: 0000 0000 ef7d ad3f d6aa 55d7 0743 c33f
00000770: 098d ce0d 76e6 b33f b4d0 1d9c 8967 c0bf
00000780: bd0d 0555 bf97 c6bf 0000 0000 ea53 b03f
00000790: 56cd 912a 4ab3 b3bf 22da 019a 3bee bcbf
000007a0: 6e29 a4d9 a2f5 b43f 528c 5fda 5d79 96bf
000007b0: 0000 00c0 f6c8 aabf be5e 2e0d c262 c7bf
000007c0: a7b1 0573 235d b0bf 1fa2 d5e4 0ded b7bf
000007d0: 2bdc dd14 4d66 bfbf 19a2 bedf 4ad2 9e3f
000007e0: 0000 0020 a7e0 c53f 1b66 47e3 f365 aebf
000007f0: 2ea8 c31b cd56 c23f 0000 0000 6683 813f
-0.1158567479489837 -0.3119969520372069 -0.0655803786771139 -0.16552955004329659 -0.20278684181575762 -0.22368576821481578 -0.11086129754652724 0.030787155032157898
-0.07168671938527175 -0.09977469371595525 -0.03947180509567261 0.085386261343956 0.03336852788925171 0.006229301156496414 -0.2742958166431576 -0.18735215850355233
0.002928935263999625 0.11846740543842316 0.08650098563328262 0.08145578407651408 -0.14556996236202777 -0.44923357132395414 0.16497140710000632 0.2623640453290982
0.17985477788109533 0.19478344831650396 -0.4551095938668614 -0.023545950651168823 0.0013064083690846953 -0.3104394592196209 -0.21596561439198028 -0.16021185374935468
-0.06717781989928785 -0.14820929149832004 -0.6517055571434158 -0.08172895667690257 -0.012701679353004546 -0.244275386830512 -0.18742802481541973 0.12971247732639313
0.237491256691493 -0.7634114908735131 0.13450802862644196 0.09130178391933441 0.0829073041677475 0.14068966700627222 0.0024399525319212237 -0.17278452918028778
0.11377919604733233 -0.1557949334383011 0.166996648351347 0.10855893392715747 -0.29835404057289494 -0.24414460197969748 0.2118478807567847 0.23680015722343672
0.19159866489377533 1.026018628550948 -0.13743371189362164 0.08937104904415669 -0.15829626943944 -0.3254362814551487 -0.0472616204878313 -0.13853905847809936
-0.25263489530614386 -0.30605109955525667 -0.026964262049599147 0.09116816328617029 -0.22891102470487787 -0.21934351206997973 -0.3057043846754668 0.005186021327972412
0.07990789367477318 0.07131820508053763 0.16569392383098602 0.10457094013690948 -0.03293140232563019 -0.16301485122435447 -0.1344827431075141 -0.035785436096130316
0.12758078414959964 0.10496552288532257 -0.02469823377063864 0.04092588209596732 -0.07682222601847088 -0.25877837664337117 0.28526236095109897 0.12783998858717208
0.060242101931941815 0.19261577497249477 -0.1969766596171872 0.06854403018951416 -0.12877366907884538 -0.2292858375762637 -0.23718748909128282 -0.0732592006931126
-0.03596275394772542 0.015925025640058897 -0.40123239010963424 0.14001192855977446 -0.018759261702372916 -0.20630340833819882 -0.05999262166565775 -0.15184125304222107
0.07901332935457152 -0.38388457625434946 -0.024956896901130676 0.04426352679729462 0.15284378826618195 -0.07645993440577532 -0.14863655488124536 -0.01960716914618529
0.2446721657736054 0.1303177922964096 -0.03753715413768535 0.0513559508642816 0.037830673761065615 -0.257465579964842 -0.2318174597335232 0.21995513549199525
0.1635430533705191 0.5522959625783885 -0.046781982705398344 0.061541288876542304 -0.08677343514536337 0.033153311720247415 -0.08337232310767632 0.06909092884729513
0.12361040750388663 0.04808097207063547 0.10453653371589879 0.15959241732318216 0.04219786575488419 0.16591408569539828 0.15244088145304008 0.11026526987552643
0.051500623922328584 -0.01954989364663151 -0.14541900157928467 -0.1613142341375351 0.0009030997753143311 0.12576911839375163 -0.11435748236715032 -0.05637403765743041
0.051272499919877625 -0.14846175909042358 -0.16471924492155365 0.14264194091491636 -0.08808173021405487 -0.1605961551662514 -0.13141514416168562 0.05566737978022081
-0.09604157640623634 -0.25658446727593454 0.164820956644342 0.04058414522709731 0.09719658257195715 -0.03236337724166375 0.1280741295741862 0.021438960905688222
-0.11255969228223253 -0.013284058862702133 -0.011424899614444211 0.01795144162222675 -0.8605826714650318 -0.1530834898781712 -0.5686963711918868 0.06669279932975769
-0.09553607542367645 -0.10487507041963916 0.17284061014652252 0.13905127346515656 -0.07524940371513367 -0.07918394917240007 -0.227953882306404 -0.25103041421269023
0.10321921075871449 0.1276228278875351 -0.07205233549489916 -0.0449127199795721 -0.01580843572794398 -0.2697667310149814 0.4107379433580232 -0.0098923591039162
0.028478286601543352 0.36770658931850386 -0.3370211200461367 0.1668843775987625 0.11090577561107716 -0.08382190667122374 -0.21666838884105488 0.10880235276803152
-0.011318579316139221 0.035910964012145996 0.1434287279844284 -0.09452620893716812 0.13117878139019012 -0.16230283677577972 -0.07238626480102539 -0.12880918383598328
-0.13035312294960022 -0.11842271685600281 0.15614090859889984 -0.03930777311325073 0.0736159235239029 0.12385804951190948 0.05268077552318573 -0.0013702362775802612
-0.1574879288673401 0.010106667876243591 0.05164347589015961 0.08948288857936859 0.1565922051668167 0.11701159179210663 -0.0957719013094902 -0.040752559900283813
-0.06643158942461014 -0.170392706990242 -0.03901506960391998 0.17097841203212738 0.14242742955684662 0.1344359666109085 -0.11314719915390015 0.06522032618522644
0.09510382569317621 -0.04349120654798365 0.03365080197015836 0.14728911844831094 0.13792029146242452 -0.056881861652758936 -0.14974572772384762 -0.031240388751029968
0.12642244389884708 -0.04709555676175329 -0.05938611179590225 -0.045202985405921936 0.05760142207145691 0.1504831124724066 0.07773530804711383 -0.1281597149169379
-0.17650596286158118 0.06378042697906494 -0.07695449389739414 -0.11301014432852033 0.0818731099463201 -0.02194735188812686 -0.052314482629299164 -0.18270135539636628
-0.06392118032608228 -0.09346091114787967 -0.1226547409004161 0.03009907713536295 0.17091836035251617 -0.05937158727074295 0.1432739625518606 0.008551403880119324

hidd_layers.0.bias f8 [32]
00000000: 8c62 bebf 939f cf3f 2dc2 f0ce e14c de3f
00000010: f88c 3ead d990 d23f 6cb8 6bd8 3ca6 c83f
00000020: ffe2 ac81 90f1 b23f 7981 fdcd fff3 c63f
00000030: 0000 0000 a2c2 953f df55 4f13 71c9 c1bf
00000040: 0000 00a0 a6ee b8bf 029a 997b dbf9 a43f
00000050: 0000 0000 429b b23f c4e3 6ecb df40 c53f
00000060: 94bf 2910 ebd7 ba3f d28c e87b 0e08 c03f
00000070: 0000 0000 3758 a6bf 0000 0060 3f8a c1bf
00000080: 614f f9a5 0e2a e2bf 0000 0060 f1df c2bf
00000090: e613 effd 21f3 ddbf a9af 25f8 cfd4 d43f
000000a0: f0b2 5876 9d45 aabf 775e 9df8 259d c3bf
000000b0: 2a7d 4bb9 9175 c0bf 0ff6 b5b0 fcb5 d2bf
000000c0: 0b15 13f2 5d4c e43f 0000 00a0 1f5b b6bf
000000d0: f9f1 4bfa b50a c53f 7ef6 20ea b0a9 973f
000000e0: 0776 97f3 bdb5 ad3f 2e6f f797 526b d63f
000000f0: dce5 dda5 729d ca3f 0000 0040 bd8f bfbf
0.24705740797505304 0.47344250878362254 0.2900909606780284 0.19257317130490337 0.07399848142530273 0.17932126577489862 0.021250277757644653 -0.138960012844719
-0.0973915234208107 0.04096876033581866 0.07268154621124268 0.16604230340251835 0.10485715050321992 0.12524586725439818 -0.04364177584648132 -0.13703148066997528
-0.567633937995634 -0.14745919406414032 -0.46796464727623144 0.325489036875974 -0.05131237096461472 -0.15323328627959018 -0.12858792827226156 -0.2923576093379276
0.6343221405046803 -0.08732793480157852 0.16438936921612404 0.023108257570348283 0.05802720640688724 0.3503004535721058 0.2079299268623761 -0.12328703701496124

out_layer.weight f8 [1, 32]
00000000: 14b2 cdce 66b7 cf3f a3f0 daeb 3adc f13f
00000010: 7e09 c15c 0cf3 d03f 3d0f 03c7 581f d2bf
00000020: f36f 0dbc be77 afbf 0539 cf06 3432 d63f
00000030: 0000 00c0 bf18 b23f db7b 78e3 4f8e b0bf
00000040: 0000 0040 bac3 afbf 7785 a7f0 1a27 66bf
00000050: 0000 0000 358b 96bf 8b14 5078 9d0d cb3f
00000060: 43c9 50bc 7eb0 d43f df38 4f07 0d97 91bf
00000070: 0000 00a0 641b b3bf 0000 0020 518a c63f
00000080: 124a 2b0f 4388 dc3f 0000 0000 6a36 853f
00000090: 3f0e bb5d 3c66 f13f 56a4 6658 d75b c2bf
000000a0: 1f60 1190 37ee bcbf b7da 23b3 a654 b6bf
000000b0: c126 a08d 6aa5 b93f d4a2 1541 8887 c23f
000000c0: 149c f1c0 31b5 f3bf 0000 0080 c104 a53f
000000d0: 76f3 2991 d3c3 d73f 3fdd d833 9f13 d13f
000000e0: fe93 e7d6 476b bdbf e6d8 060f 4a77 d4bf
000000f0: 0707 db64 98ce d13f 0000 00a0 ce99 b0bf
0.24778447244479251 1.1162671292395678 0.2648344903756409 -0.28316325602303377 -0.06146045728266349 0.34681416192042064 0.07069014012813568 -0.06467150977594775
-0.06204015761613846 -0.0027041937039348723 -0.02201540768146515 0.21135300039910407 0.32327240362350923 -0.017177775927671553 -0.07463673502206802 0.1760960966348648
0.4458167694221241 0.010357692837715149 1.087459913383 -0.1434277707715263 -0.11300990359575323 -0.08722917436157727 0.10018030126243628 0.14476111581759332
-1.2317369019381248 0.04105190932750702 0.37132729698333067 0.266822624809226 -0.11491822239584334 -0.3197808405633523 0.2782345757405981 -0.06484691053628922

out_layer.bias f8 [1]
00000000: dd49 1f28 c0c2 c53f
0.17000581702320874
