homework1/result/model_save/adam-64-0.001-Relu-2-32-0/model.pt (torch, 2335 bytes, 4 tensors)

proj_layer.weight f8 [32, 1]
000000 1d df c0 ab 91 20 45 3f 00 00 00 00 cf 91 d7 bf
       0.0006447516711949073 -0.368274450302124
000010 7d 21 60 d0 3a 26 de 3f 80 e2 d1 41 d7 9f ef 3f
       0.4710833582799053 0.988261822275561
000020 00 00 00 00 0d f4 d5 bf 00 00 00 40 a1 d4 ef bf
       -0.3430206775665283 -0.9947057962417603
000030 52 37 bd c1 2d 7f e8 3f ae ea 62 05 9f 48 a0 bf
       0.7655247482268612 -0.03180405560256837
000040 ad bc fc 86 1b 4a d3 3f c9 b9 ed 52 b9 4c d0 3f
       0.30139816458081264 0.25468285654542605
000050 c7 25 09 1c 7b e4 e3 bf b5 d7 96 b0 9e a1 e4 3f
       -0.6216407344410805 0.6447289895065668
000060 e9 f3 7c 59 38 96 e4 bf 24 34 e0 dd 82 94 d4 3f
       -0.6433374164404287 0.3215644041782204
000070 00 00 00 80 b9 f0 ec bf b1 c1 2a 87 cd 09 cd bf
       -0.9043853282928467 -0.2268616590495305
000080 00 a9 50 9a 1c bb ca bf 0d aa d7 c9 55 f3 b4 3f
       -0.20883519682804064 0.08183799913209829
000090 46 b9 71 03 4b 59 d9 bf 00 00 00 80 27 cd e7 bf
       -0.39607501350737484 -0.743793249130249
0000a0 c9 b4 e2 09 ff 66 d1 bf 00 00 00 80 5c 6f e1 bf
       -0.2719113918818264 -0.5448439121246338
0000b0 e8 77 dd 9b 4a fa ed 3f ca b2 d7 f4 49 71 c6 3f
       0.9368031543960997 0.1753323026199694
0000c0 00 00 00 80 ae 7a d7 bf d6 26 a3 f6 fb ce e0 3f
       -0.3668628931045532 0.5252666298995006
0000d0 00 00 00 00 18 cc b2 bf 5d eb 3f dd c0 6c cc 3f
       -0.07342672348022461 0.22206888964850693
0000e0 4d 83 78 aa 13 42 d9 3f c8 5c 17 19 f2 c4 e7 3f
       0.39465800902876397 0.7427912225783979
0000f0 44 48 52 5e f5 53 e0 3f bd df c0 e0 56 c7 d3 3f
       0.5102488367285862 0.3090417094094809

proj_layer.bias f8 [32]
000000 fd af ca 2a ac 73 f2 3f 00 00 00 80 c7 43 e9 bf
       1.153240363269105 -0.7895238399505615
000010 a4 f3 5b 50 ed fd eb bf 92 7e a9 8a 97 87 e9 bf
       -0.8747469491496429 -0.7978017528766534
000020 00 00 00 80 8d 81 df bf 00 00 00 40 66 5d e9 bf
       -0.49228227138519287 -0.7926512956619263
000030 15 f4 d0 8b 0f cb d4 3f 4c 4e 16 31 ec 9b ed 3f
       0.3248938432114426 0.9252835234387446
000040 6b 7f f8 ec 40 50 e0 bf 32 a7 8d 6f 26 8b f1 bf
       -0.5097965839704391 -1.0964722020675706
000050 84 aa fb e5 38 e4 f4 3f 0f f4 72 85 fd cd c5 3f
       1.3057183250154205 0.1703488256079315
000060 07 4c 36 b2 21 9a ea 3f a4 bb e0 bc c8 f1 f7 bf
       0.8313148956971198 -1.4965293291131525
000070 00 00 00 00 22 f0 be bf 89 01 a6 af 14 71 f1 3f
       -0.12085163593292236 1.0901076184528355
000080 b2 2c 8b 62 95 12 f0 3f 30 49 92 04 c6 57 f1 3f
       1.0045369958268506 1.0839290789195495
000090 ec 73 6c 80 29 d2 f8 3f 00 00 00 40 8d e8 ea bf
       1.551309110312327 -0.8408876657485962
0000a0 28 13 a8 d7 45 1a f3 3f 00 00 00 00 74 26 b2 bf
       1.1939142631610569 -0.07089924812316895
0000b0 58 98 20 03 03 42 e2 3f 34 18 4f e3 16 2c 93 bf
       0.5705580769615706 -0.01872287523635681
0000c0 00 00 00 80 a9 50 e2 bf ae b8 78 91 50 e8 e2 bf
       -0.5723464488983154 -0.5908587304345667
0000d0 00 00 00 00 93 bf d8 bf 16 65 51 c7 26 ac cf 3f
       -0.38669276237487793 0.2474411462051555
0000e0 94 31 68 97 7b cc 07 c0 94 a2 3a fa 99 dc c3 bf
       -2.974845106951941 -0.15516972273077967
0000f0 dc c3 18 fc 2a c8 b8 bf 00 08 1a cf b5 15 f7 bf
       -0.09680431990342647 -1.4428003396901659

out_layer.weight f8 [1, 32]
000000 eb b2 00 ba 4d e4 ce bf 00 00 00 00 06 04 9c 3f
       -0.24134227354206614 0.027359098196029663
000010 f8 60 7e 58 25 46 cb 3f 56 7b 1e 07 f0 32 c0 3f
       0.21307818242053833 0.12655449245081724
000020 00 00 00 80 6b ec c1 bf 00 00 00 00 e8 68 76 3f
       -0.1400274634361267 0.005471140146255493
000030 87 7b 8f 7a 21 28 b0 bf ed e1 81 20 e9 df d3 bf
       -0.06311234705161271 -0.3105414216475129
000040 f6 22 98 d0 55 00 a6 3f 8f 68 e4 a4 14 a3 db 3f
       0.042971307480973595 0.4318286524081793
000050 ae 8d c5 37 f2 73 f2 bf cd 58 bb 3d 9a 2e b1 3f
       -1.1533071688253176 0.06711734778523067
000060 49 6e a1 f3 17 9d f0 bf 51 59 3a 29 8a 20 e4 3f
       -1.0383529202289472 0.6289721303208272
000070 00 00 00 60 81 b0 bc bf 3b 76 98 62 94 80 eb 3f
       -0.11206825822591782 0.8594457555479446
000080 f0 5c 0e aa 89 cc f1 3f 41 ee 6e d8 9d 38 c9 bf
       1.112435974389708 -0.19704030101807926
000090 e2 e3 ee ee 56 c8 ee 3f 00 00 00 60 eb 7d c2 bf
       0.9619555155433057 -0.14446775615215302
0000a0 1d 3a 70 f8 2f fa ee 3f 00 00 00 80 43 7b af bf
       0.9680404522239915 -0.06148730218410492
0000b0 26 3b 25 17 e7 27 c1 bf 69 09 dc 8c 06 c7 aa bf
       -0.13403023367069372 -0.052299694723859265
0000c0 00 00 00 40 f2 6e c5 bf 52 68 f4 ec 59 aa 97 3f
       -0.16744831204414368 0.02311077603108231
0000d0 00 00 00 e0 70 e9 c0 3f a1 ee aa b5 b0 9c 90 3f
       0.13212405145168304 0.016222725952259712
0000e0 fd 90 6b 65 fc 93 04 c0 c9 4c ea 5e b2 6e ad bf
       -2.572258751244702 -0.05748517426141004
0000f0 4d 0d 7a c7 4d 28 bd 3f 94 e6 b4 a3 ad 1d e5 3f
       0.1138962375644514 0.6598728368182543

out_layer.bias f8 [1]
000000 40 ad 63 f7 0c 8d dd bf
       -0.4617340484534971
