homework1/result/model_save/adam-64-0.001-Relu-3-64-0/model.pt (torch, 36823 bytes, 6 tensors)

proj_layer.weight f8 [64, 1]
0	0xbfe5dab300000000	-0.6829466819763184
1	0x3fdeb7c461255507	0.47996625410935717
2	0xbfb4a3911d48d153	-0.08062083210899589
3	0x3fe55d4c3804878c	0.6676388830276081
4	0x3fc0455ce7c731b9	0.12711678807535323
5	0x3fc5b87cf3f3aa93	0.16969262992582354
6	0xbf891cf77cb7e97b	-0.012262280934909544
7	0xbfcc121b1b65c9d3	-0.2193025478150746
8	0x3fd9fe20beea1be7	0.406135736885004
9	0x3f93d0f55c3fb7a8	0.019351800685334958
10	0x3fcce6fd991f792d	0.22579927422243298
11	0xbfefde8e80000000	-0.995917558670044
12	0x3fd8f8a2a7c4441d	0.3901754988046962
13	0x3fe81ded75f74ca8	0.7536532691978168
14	0x3fc7eba5346f0381	0.18687882480847054
15	0x3fd9434d72807495	0.39473282033743234
16	0x3fde26532e1c91c9	0.471089167624339
17	0xbfebbdc4c0000000	-0.8669151067733765
18	0x3fe1bde4c53fe842	0.5544303753406512
19	0xbfe32586c0000000	-0.5983308553695679
20	0xbfd4355600000000	-0.31575536727905273
21	0x3fc12743ee71b74f	0.13401078360350957
22	0x3fdde500418ea5b8	0.46710211183616535
23	0x3fec588e5d09da6a	0.885810071674155
24	0xbfbf04eb2d99f7ca	-0.1211688028651842
25	0xbfd997b100000000	-0.399883508682251
26	0x3fe5f8bbc913d4d3	0.686612980584551
27	0xbfcad15e64370e99	-0.20951442616761964
28	0x3f90e71800000000	0.016506552696228027
29	0x3fe7b9e1f502d161	0.7414407525416601
30	0x3fe5391cf1954b9a	0.6632218092366771
31	0x3fd9ed98535a46b6	0.4051266492834701
32	0x3fdba1b7cc9b9c2d	0.4317454813121369
33	0x3fe4dc7b44c22aff	0.6519142477930869
34	0xbfa8e6882cd66b03	-0.04863381907781241
35	0xbfcd742e733f97d7	-0.2301080763565426
36	0x3fd1396e09f6f06e	0.26913023923021384
37	0xbfe1defe40000000	-0.5584708452224731
38	0x3fe950878ebc3305	0.7910802638812987
39	0xbfeffbcec0000000	-0.9994882345199585
40	0x3fd36f350e9ec8df	0.30366255214461363
41	0x3fdf878a07bbe6df	0.49264765506050695
42	0x3fe074397c633138	0.5141875676577348
43	0xbfd5557900000000	-0.3333418369293213
44	0xbfc5d6a1e1dbe542	-0.17061255958814497
45	0x3feaeca62c328dd9	0.8413878310424777
46	0x3fe87f617f1662a3	0.7655494196106541
47	0x3fc09898f6ed4bac	0.12965690667132657
48	0x3fecd82ffbcdfcfc	0.9013900678691296
49	0x3fc86ea73729985d	0.19087686723213695
50	0x3f9f8034eb71ed04	0.030762507315086132
51	0x3fc1b9db39034639	0.13848438533618593
52	0x3fe29b232996fe1c	0.5814376652051041
53	0xbfe7cf9d00000000	-0.7440934181213379
54	0xbfcee0184a9e51f7	-0.2412138332698672
55	0x3fc46b6e78242b38	0.15952854982637077
56	0xbf867cc386d4226a	-0.010980155517715324
57	0xbfd389d4d940a956	-0.3052875634772553
58	0xbfdf1fb6122ed62b	-0.48631049895934336
59	0x3fdb7b4a90c4b918	0.42940010201972845
60	0xbfe976cd00000000	-0.7957520484924316
61	0x3fdd884ce3df3419	0.4614441132842458
62	0xbfcf3aa400000000	-0.24397706985473633
63	0xbfdd2248e1e3bf72	-0.4552175718263164

proj_layer.bias f8 [64]
0	0xbfcd43b400000000	-0.22862863540649414
1	0xbff350204701ca18	-1.2070620320997758
2	0x3fd67e0c6ac2ce62	0.3514433901393429
3	0xbfcdd0d49a5b15b1	-0.23293550049690517
4	0x3ff1980a53c43bcd	1.0996192237978335
5	0x400020832c5f096d	2.01587519326238
6	0x3fe060ee78951f25	0.5118324618460731
7	0x3fef56155c0a7fb9	0.9792582318950657
8	0xbff5836cd13d90ec	-1.344586198182749
9	0x3fe4cf53bd8b0f34	0.6503084852233543
10	0x3fc7e95c1e645c94	0.18680907711015904
11	0xbfe6ae0780000000	-0.7087438106536865
12	0xbff5c68cc7d45269	-1.3609741025767568
13	0x3fccea6922f6ca5d	0.22590364653804587
14	0xbff473a1d0155ab2	-1.2782304886110691
15	0x3ffb2570b9b0781e	1.6966407063951077
16	0x3feb9cb92bac5efc	0.8628812649721733
17	0xbfee53e240000000	-0.9477397203445435
18	0x3fdf85c7dbb86d61	0.4925403257090775
19	0xbfdd22c900000000	-0.4552481174468994
20	0xbfd8d6a580000000	-0.3881009817123413
21	0xbff06a2e5f57ff4d	-1.0259231304516618
22	0xbff4fcb6be512570	-1.3116977152115759
23	0xbfe74e854c089d78	-0.7283350453407555
24	0x3fe49a8cf13a5a06	0.6438660346491936
25	0xbfd5812d80000000	-0.3360093832015991
26	0x3ff4a6e3f3de6857	1.290744736301823
27	0x3ff12f0619e55c25	1.0739804278907823
28	0xbfe2d2d780000000	-0.5882375240325928
29	0x3fbec689676e4f49	0.12021693015259162
30	0x3ff1479b629ed0b5	1.0799821712835584
31	0xbff21a7bedc0f2f6	-1.1314658438924972
32	0xbfdf9bf9afba2643	-0.49389497910360464
33	0x3fc66af371bf5459	0.1751388841063626
34	0x3fe194c312757406	0.5494094238780469
35	0x3ff1f8cad65c40fa	1.1232403157665076
36	0xbfeca6b331fdc403	-0.8953491188423189
37	0xbfe7f54d00000000	-0.7486939430236816
38	0xbff51408c8aa25f9	-1.317391189428575
39	0xbfe7dad2c0000000	-0.7454618215560913
40	0xbff465393a4eb9c7	-1.274712779773482
41	0x3ff52c60869e99d1	1.323334241731221
42	0x3fe7247f0fbab0b2	0.7232051188671191
43	0xbfee29a100000000	-0.9425816535949707
44	0x3fedbde5ad85ec2a	0.9294308079837539
45	0x3fec2635cbbf72cb	0.8796643237543206
46	0x3fc613a4ffb1e5f8	0.17247450337508474
47	0xbfefd31106c3f9b6	-0.9945149547709693
48	0x3fb523ada79fe9a3	0.08257565824889083
49	0x3fc022280aaec341	0.12604237100233642
50	0x3fcad287832487b5	0.20954984572841587
51	0xbfb37df32ec5368a	-0.07614059345106675
52	0xbf8412b4ad89aa42	-0.009801303430511447
53	0xbfefdfffc0000000	-0.9960936307907104
54	0x3ff1f4840373778e	1.1221962103659027
55	0xbff54e00f0135bfc	-1.3315438631013867
56	0x3fe1410dcd2cfd96	0.5391911513651617
57	0x3fd7305858871c1d	0.36232575078287416
58	0x3fea9e9684789ecf	0.8318588816955187
59	0x3ff3135184e668e5	1.1922164145858514
60	0xbfdae4ab80000000	-0.4202069044113159
61	0x3fe45330576ede25	0.6351548869778908
62	0xbfdcf9dd00000000	-0.45275044441223145
63	0x3fcd115b56363586	0.22709218701895056

hidd_layers.0.weight f8 [64, 64]
0	0xbf9fdc5c00000000	-0.031114041805267334
1	0x3f87e4f400000000	0.0116671621799469
2	0xbfb4b542c0000000	-0.08089081943035126
3	0x3fad704b00000000	0.05749735236167908
4	0xbfb2b5a240000000	-0.07308401167392731
5	0xbfa09d5680000000	-0.032450392842292786
6	0x3fbbf70d80000000	0.10923847556114197
7	0xbfb6949140000000	-0.08820445835590363
8	0x3fbd569840000000	0.11460258066654205
9	0xbfad3ae400000000	-0.057089924812316895
10	0xbfb2e63380000000	-0.07382509112358093
11	0x3fbf3d7b00000000	0.12203186750411987
12	0x3f97aeb200000000	0.023127347230911255
13	0x3fbcebbac0000000	0.1129719465970993
14	0xbfb069bec0000000	-0.0641135424375534
15	0x3fb2a3eac0000000	0.07281367480754852
16	0xbfb8fa7f80000000	-0.09757229685783386
17	0x3f94c14f00000000	0.02026866376399994
18	0xbfbcb7f100000000	-0.11218172311782837
19	0xbfacdb6280000000	-0.05636127293109894
20	0xbf91442b00000000	-0.016861602663993835
21	0xbf96500800000000	-0.02178966999053955
22	0x3fb81b0000000000	0.0941619873046875
23	0x3fa2632580000000	0.03591267764568329
24	0x3fb4ad1ac0000000	0.08076636493206024
25	0x3f9975c300000000	0.024863287806510925
26	0xbfb536bd80000000	-0.08286651968955994
27	0xbfa7eccc80000000	-0.046728506684303284
28	0xbeeda80000000000	-1.4141201972961426e-05
29	0x3fbda5dc00000000	0.11581206321716309
30	0xbfa8956c00000000	-0.04801499843597412
31	0xbfb0ebbdc0000000	-0.06609712541103363
32	0xbfa9e98b00000000	-0.05060991644859314
33	0xbfb3a5b500000000	-0.07674723863601685
34	0x3faffe2280000000	0.062485769391059875
35	0x3fb8fb7500000000	0.09758692979812622
36	0x3faafda800000000	0.05271649360656738
37	0xbfb7b06f40000000	-0.09253592789173126
38	0xbfbb4d5f40000000	-0.10664935410022736
39	0x3fbc78f4c0000000	0.11122064292430878
40	0xbfbd9996c0000000	-0.11562483012676239
41	0xbfaaa1e580000000	-0.052016422152519226
42	0xbfbf6c8f40000000	-0.12275023758411407
43	0xbf529ca000000000	-0.0011359751224517822
44	0x3fb84220c0000000	0.0947590321302414
45	0xbfba631440000000	-0.1030743271112442
46	0x3fa2c31980000000	0.036644741892814636
47	0xbf260a8000000000	-0.0001681596040725708
48	0xbf817e4e00000000	-0.008541688323020935
49	0x3fbdf2ac40000000	0.11698414385318756
50	0xbfaa701a00000000	-0.05163651704788208
51	0xbfa96a5000000000	-0.049639225006103516
52	0xbfb01b2f00000000	-0.06291478872299194
53	0x3fb14a5b00000000	0.06754082441329956
54	0x3f77099c00000000	0.005624398589134216
55	0xbfbf57b3c0000000	-0.12243197858333588
56	0x3fbbc3dac0000000	0.10845725238323212
57	0xbfb246e200000000	-0.07139408588409424
58	0xbfa6626e00000000	-0.043719708919525146
59	0x3fa89f4c00000000	0.048090338706970215
60	0xbfad8f6900000000	-0.05773475766181946
61	0xbfa4d19900000000	-0.04066160321235657
62	0xbfa374c180000000	-0.03800015151500702
63	0x3fa7724200000000	0.04579359292984009
64	0xbf76615c00000000	-0.005463942885398865
65	0xbfbd7d80ef2ed9e5	-0.11519628371647846
66	0x3fa3a602410de980	0.03837592167015469
67	0x3faf3d1bb6e00eff	0.061013094018589335
68	0x3fba0fbb975e0347	0.10180256314744184
69	0x3fae3e7e35ba8961	0.05907053380839745
70	0x3fc9108a2bc1c373	0.19581725250784707
71	0x3fc251fee624d2d6	0.14312731015674868
72	0xbf93a9c4347c905e	-0.019202295020605546
73	0x3fba8a802bbde8f3	0.10367585246959603
74	0x3fac8ff0d219558e	0.05578568043408004
75	0xbfbd809900000000	-0.11524349451065063
76	0xbfd4bfda273f7381	-0.3242097266464086
77	0x3fb96a388440823b	0.09927705029304772
78	0xbfb9a4a8216c88ae	-0.10016871276869452
79	0x3fa860aa795af2aa	0.04761250239741817
80	0xbfb58a4dfd697d17	-0.0841416114503669
81	0x3f97ba9600000000	0.023172706365585327
82	0x3fba5f536be594b5	0.10301705726813533
83	0x3fbb90c900000000	0.10767799615859985
84	0x3f927caa00000000	0.018053680658340454
85	0x3f80d7709c92f552	0.008223418977986317
86	0xbfc73a76ba80dee8	-0.18147167307483092
87	0xbf760581d6bb55c2	-0.005376345808789153
88	0x3f9fad566d1fcaae	0.030934667978679435
89	0xbf7f1cac00000000	-0.0075957030057907104
90	0xbfb882ef238558ce	-0.09574789635857714
91	0x3fa442d9c8b53f59	0.039572530508506794
92	0x3fbf322cc0000000	0.1218593567609787
93	0x3fa7a61a1a0eebd1	0.046189132386153305
94	0xbfa2353353586c30	-0.03556213753127968
95	0xbfb70be41c7eae4d	-0.09002519317316988
96	0xbfc1539e9e4d4cf4	-0.1353643677672164
97	0x3fab578de897e460	0.053402361529102604
98	0xbfa46690de6b49dd	-0.03984501566960195
99	0x3fc9b4d7b9d8eacb	0.20083138060166159
100	0xbfb9f8984cab7d99	-0.10144950744460458
101	0x3f9aa02b00000000	0.026001617312431335
102	0x3f77ddd2dfb915de	0.005826781965486442
103	0xbfba979cc0000000	-0.10387592017650604
104	0xbfbce8a82bc37499	-0.11292506283230565
105	0x3fb86562f377252c	0.09529703563670883
106	0xbfc13f7dd89959f2	-0.13475010944485138
107	0xbf8966e800000000	-0.012403309345245361
108	0x3fa00e32f19d9053	0.03135832976730115
109	0xbfaeee95f2c17f83	-0.060414014704973894
110	0xbfc15c9a4ae16264	-0.1356385102869978
111	0xbfb3d4f06e1301ae	-0.07746794402465326
112	0xbf8fbea8701bfdda	-0.015500369950585947
113	0xbfb0b81039ee9e57	-0.06530858435018537
114	0x3f94dd7a390012d2	0.020376119355222162
115	0xbfb6c3dced5447de	-0.08892613214655351
116	0xbfa05f2a216d484c	-0.03197604806941054
117	0xbfafbe4a00000000	-0.06199866533279419
118	0x3fbc4560b13ec176	0.11043361975931085
119	0x3fb8ed357d70e782	0.09736952126050194
120	0x3fc2d0fa75ee86b0	0.1470025134886348
121	0xbfc9959f8c7b7693	-0.19987863883482201
122	0xbfb7325bb724dae1	-0.09061215611732677
123	0xbf9f69e82b242dbe	-0.030677440293443096
124	0xbfbbe2b980000000	-0.10892829298973083
125	0x3fa0ac812dd45552	0.03256610569421049
126	0xbf7bcc4c00000000	-0.006786629557609558
127	0x3fc046d24a6a5c2d	0.12716129907195875
128	0x3fa767bf00000000	0.0457133948802948
129	0x3f9c8bf3a57d3e2a	0.027877623534832953
130	0x3fcbfd58858c6616	0.21866899987144056
131	0xbf7c63209ce9c886	-0.006930472750001587
132	0xbfb52a3338a10010	-0.08267517216245346
133	0x3f7b268ca357a460	0.00662856041660928
134	0xbfd117bc29fe94cf	-0.26707367039700797
135	0x3fc97bf77cf3fca2	0.19909566498970316
136	0x3fc06435f2ea31a4	0.12805818902087396
137	0xbf6bc900661ae475	-0.003391743449210833
138	0x3fb5534eb186221d	0.08330241998749739
139	0x3f787a9400000000	0.005976274609565735
140	0x3fccddb4d9e39e70	0.22551594390027985
141	0x3fa6e178da0ecec5	0.04468896543349169
142	0x3fbb0929e7141619	0.10560857669414538
143	0x3fa590c8c11dd2c0	0.04212024075869669
144	0xbfad5b2ecf775ffe	-0.05733629496143065
145	0x3f8b8a4c00000000	0.013447374105453491
146	0x3fa1873759c9c1b8	0.03423474284216205
147	0x3f95d46c00000000	0.021318137645721436
148	0x3fbc780280000000	0.11120620369911194
149	0x3fd0349e3067e7e7	0.253211543341989
150	0xbfb03c04a25a200a	-0.06341580356286172
151	0x3fb1c939c43026a4	0.06947670974491388
152	0x3fc62dcfc8753ffd	0.1732730606840959
153	0xbf8116a800000000	-0.008343994617462158
154	0x3fb1db534ebb8d97	0.0697528903215726
155	0xbf7f2744dc49cda4	-0.00760580919869672
156	0xbf9c04de00000000	-0.027362316846847534
157	0x3fbe43fb422f8bc1	0.11822481504309136
158	0xbf9c5321bc9c2a89	-0.027660872589914596
159	0x3fc4f3600ff6eb97	0.16367722301023654
160	0x3f953f0c902e9bd1	0.020748325634169455
161	0xbfb47fc1bd793877	-0.08007441402262026
162	0x3fca6a9285b43195	0.20637733009824602
163	0x3facf703aff335ad	0.056572070339466186
164	0x3fc056706b97ea04	0.1276379132612676
165	0xbfa19c2e00000000	-0.034394681453704834
166	0x3fc266f4500a078c	0.1437669173065469
167	0x3f898ea000000000	0.012479066848754883
168	0x3fce0bdb9114b616	0.23473686775234687
169	0xbfc371dbcbac1211	-0.1519121880047725
170	0xbfb84c696c6f8468	-0.09491595170358524
171	0x3fb4788940000000	0.07996423542499542
172	0xbf7fb539c2b390c0	-0.007741189601095211
173	0xbfa6a428aeb9a556	-0.04422118313670846
174	0xbfb2364ffb65f311	-0.07114124190952632
175	0x3fc6e5f0a50be823	0.1788922124758879
176	0xbfb095f08a1ed5a5	-0.06478789684373128
177	0x3fada95654aa760c	0.05793256553191037
178	0xbf9484f38c657fd6	-0.020038419193383415
179	0xbfb154f9854e24c3	-0.06770286087534587
180	0x3f788c53b07825d5	0.005993201171358338
181	0xbfaca1e980000000	-0.05592279136180878
182	0x3f9aee94bebdc5a0	0.026300739423680164
183	0xbfcf96efa8f38779	-0.24679370641302592
184	0xbfc7e479c51241a8	-0.18666002390501757
185	0xbfc149b271916f82	-0.13506155534093628
186	0xbfc103b7d90d72dc	-0.13292596910732513
187	0x3f81cdbe4524bb43	0.008693205342380167
188	0xbfb58a2fc0000000	-0.08413980901241302
189	0x3f95fe936700dcc1	0.02147894207174939
190	0xbfb7532680000000	-0.09111252427101135
191	0x3fa8c8cfdcda6039	0.0484070736976609
192	0xbfb4869cc0000000	-0.08017902076244354
193	0x3facb7aad0dd1822	0.05608876990895363
194	0x3fbc25bac0000000	0.1099507063627243
195	0x3fbbf8072b39ae02	0.1092533569841905
196	0xbfb71eeefeab4002	-0.09031575887206603
197	0xbfb4ea29c6fdbb45	-0.08169804676229571
198	0xbf703d9d26bd22a3	-0.0039650095676015155
199	0x3fa1db036238a74c	0.03487406324377548
200	0xbfa25969c6327d05	-0.03583841843032513
201	0x3fb223d9cf46474e	0.07085954008496495
202	0x3f9b266dc9e297c1	0.026513781973924958
203	0x3fab65bf80000000	0.053510650992393494
204	0xbfc0ac551a7c51bc	-0.13025916856044073
205	0xbfb394c4a914081c	-0.07648877265822346
206	0x3f70c0eb955b2067	0.0040902330853854535
207	0x3fa686b8a76cb19d	0.0439965919852938
208	0x3fbdb93a58749fa9	0.11610760364112473
209	0x3fa2123c00000000	0.03529536724090576
210	0xbfbea37415b09d96	-0.11968160180605589
211	0x3fb5338dc0000000	0.08281789720058441
212	0x3fa0259a80000000	0.03153689205646515
213	0xbfc0becbd8883e77	-0.13082264016019327
214	0x3fab7bef5e007e3a	0.053679924225658884
215	0x3fa13f5d30ce4744	0.0336865541531908
216	0xbfb13dfec0000000	-0.06735222041606903
217	0x3fb7c168c0000000	0.09279493987560272
218	0xbfbd53b068c00a4a	-0.11455824429871445
219	0x3fb7b485c0000000	0.09259830415248871
220	0x3fb993b100000000	0.09990984201431274
221	0x3fb4fbbcf459e722	0.0819662186203485
222	0x3fa0a2eb1841c843	0.032492968283705646
223	0xbfa74597a89d46b0	-0.04545282300263176
224	0x3fa8f128a90699ce	0.04871489585211784
225	0x3fa884ff073c480b	0.04788968051265393
226	0xbfb0cc88315ac1ac	-0.06562091069168358
227	0xbf9d66b400000000	-0.028712093830108643
228	0x3fb4f434c9db0be0	0.08185129097095922
229	0x3f9e675400000000	0.029691040515899658
230	0x3fa0325de0c9b806	0.031634267511307754
231	0x3fad424c00000000	0.057146430015563965
232	0xbfb125932ea12fb7	-0.06697959793490225
233	0xbf8aa5af8c284f3c	-0.013011332955137449
234	0x3f92ecfd8b3d5120	0.018482171653276258
235	0xbfb6165300000000	-0.08627814054489136
236	0x3f98dc1a00000000	0.02427712082862854
237	0xbfb9409d9d223bd2	-0.09864220701477613
238	0x3f907a116fba06e7	0.01609065288949454
239	0xbfaf396845e514eb	-0.06098485806664108
240	0xbfbb9dac99fbcc46	-0.10787466773381124
241	0xbfab6673f285bae0	-0.05351602874258332
242	0x3faff30dff3d0541	0.06240123501494078
243	0xbfb74b250f6acfa3	-0.09099036814114796
244	0x3f9ab62035ae2ffe	0.026085379864113627
245	0xbfafa71280000000	-0.06182153522968292
246	0x3fbee1b880000000	0.12063172459602356
247	0x3fbac8e4407d5019	0.10462786268664138
248	0xbfacf60ac335d0af	-0.05656465180337144
249	0x3fa85fe780000000	0.0476066917181015
250	0x3fa0d9ae00000000	0.03291076421737671
251	0x3f986582efa4ada2	0.023824735523857783
252	0xbface2ca00000000	-0.056417763233184814
253	0xbf8ad5615bfbbda6	-0.013102303142175153
254	0x3fb373a740000000	0.07598347961902618
255	0x3fbcb33780000000	0.11210963129997253

hidd_layers.0.bias f8 [64]
0	0xbf9b71f000000000	-0.02680182456970215
1	0x3fc98df9014a62be	0.19964516222969125
2	0xbfceb65ab3d72488	-0.2399400117995223
3	0xbfa146d1b1ecd3f4	-0.03374343201577537
4	0x3fbe420ead89537c	0.11819545494775058
5	0xbfc25522c6073866	-0.14322313947053827
6	0x3fd81bb2338b05e4	0.37669043572904415
7	0xbfa28d8f80000000	-0.036236271262168884
8	0xbfb8c4fb00000000	-0.09675568342208862
9	0x3fd348d763898e21	0.3013208839458646
10	0x3fc0c313a676fc6d	0.1309532702270845
11	0xbfb85d3dc7ea143d	-0.09517274981233555
12	0xbfc0e2e264750650	-0.13192396073468382
13	0xbf91712310fd32d7	-0.01703314582055068
14	0x3fc3a83b6218ff9b	0.15357153215336158
15	0xbfaa08ca80000000	-0.05084832012653351
16	0xbf9fb47d00000000	-0.03096194565296173
17	0xbfc8f2e66d9e476b	-0.19491272308783478
18	0xbf909f7c4f5a4a88	-0.016233389228157452
19	0x3fb8fdfe9dcc72c8	0.09762564995294121
20	0x3f50000497c010b3	0.0009765667773545094
21	0x3fdb3ebbabf7f607	0.4257039241200293
22	0x3fbe1213b4356849	0.1174633326494653
23	0xbfbb9c56c365b3a7	-0.10785429258767341
24	0x3fd11b3e500ffd74	0.26728780573463173
25	0xbfbcd47741119d79	-0.11261697138399097
26	0xbf82e19800000000	-0.009219348430633545
27	0x3f52dc3dd7757878	0.0011511424944141962
28	0x3fc5bed9c18d8aed	0.1698867983896756
29	0x3fc70e84714d4889	0.18013053448027375
30	0x3fce9d4747af92dc	0.23917475700650115
31	0x3fce3c37a7cb0618	0.23621268933315842
32	0xbfbbbd25ab101de6	-0.10835490633336739
33	0xbfb4cdb180000000	-0.08126363158226013
34	0x3fb374c8ffd98569	0.07600075002985353
35	0xbfc0f100c79e6d2e	-0.13235482928289727
36	0x3fccf412631bf7e7	0.22619848098105352
37	0x3fb30ea45d1c2fd3	0.07444216988750378
38	0x3fc6dfe62041a7df	0.17870785307905998
39	0x3f9b2fd800000000	0.026549696922302246
40	0x3fce5b9ce7e40fe8	0.2371708042411449
41	0x3fb5651040000000	0.0835733562707901
42	0x3f9e3b7d00000000	0.029523804783821106
43	0xbfc417881bb80366	-0.15696812966782686
44	0x3fc39e14940e0688	0.1532617304729238
45	0x3fa3c6c54a2d9c22	0.03862587481017267
46	0x3fcef0487573ec9e	0.24170785651208332
47	0x3fbef3f333c20b76	0.12090988172171344
48	0x3facba23cec3f987	0.05610763453477135
49	0xbfb8d91d40000000	-0.09706290066242218
50	0xbfcde6762d20ab50	-0.23359563067909983
51	0x3f98e35b00000000	0.024304792284965515
52	0xbfbead1fa3d5d535	-0.11982915639767529
53	0xbfc54403b0767188	-0.16613813511220266
54	0xbf95c7b900000000	-0.021269693970680237
55	0xbfcc13ebf56b0be4	-0.21935796244915118
56	0x3fcf49c572916a62	0.24443882078306262
57	0xbfb32c831f39837a	-0.07489795219727383
58	0x3fd054c60a55dcee	0.25517416962925565
59	0xbfc8eaca35597088	-0.19466521840047712
60	0x3fb3ca57be2369ab	0.07730625526475048
61	0x3fbaa2f8c769cac2	0.10404925220954467
62	0x3fbbef89c0000000	0.10912381112575531
63	0xbfba0249c0000000	-0.10159741342067719

out_layer.weight f8 [1, 64]
0	0xbfadd70c00000000	-0.0582813024520874
1	0x3fc79d928bea1e21	0.18449622947467595
2	0x3fc486cda1ea8c5a	0.16036386877121594
3	0x3fb2304f35e8e820	0.07104964319378881
4	0xbfc3ee94006c90dc	-0.15571832676608366
5	0x3f9b7aa4bfaf934f	0.026835035514426505
6	0xbfdfcbe275ae515b	-0.4968191289165326
7	0x3fb025be00000000	0.06307590007781982
8	0x3fb2136f00000000	0.07060903310775757
9	0xbfbba03838642262	-0.10791350723969509
10	0xbfc1355920a8fdc6	-0.1344405564759496
11	0xbf6c198083b6901b	-0.003430129055873377
12	0x3fcfe73a65a8bb4a	0.24924402202437995
13	0xbf7766458600d498	-0.005712768150307877
14	0xbfd0477f42c79c54	-0.25436383744676516
15	0xbfbae3cec0000000	-0.10503856837749481
16	0xbf8eb9ca00000000	-0.015002802014350891
17	0x3fc8b40295508c55	0.19299347201112718
18	0xbfb7ddfca9956654	-0.09323100223755293
19	0xbfc6897158aeace9	-0.17606942014877028
20	0xbfb0705f87ba926d	-0.06421467841807678
21	0xbfe004205be2cfac	-0.5005037111900399
22	0x3f8c9909799cd0e0	0.013963769935437076
23	0xbfc51f879c60c375	-0.16502471099513696
24	0xbfc61cc9e49769d7	-0.17275355970089265
25	0x3fae0a0117f8ae71	0.0586700765382745
26	0x3fa4999500000000	0.04023423790931702
27	0x3fc6e15435ae2acd	0.17875149365530377
28	0xbfb23b6929a57752	-0.07121903673893584
29	0x3fe7cec094268c31	0.743988313061328
30	0x3f77feaa10a67969	0.005858101193011536
31	0xbfb3074af99decf9	-0.07433003038561371
32	0x3f977c16fdf63dc1	0.02293430256901075
33	0xbfac9bf480000000	-0.05587734282016754
34	0xbfb191ed9fd5d7da	-0.06863293792943584
35	0xbfb60971638d30fb	-0.08608158760506861
36	0xbfbf4bdf7b3fb845	-0.1222514797115944
37	0xbfb8209796416e13	-0.09424731653546585
38	0xbfbb09753c81e6b2	-0.10561306693298425
39	0xbfba49b4c0000000	-0.10268716514110565
40	0xbfaf028254583fe1	-0.06056601790999117
41	0xbfbe42e400000000	-0.11820816993713379
42	0xbfb0050bc0000000	-0.06257699429988861
43	0x3fafebdf49802998	0.062346437189336246
44	0xbfd9e4a43bca28ff	-0.40458017195545887
45	0xbfb493b0b02893cb	-0.0803785734247661
46	0x3fe9293a3d308ece	0.7862826533423346
47	0x3fc5ec9d07a358e9	0.1712833678527155
48	0x3fb2d4b0f2ae6faf	0.07355791020239509
49	0xbfb8846ec0000000	-0.09577076137065887
50	0x3fbd635bd5ba0b8a	0.11479734390199617
51	0x3fb3aba640000000	0.07683791220188141
52	0xbf88c63f6944b9b5	-0.012096877479589855
53	0x3fa1a621643890c0	0.034470599636081456
54	0xbfb9d10c00000000	-0.1008460521697998
55	0x3fbb62156d3fcf00	0.10696538846223902
56	0x3fe96ab2986ee4de	0.794274614068083
57	0x3fc750330cb43cd2	0.18213499183955278
58	0xbfd5702f72bd196f	-0.3349722500319307
59	0x3fcbd1869c8a48f7	0.2173317207676246
60	0xbfcc3cadd41c541b	-0.2206017766663145
61	0x3f8179a412527d6b	0.008532792863035174
62	0x3fa8481400000000	0.047424912452697754
63	0xbfa415cf00000000	-0.0392288863658905

out_layer.bias f8 [1]
0	0xbfc3fa1fbf361040	-0.15607067905887284
