homework1/result/model_save/adam-64-0.001-Relu-3-16-0/model.pt (torch, 4567 bytes, 6 tensors)

proj_layer.weight f8 [16, 1]
0.692642557405351 0.2598487394136339 -0.11551857560482007 -0.4654414653778076 0.7104407388119506 0.11068564707342173 0.6763905488697077 0.4621154511380438
-0.26267564029688095 0.25002820038997253 0.8080081334855117 -0.571775788962312 -0.18847988408421204 0.20202495184582306 0.3949106475437763 0.2260094222244693
00000000: 0cf6 7bb9 202a e63f 7b0e 6c9b 5ca1 d03f
00000010: e29e 4d18 a092 bdbf 0000 0000 cbc9 ddbf
00000020: 6130 5e37 eebb e63f 4523 5102 e555 bc3f
00000030: 1a01 d7ca fda4 e53f cb4e 67af 4c93 dd3f
00000040: 4efb 217d adcf d0bf b02b f047 7600 d03f
00000050: e11c 87df 33db e93f 779b 47bd fc4b e2bf
00000060: 5d3b 0cdd 1b20 c8bf 39af 9320 f4db c93f
00000070: a1bb 024f 3746 d93f a85e 8572 e0ed cc3f

proj_layer.bias f8 [16]
-1.99625306800632 -1.4087019147527964 0.6693228826445956 -0.04406142234802246 1.2408862509683598 -0.9687842125274718 -1.2068543709133588 -1.198413614462435
0.9603355985928803 -0.024748301988339456 -1.6838337204205294 0.9723887498749423 0.7336380274833212 1.8649810527693382 0.1295459006450167 -1.14802469454736
00000000: 6807 9a0e a7f0 ffbf 3ed0 da04 0b8a f6bf
00000010: 1689 6dd2 176b e53f 0000 0000 388f a6bf
00000020: 4571 9f8a abda f33f abf8 b5bf 4700 efbf
00000030: 71b8 6187 464f f3bf 3028 13c1 b32c f3bf
00000040: 1c83 a4b8 11bb ee3f 8590 af6e 9e57 99bf
00000050: 1cbb 91a0 fbf0 fabf 29c2 f602 cf1d ef3f
00000060: ee91 e474 f679 e73f 03dd 545f f6d6 fd3f
00000070: 84f4 4cc7 f594 c03f 024d 6124 4f5e f2bf

hidd_layers.0.weight f8 [16, 16]
-0.11444213583336973 -0.2837637328294646 -0.3258855642809378 -0.14183130860328674 0.14519243346384397 -0.11525888476539074 -0.005012975316450059 -0.19360120490408675
-1.6946635914800299 -0.06307385507541743 0.12971597739331772 -0.22070790165448184 -1.3751656952899967 0.21304178877662708 -0.045856121929724276 -0.03382497406821153
-0.05101054017927285 -0.48181470643234753 -0.5852194824019573 0.1850506067276001 0.24657545267894374 -1.6954789190517123 -0.04654461483860924 -0.28852227305023126
-1.3282413375525906 0.09714117834846576 -0.23510848301857237 0.6979625808526629 -1.5094112183350894 0.42671099123301487 -0.03015829072810838 -0.1567990817929428
-0.11702141582367567 -1.0540500784229134 -0.4400738567916727 0.1670425832271576 0.2798149568398024 -0.4254426513381752 -0.08847147944058588 -0.15170420502081733
-0.7745873583005365 -0.06899054128441413 -0.3856247248493211 0.0622824851707161 -1.1115208737466347 0.5903762424551271 -0.17969865103759464 -0.5355310484734461
-0.20593449473381042 0.08512768149375916 -0.029677356126459182 0.2347988784313202 0.044680928794969925 -0.03236767649650574 -0.11258634924888611 0.24744769930839539
0.14533230527675298 -0.1545279622077942 0.10094243288040161 0.17781755942063507 -0.20446528392722732 -0.23277077292453155 0.12080070376396179 0.00685046041253255
-0.37002799118915125 -1.0185157176611697 -0.5428653347289372 -0.03134307265281677 0.20073606146454764 -0.0639231565379576 -0.09683527454013537 -0.2706088118243701
-0.9092438358821261 -0.048197966773734655 -0.2354959618533264 -1.0880778472067802 -1.2732726762681763 0.2893243524353542 0.20140516071034734 -0.14334575685052772
-0.05887053712723996 0.09669628633691865 0.4212357762839218 -0.11272644996643066 0.0740552171066195 0.1531318601941795 0.06236216139693972 0.20624526729829892
0.08685511798772692 0.221222101575141 -0.026993381343349925 -0.5463747090316917 0.5291732007331504 -0.21691701209193975 0.13337343915547714 0.11083710718684497
-0.09898508746540755 0.11366721192047213 0.34205789751313204 -0.11799106001853943 0.13760908000669939 -0.5044545069616643 -0.5905881094373711 -0.2671039013251471
0.027972101668564633 0.10745964198177643 -0.4240810592492491 -0.7187429337703982 0.48983033519830294 0.3379468995323456 0.30219856803157996 0.18923711957987616
0.2716883029286559 0.21278252135204814 0.007320553273931881 -0.026743054389953613 -0.043175743780512615 0.1868473077410224 -0.017772930628854548 0.018317067211810333
0.12241267308156466 0.18554193599271257 -0.11671007098367914 -0.33307694218654926 0.32452123679500183 0.018844053661521632 0.11393369663796192 0.16992178284743897
0.07935367916870327 -0.1342579650367077 0.3651047284296812 -0.20951780676841736 0.1380620072749307 -0.2785825818268571 -0.2533257744810574 -0.20701637206070542
0.29621734592374516 -0.014445485343761796 -0.1315249801435981 -0.496108280884857 0.3896013183823146 0.2199146680238333 -0.09687440507562073 -0.02036323597072798
0.33031768024597064 0.6645847763176449 -0.5695211102639738 -0.08301621675491333 -0.12467105538381497 1.4036834400774507 0.1570229455185049 0.11779255243532198
-0.9812387534055231 -0.06794551254941895 -0.029493711610836585 -0.1918737292289734 -0.8539873544614942 -0.5879786311985383 -0.10798378045146154 0.35091494131441603
0.1385686136471159 0.2666319927278225 0.3797882620408608 -0.1475931704044342 0.12485010834889029 0.28427143841265107 -0.16711366110074946 0.14539360024860273
0.3834234838042632 -0.031868443535883875 0.2643425036792623 -0.7897933127546491 0.7752857395404522 -0.2247052619788892 -0.16278103814548617 0.26345108616567986
-0.025599241256713867 0.10522761940956116 0.22731518745422363 -0.08387452363967896 -0.2101994752883911 -0.14851310849189758 0.085460364818573 0.018129974603652954
-0.21291977167129517 0.05293238162994385 0.07199108600616455 0.08807358145713806 -0.1262418031692505 0.10851866006851196 -0.08706921339035034 0.1219632625579834
0.2133015450996031 0.7019752120601961 -0.020246192116285085 -0.21683868765830994 -0.2241518068053141 -0.12472594466438064 0.08576972892729488 0.2557807533486639
-0.2738584580935012 0.052566773851936505 0.22862304146767673 -0.23515475826614232 -0.2040300418385256 -0.23743309062868012 0.02046317205569717 0.22020365788731017
-0.25561410332356926 0.19059797144474516 -0.20169792903550599 -0.06613680720329285 -0.002942478560403396 0.24215203523635864 -0.17303767800331116 0.23352642625518438
0.07645828263670405 -0.15846243288698408 0.018886405418108442 -0.1309092169745891 0.2125095154305504 -0.0747308947017027 -0.05293127384490665 0.15491038014172073
-0.45725069568138293 -0.32649575677573367 0.34772221555615096 -0.21099480986595154 -0.013313546248758508 -0.03058689698174323 -0.5125025898510296 -0.13768137154913168
0.2899373438748561 0.03879330585427112 -0.16409766942249385 -0.7067781576023191 0.23612839883748138 0.2795742383980467 0.24594817320061832 0.1517752773847885
-0.15516984462738037 0.13388735055923462 -0.21711099163750397 -0.003195852041244507 0.18609284180562155 -0.08884406089782715 0.08877694606781006 -0.018264442682266235
-0.11896057695030163 -0.21990083047537984 -0.21321476034181674 -0.055446585538752376 -0.1683336423583559 0.02130548053447537 -0.22929344189262738 0.2228491906505685
00000000: 7a4f b06e 144c bdbf 97c7 125c 2f29 d2bf
00000010: fdce 3420 4fdb d4bf 0000 0040 8727 c2bf
00000020: 7a4b ad68 aa95 c23f 8b0a a434 9b81 bdbf
00000030: fb0d a350 7c88 74bf 61be c39d ecc7 c8bf
00000040: e10e f291 571d fbbf 6a14 c8b0 9b25 b0bf
00000050: 0b24 567c 889a c03f 8492 c911 2840 ccbf
00000060: 4ea0 7dbe ad00 f6bf cd0c bd0d f444 cb3f
00000070: 49e4 0420 747a a7bf c470 d2ca 8151 a1bf
00000080: 9d7d a4b3 0d1e aabf 25f6 b659 0dd6 debf
00000090: 23c0 3c35 1eba e2bf 0000 0000 bdaf c73f
000000a0: 9350 a0d0 c88f cf3f 0f27 c680 ae20 fbbf
000000b0: fbcf 121d b2d4 a7bf d8c5 ba1f 2677 d2bf
000000c0: 20bd 1ffd 7940 f5bf 1500 1a88 3ede b83f
000000d0: 29d9 c9e6 0818 cebf 9501 539f b555 e63f
000000e0: 836f af60 8c26 f8bf 7321 0c9e 3b4f db3f
000000f0: ff9d 85a1 d0e1 9ebf 69f8 2b08 fe11 c4bf
00000100: 1af1 e491 1df5 bdbf 2bc3 729d 63dd f0bf
00000110: 29ab af89 2b2a dcbf 0000 00c0 a661 c53f
00000120: 26c0 23fe 7ce8 d13f 278b 74d0 733a dbbf
00000130: 3178 d31e 11a6 b6bf 9273 9d1b 0b6b c3bf
00000140: 8277 796d 6bc9 e8bf 05c6 8c36 5da9 b1bf
00000150: f26f 7053 13ae d8bf 2ffa d769 7de3 af3f
00000160: a002 991c cac8 f1bf b0c3 b5b7 5ce4 e23f
00000170: a0bf ab8a 5d00 c7bf 0ef4 6502 1223 e1bf
00000180: 0000 00c0 0f5c cabf 0000 0080 edca b53f
00000190: c5c3 faa7 bd63 9ebf 0000 00c0 e30d ce3f
000001a0: 47cd db2f 6be0 a63f 0000 0000 7f92 a0bf
000001b0: 0000 0080 75d2 bcbf 0000 00c0 5dac cf3f
000001c0: ffa3 1bbd 3f9a c23f 0000 0080 92c7 c3bf
000001d0: 0000 0000 5dd7 b93f 79de 2ecd b9c2 c63f
000001e0: fd40 d11d eb2b cabf f576 96c4 6ecb cdbf
000001f0: 0000 0080 cbec be3f ed2d f376 3a0f 7c3f
00000200: 4bc4 30e2 89ae d7bf 2d11 1d23 d74b f0bf
00000210: 425f 591f 275f e1bf 0000 0000 330c a0bf
00000220: 2e1d 8f21 b8b1 c93f 3ca1 c99a 445d b0bf
00000230: 95c2 3f51 32ca b8bf b7e2 329f a751 d1bf
00000240: 9f81 6687 8618 edbf dec3 0d66 67ad a8bf
00000250: 4b03 404f bb24 cebf 5315 1451 c468 f1bf
00000260: 3965 772b 535f f4bf bd5b e949 4a84 d23f
00000270: 798f 3ff1 a4c7 c93f d3c0 d85c 2759 c2bf
00000280: 5ba3 516f 4724 aebf 1a33 767b 16c1 b83f
00000290: ffda c2e6 86f5 da3f 0000 0000 a4db bcbf
000002a0: 4c34 925f 48f5 b23f 0d3c c125 d399 c33f
000002b0: 8f5b 6ae7 eeed af3f db1f 00b3 3e66 ca3f
000002c0: b75c 3f13 233c b63f 9874 b57d 0151 cc3f
000002d0: 1b05 5028 27a4 9bbf 5ce2 54d0 e67b e1bf
000002e0: 5a31 e2a2 fcee e03f eac1 70c8 efc3 cbbf
000002f0: 03f6 a97f 6112 c13f acfd 8c16 d25f bc3f
00000300: d6a3 7431 1657 b9bf 1870 d35d 4b19 bd3f
00000310: 3313 cace 46e4 d53f 0000 0080 a934 bebf
00000320: 4176 21a1 2c9d c13f 7d0b 37c7 7d24 e0bf
00000330: 4c14 ee08 19e6 e2bf 49d5 34f6 3a18 d1bf
00000340: 54ad 77f7 b7a4 9c3f f49b f39f 7982 bb3f
00000350: 2e07 15e2 2424 dbbf 6dcc 582e f1ff e6bf
00000360: c9fc 9055 6159 df3f 58aa 5108 eca0 d53f
00000370: a4fe a5a9 3857 d33f a274 e403 ec38 c83f
00000380: 4532 f255 5763 d13f 3509 2f29 753c cb3f
00000390: 7c11 670e 28fc 7d3f 0000 0000 8862 9bbf
000003a0: 141a 098f 211b a6bf 87f2 0bd2 9cea c73f
000003b0: c153 382f 1133 92bf 568f 8892 b5c1 923f
000003c0: 8f52 80db 6f56 bf3f 6607 9091 d6bf c73f
000003d0: 181e fd11 b6e0 bdbf de8b 6ff3 2151 d5bf
000003e0: 9b16 b9b8 f4c4 d43f 9d1c cd08 db4b 933f
000003f0: 47f1 f83c c22a bd3f 0498 1a3a ffbf c53f
00000400: 9fcb d8d0 8550 b43f afb3 8770 5d2f c1bf
00000410: ba1b 0e39 e05d d73f 0000 00c0 7ad1 cabf
00000420: c570 080f 04ac c13f 419f 8b09 4cd4 d1bf
00000430: 2252 284f 7d36 d0bf c75f de31 837f cabf
00000440: a006 5099 39f5 d23f cbab 0239 9895 8dbf
00000450: 6272 2980 cfd5 c0bf 2d37 6bf2 3cc0 dfbf
00000460: b88d 3b5e 3aef d83f 105a 89f1 2926 cc3f
00000470: 0087 9ed1 c2cc b8bf 01d9 23a2 19da 94bf
00000480: 209c 7cc4 ec23 d53f 3485 f64a 4744 e53f
00000490: 5fe4 de55 8439 e2bf 0000 0000 8d40 b5bf
000004a0: 399c a139 71ea bfbf 5f1c 51c4 7c75 f63f
000004b0: e39d dcef 5319 c43f fb0c 6c18 a727 be3f
000004c0: 9839 6ed0 4e66 efbf 4949 4f8a e064 b1bf
000004d0: 218c 397b 9933 9ebf 0000 0080 518f c8bf
000004e0: 7a82 d349 dd53 ebbf 7fd3 f78f b8d0 e2bf
000004f0: ba97 8935 d3a4 bbbf 1ee2 27f1 6375 d63f
00000500: ebe6 eec7 9dbc c13f e954 35a2 7f10 d13f
00000510: f4b0 376d 734e d83f 0000 0040 55e4 c2bf
00000520: c6b2 423c 2df6 bf3f 69d4 cad4 8031 d23f
00000530: f53e 92fe fa63 c5bf f1c6 0eeb 419c c23f
00000540: e54a dda6 028a d83f 8aa7 8585 0f51 a0bf
00000550: 37b1 0fd2 fcea d03f d72e 1ca0 fc45 e9bf
00000560: 9034 0c0a 24cf e83f d91e b85b 24c3 ccbf
00000570: 9034 9f51 02d6 c4bf 7158 cbf1 61dc d03f
00000580: 0000 0000 b036 9abf 0000 0080 32f0 ba3f
00000590: 0000 0000 aa18 cd3f 0000 0000 cd78 b5bf
000005a0: 0000 0000 d1e7 cabf 0000 0040 7a02 c3bf
000005b0: 0000 0000 bbe0 b53f 0000 0000 aa90 923f
000005c0: 0000 0080 f440 cbbf 0000 0000 f419 ab3f
000005d0: 0000 0000 026e b23f 0000 0080 fd8b b63f
000005e0: 0000 0000 b128 c0bf 0000 0000 e1c7 bb3f
000005f0: 0000 0000 2b4a b6bf 0000 0000 fc38 bf3f
00000600: ddcc 310c 774d cb3f b0d6 4cb8 9476 e63f
00000610: 3f2b 08f4 6abb 94bf 0000 00c0 5ec1 cbbf
00000620: a0b8 c8a3 01b1 ccbf 1cd5 4b1d 0aee bfbf
00000630: 9bc1 ba44 01f5 b53f 4e0a a53c b65e d03f
00000640: 1aa7 4fa0 e586 d1bf 4cc0 193d 08ea aa3f
00000650: d39c 1b13 8543 cd3f 2d3d 2016 8d19 cebf
00000660: 958a 8c0a a81d cabf 6883 9e1f 3564 cebf
00000670: 08ae 013b 4cf4 943f f2f3 8a2a a22f cc3f
00000680: 38f3 8a41 fb5b d0bf f601 05ab 8365 c83f
00000690: 4c70 70dc 3cd1 c9bf 0000 0080 57ee b0bf
000006a0: d1a4 f425 d31a 68bf 0000 0080 d6fe ce3f
000006b0: 0000 0040 1926 c6bf 6046 c2a5 31e4 cd3f
000006c0: 07d7 6e1f c592 b33f de74 723b 7f48 c4bf
000006d0: 5368 7036 f556 933f 574e d31a a2c1 c0bf
000006e0: 7c77 6e05 8333 cb3f 41a0 be5c 9021 b3bf
000006f0: e9f0 32d4 ce19 abbf db82 4274 1ad4 c33f
00000700: 2196 016c 9843 ddbf 699c 6875 4ee5 d4bf
00000710: 5301 faad 1441 d63f 0000 00c0 e001 cbbf
00000720: 578c dbed 2144 8bbf a40d e4e8 2b52 9fbf
00000730: aed0 d0d4 6b66 e0bf 8235 090e 8b9f c1bf
00000740: 2539 755c 558e d23f a348 e557 b7dc a33f
00000750: b17c c205 2701 c5bf 24bb 0d3a ed9d e6bf
00000760: 48f8 5493 7439 ce3f 6551 ae58 8be4 d13f
00000770: 372c 34d0 3a7b cf3f 59c0 5a4e 5f6d c33f
00000780: 0000 0000 9bdc c3bf 0000 0080 3823 c13f
00000790: eeb4 5700 4bca cbbf 0000 0000 302e 6abf
000007a0: 8f94 c9e6 e3d1 c73f 0000 0000 7cbe b6bf
000007b0: 0000 0000 16ba b63f 0000 0000 eab3 92bf
000007c0: 5acc 834b 3374 bebf baa3 a0dd b525 ccbf
000007d0: 7ca6 580b 9f4a cbbf 71ab 20af 7e63 acbf
000007e0: 1073 5ff0 f48b c5bf 280b 7c98 1ad1 953f
000007f0: b9dc 0ecd 7c59 cdbf a762 e480 5286 cc3f

hidd_layers.0.bias f8 [16]
0.2194392470971944 0.32228379957954995 0.9923632298758528 0.07738243962311982 0.7104786541060424 0.02700924236897798 0.20550687428480238 -0.0655093752162535
0.05051970636801031 -0.6596145197311014 -0.16542289983646966 -0.23555415868759155 -1.0844468175161586 0.054769169486312774 0.49113808914246215 -0.12633229345223596
00000000: 57e3 ded2 9516 cc3f e362 ce3a 4ca0 d43f
00000010: 213b 4288 70c1 ef3f 654b 77e7 55cf b33f
00000020: 9087 fcba 3dbc e63f 2972 a892 4fa8 9b3f
00000030: 3b05 149c 0c4e ca3f 949c 22f0 38c5 b0bf
00000040: c3e9 4e0d b8dd a93f 4ac7 c6e8 8f1b e5bf
00000050: bd4f 67dc 932c c5bf 0000 0080 a326 cebf
00000060: 1cbb f7e7 e459 f1bf b8ab 8b5f b40a ac3f
00000070: a8f4 ab73 ce6e df3f f02b 6716 a82b c0bf

out_layer.weight f8 [1, 16]
-0.2889343531459822 1.2613030373940113 -0.8689656903839116 -0.10843936519725833 -0.7923640541369215 0.15871160179195828 0.6341566074271756 0.11574877010479534
0.4634511820904288 1.5682790975650607 0.2596685822880804 0.21953818202018738 -0.9311247866666041 -0.1553035843751643 0.6425901567834088 -0.19944007965205376
00000000: 73fc 5c83 e67d d2bf 703e ff17 4c2e f43f
00000010: 5470 b122 91ce ebbf 9c08 1fa7 aec2 bbbf
00000020: de68 61dc 0b5b e9bf 2f9b 9869 a950 c43f
00000030: 1c25 2ecc 024b e43f 58fe 261e b6a1 bd3f
00000040: 5cbd 9725 2fa9 dd3f 61ad b0d2 ab17 f93f
00000050: 9f76 2ef9 689e d03f 0000 00c0 d319 cc3f
00000060: 1e4c 6735 c6cb edbf 63e4 ebe3 fce0 c3bf
00000070: 59b8 833b 1990 e43f 9b00 cfa5 4087 c9bf

out_layer.bias f8 [1]
-0.1711522040550744
00000000: c105 87bf 50e8 c5bf
