homework1/result/model_save/adam-64-0.001-Relu-3-32-0/model.pt (torch, 11223 bytes, 6 tensors)

proj_layer.weight f8 [32, 1]
-0.2441314458847046 -0.41941252143340396 0.41526140898970004 0.10547323089225641 0.7038748866823276 0.6872071202142603 0.05863499641418457 0.1460846341932962
-0.7319262027740479 0.5073246464668761 0.14225904623949448 0.33113059497698777 0.20305062254041284 0.16568607283352454 0.5812219628120584 -0.4942997874329938
-0.33247053623199463 -0.527496420417655 0.5897852993688023 -0.50566310127543 0.19748638197287552 0.4503685922464964 0.16035642427164265 -0.24356937249365046
-0.20852916634499807 -0.25882065784350244 0.6831984969353669 -0.9677726030349731 0.17094960085038935 0.4576457659431037 -0.4573017358779907 -0.3107566292096105
00000000: 0000 0000 b33f cfbf 39b8 c59d a7d7 dabf
00000010: 81b4 b996 a493 da3f 8423 492d 4b00 bb3f
00000020: 79d7 58a0 2486 e63f 3dc1 5cc9 99fd e53f
00000030: 0000 0000 6805 ae3f 6077 27bb e6b2 c23f
00000040: 0000 0080 f06b e7bf b8f5 a0e5 003c e03f
00000050: ec52 945f 8b35 c23f 5365 0861 3e31 d53f
00000060: 742b 9f13 90fd c93f 3080 1c84 3335 c53f
00000070: bdd4 3fcd 5e99 e23f 0972 5c93 9ba2 dfbf
00000080: 0000 0080 3247 d5bf bb6d 4e2c 40e1 e0bf
00000090: 1d6b 8e6b 85df e23f 78b3 5862 642e e0bf
000000a0: 6d4b fdd7 3b47 c93f 6008 b6c9 d6d2 dc3f
000000b0: 58a0 f92e 8f86 c43f ae6f 95fc 472d cfbf
000000c0: 6c61 db6e 15b1 cabf 21e4 3d85 8490 d0bf
000000d0: b370 2018 c3dc e53f 0000 0040 fef7 eebf
000000e0: a455 7530 ade1 c53f 5c39 7877 114a dd3f
000000f0: 0000 0080 6e44 ddbf 451c dec5 6fe3 d3bf

proj_layer.bias f8 [32]
-0.3008081912994385 0.8403819280912378 0.6263500009134946 -0.86622450475369 -0.6084764016097782 0.18445727081794824 -0.9435287714004517 0.6587433669479427
-0.9642773866653442 -1.0185420728643442 0.6483287058225696 -1.4511841595797854 -1.0744771238610118 1.3700704554556458 -1.5004061898196885 0.8919471232286651
-0.873746395111084 0.654324541403398 0.2562462632105186 0.1976963252238598 -1.1492481029893562 -1.522349645840919 -0.9066102220509493 0.5827979780758176
0.8700401659381712 0.5632191343335122 -0.28287242176703714 -0.6203694343566895 -0.14542365383715083 -0.09624043369470552 -0.6749022006988525 1.1750660353332743
00000000: 0000 0000 7140 d3bf 2ba4 29a4 68e4 ea3f
00000010: a8bc 3828 0f0b e43f 0d26 dd73 1cb8 ebbf
00000020: 03a8 a980 a378 e3bf 9314 d6bc 4b9c c73f
00000030: 0000 0040 6331 eebf 69f2 2ff8 6c14 e53f
00000040: 0000 0040 5cdb eebf a9d6 c8c5 f24b f0bf
00000050: 311c 92d7 1bbf e43f 10e5 9de1 0c38 f7bf
00000060: ef87 b4ec 0e31 f1bf 7c5d 76ff ceeb f53f
00000070: 4fdd bfeb a901 f8bf a4e8 80b1 d48a ec3f
00000080: 0000 0000 bbf5 ebbf 8487 4905 3af0 e43f
00000090: 5687 0dba 5666 d03f 1b1c b0f9 1c4e c93f
000000a0: ea44 95fa 5163 f2bf 416c 5f4d 8b5b f8bf
000000b0: 34b3 bd70 f302 edbf 8556 00f2 47a6 e23f
000000c0: c125 5d79 5ed7 eb3f 2634 4e22 e405 e23f
000000d0: e980 1bee 941a d2bf 0000 0000 11da e3bf
000000e0: 44cf a506 3e9d c2bf ab88 458b 36a3 b8bf
000000f0: 0000 0080 cc98 e5bf 4459 060b 12cd f23f

hidd_layers.0.weight f8 [32, 32]
0.06832492351531982 0.10635776817798615 0.07382442057132721 0.0763060599565506 0.03758034110069275 0.07200483977794647 0.029269292950630188 0.11991699039936066
-0.10682689398527145 -0.11921630054712296 -0.07119420170783997 0.04451204836368561 0.0804479569196701 -0.11562968790531158 0.13956721127033234 0.09796611964702606
-0.131900355219841 -0.1623997986316681 -0.16595099866390228 -0.0270984023809433 0.1463274210691452 0.11595924198627472 -0.05076524615287781 -0.0999213457107544
0.0019056499004364014 -0.08437139540910721 -0.1265006959438324 0.02487833797931671 -0.13476285338401794 -0.040497153997421265 0.07760132849216461 -0.13122260570526123
-0.10030227154493332 -0.3208298943990072 0.24712366305007905 -0.29098177063591796 -0.1807618656014467 0.012058049833864682 0.04329010844230652 0.14365637549970717
0.10987718403339386 -0.32530525059573545 0.2505769137698461 -0.02937945050201428 -0.23344405923698922 0.29033016345747353 -0.4884718384831318 -0.3144280979746558
-0.08820808678865433 -0.12526679572026667 -0.11063305258985676 -0.14149869110636956 -0.25430574463947764 -0.5876184709954825 -0.1653671706367606 -0.5870626091747223
0.5929602292727301 -0.41428982868850733 -0.08416928636199936 -0.07188648730516434 0.058720744514570655 0.09652815230534402 0.09794057905673981 0.4101439624942902
0.16557158529758453 -0.3391033965843771 0.1710427202078792 -0.1767172844576114 -0.11330528703163716 -0.14672447985540707 -0.10873246192932129 0.07190349830687684
0.14925245940685272 -0.08721133055592933 0.10017766325046504 -0.28289133292201274 -0.31722241850356503 0.14891315017771503 -0.17130899673469213 -0.0778927486648123
-0.03168897330760956 -0.13500607692013353 0.09389119730640114 -0.07586611621800697 -0.19743116222525456 -0.1745512937455912 -0.23100964066634422 -0.5130427349213316
0.3910590978941059 -0.20992162222840766 -0.047817838732108695 -0.10970200598239899 0.01685688302259317 -0.0629539752828285 -0.04113401472568512 0.36459168043948326
-0.09786812216043472 -0.05609265002326837 0.003501314871777801 -0.3144179149546168 -0.06008818553282284 0.17649073993274683 0.17213715612888336 0.3127517825029514
-0.06640777736902237 0.009111839168314276 -0.044321283300287416 -0.6260251647420962 -1.3810164104499874 0.30629364853356494 -0.003852928162327573 0.15266162776940406
0.06754089891910553 0.019188388333116865 -0.10487655512472752 -0.17657582461833954 -0.33681572521465164 -0.44769376061348637 -1.2641600188319997 -0.6673993263285035
-0.6094875588077693 -0.08522157313567844 0.16838149210268158 0.1380249708890915 0.01037224230216352 -0.07698237448518143 -0.030613452196121216 -0.9111438805634362
0.013088241219520569 0.059308422150044005 0.04008142538081251 0.002822795450107193 0.09362085490841386 0.08345481140679108 -0.06132718175649643 -0.06966862651619841
0.16353578865528107 0.10479774194932705 -0.014706469324558347 0.09305456703864472 -0.19717935520002788 -0.05534171821758153 -0.19829964581351606 -0.0158755076576345
0.029803261160850525 0.00898505591557353 -0.12597157575148155 -0.0942629751116478 0.06868021697018138 -0.04958247740963381 -0.13663576169727204 -0.1839984140743069
-0.06429346554157173 0.01723728872253823 0.12621719252131033 -0.0056359171867370605 -0.1747628657379972 -0.10383709768313001 -0.15656305849552155 -0.15382854309508356
-0.028354033827781677 0.08246340114281825 -0.005041808781548266 -0.014095632025624359 0.12744940550078998 0.10742166537047299 -0.04773488640785217 -0.11895083448144331
0.09091375768184662 0.09488468114675482 -0.09941103461308605 -0.024095205916487245 -0.1581255127307111 -0.1447084253324908 -0.08170139191388469 0.12780591610879777
0.14324639737606049 -0.14590120265708498 -0.09567417102241847 0.09291871208331952 -0.06721845120841155 -0.07803338779235852 0.1265261476780658 -0.021477340786051256
-0.07845209142022493 -0.16049756100466436 -0.05120439779861232 -0.00631403923034668 0.010179509452456834 -0.014430477476089939 -0.04411587119102478 0.14903825174504912
0.037795886397361755 -0.21070279730863742 -0.1995363820387488 -0.06378941982984543 0.07620151340961456 0.008093821000592995 -0.1428036093711853 -0.023381575930303888
0.06830599904060364 -0.058554425835609436 -0.19131337861640987 -0.06386887282133102 0.06034897267818451 0.07482438573379287 0.037287741899490356 -0.040032548385451686
-0.0028366893529891968 0.08458513170141603 -0.09334739654765171 0.002033095141916042 -0.15479563176631927 0.05875095725059509 0.14544625580310822 -0.11860905959390455
0.11815172120292833 0.13806961139769208 -0.07189941856356136 0.007707670331001282 -0.11170966215193073 -0.08413651861995294 -0.12938018143177032 -0.023758834432666086
0.17472048103809357 -0.07052440149018822 -0.08888374929199074 -0.19248126433978413 -0.07770758397946688 0.1234261091695247 0.12312044203281403 0.15017479664881708
-0.13580751419067383 0.024110039812286977 -0.036363555615375444 0.04605127514755304 0.025974356278726175 0.06418347865992491 -0.019113252989658578 0.08686929908557217
-0.06598561257123947 0.10688009811722116 -0.08545247258641737 0.10242089636210656 -0.18339834864306598 -0.05559652796379939 0.0714853533370741 0.017066629460752793
-0.34965106594664835 -0.05206683706049269 -0.001058924580983506 -0.02595651149749756 0.13525599306488076 -0.062491162519994495 0.013054415583610535 -0.2514489691354575
00000000: 0000 0000 be7d b13f 0000 0040 433a bb3f
00000010: 0000 0040 28e6 b23f 0000 0040 cb88 b33f
00000020: 0000 0000 bb3d a33f 0000 00c0 e86e b23f
00000030: 0000 0000 c5f8 9d3f 0000 0040 e1b2 be3f
00000040: 0000 00e0 0159 bbbf 0000 00a0 f584 bebf
00000050: 0000 0080 c839 b2bf 0000 0080 48ca a63f
00000060: 0000 00c0 3c98 b43f 0000 0040 e899 bdbf
00000070: 0000 00a0 56dd c13f 0000 00c0 4e14 b93f
00000080: 0000 0060 1ce2 c0bf 0000 0040 84c9 c4bf
00000090: 0000 00e0 e13d c5bf 0000 0000 afbf 9bbf
000000a0: 0000 0060 dbba c23f 0000 0040 81af bd3f
000000b0: 0000 0000 e7fd a9bf 0000 0000 7294 b9bf
000000c0: 0000 0000 e038 5f3f 0000 0020 5d99 b5bf
000000d0: 0000 00c0 2c31 c0bf 0000 0000 b579 993f
000000e0: 0000 00c0 e83f c1bf 0000 0000 0bbc a4bf
000000f0: 0000 0040 aedd b33f 0000 0000 e7cb c0bf
00000100: 0000 00e0 68ad b9bf b276 011c 7a88 d4bf
00000110: 8014 6f89 bfa1 cf3f 9d42 2701 729f d2bf
00000120: f8a2 8f6e 3423 c7bf ed17 850d e4b1 883f
00000130: 0000 0000 1f2a a63f aa0a 5105 5563 c23f
00000140: 0000 0040 e920 bc3f 30a6 211d cdd1 d4bf
00000150: df8a 71c0 7309 d03f 5c89 528c a515 9ebf
00000160: 4526 efb3 7ee1 cdbf 54e6 45f7 c494 d23f
00000170: b654 d362 1f43 dfbf 07a8 6f07 971f d4bf
00000180: 0000 0020 ce94 b6bf 4856 720b be08 c0bf
00000190: b6e6 ba9e 7252 bcbf d744 5d0d a11c c2bf
000001a0: c055 1a9a 8b46 d0bf 976f 6e40 c5cd e2bf
000001b0: a2c4 db5e c02a c5bf fd83 6386 37c9 e2bf
000001c0: dec2 11bb 87f9 e23f d115 527c b983 dabf
000001d0: 4ea0 404c 1e8c b5bf 0000 0020 2767 b2bf
000001e0: 50de 923a a510 ae3f 5d75 4ba9 11b6 b83f
000001f0: 0000 0040 a212 b93f 2026 6476 cc3f da3f
00000200: 0000 0020 7331 c53f f9b6 92bb deb3 d5bf
00000210: 0680 c154 bae4 c53f 4512 b106 ac9e c6bf
00000220: 43c8 4346 9301 bdbf e933 4025 dec7 c2bf
00000230: 0000 0000 e4d5 bbbf da2e b285 4468 b23f
00000240: 0000 0060 b41a c33f 880f 9454 7b53 b6bf
00000250: 9650 734b 3ea5 b93f 7e33 ce3f e41a d2bf
00000260: 3cf9 4142 5f4d d4bf 6193 fa0a 960f c33f
00000270: a837 3e05 74ed c5bf 0665 1c78 c7f0 b3bf
00000280: 0000 0080 8939 a0bf cf0d 910e e147 c1bf
00000290: de32 d0e5 4009 b83f 6fe7 0738 f66b b3bf
000002a0: a3ff 7ba0 6c45 c9bf 944f 0e61 b257 c6bf
000002b0: 2080 dc51 b991 cdbf 2200 fe98 d86a e0bf
000002c0: 678a 10bd 1c07 d93f 16de 1833 b6de cabf
000002d0: 6624 0a6b 947b a8bf 0000 0040 6e15 bcbf
000002e0: a99a 2d45 ee42 913f 5e31 fe70 c01d b0bf
000002f0: 0000 0080 840f a5bf 9f66 f857 7855 d73f
00000300: 0000 00a0 e20d b9bf e2b4 ca02 2db8 acbf
00000310: 90ca c01b caae 6c3f f26b 8051 6c1f d4bf
00000320: c599 7aef e0c3 aebf 2e6c 07a2 3f97 c63f
00000330: 0000 0020 9708 c63f 996a 670d 2004 d43f
00000340: 0000 00a0 1900 b1bf 08e4 df59 3aa9 823f
00000350: 933d 957c 47b1 a6bf 444a 21ed 6508 e4bf
00000360: bff3 e1a9 a418 f6bf c325 dbac 509a d33f
00000370: 7fdf 6e0e 2d90 6fbf ecd5 4f8d 6a8a c33f
00000380: 0000 0040 5c4a b13f 5f2c 6af1 1ea6 933f
00000390: 82ba 609e 30d9 babf 0000 0060 099a c6bf
000003a0: 32d4 248b 638e d5bf c552 1dbb 03a7 dcbf
000003b0: f9b4 1cdb ff39 f4bf e181 fed4 555b e5bf
000003c0: 6ebe 8c0d ec80 e3bf 8e0a 88bd 14d1 b5bf
000003d0: e795 ea54 868d c53f 0000 0060 cdaa c13f
000003e0: 10b6 cacb 0a3e 853f 7143 c8ec 1db5 b3bf
000003f0: 0000 0000 2259 9fbf 3e0e 1f36 1728 edbf
00000400: 0000 0000 02ce 8a3f c80a 066b ac5d ae3f
00000410: 3214 6076 8d85 a43f c63b 87c4 d41f 673f
00000420: 7f21 0e4e 89f7 b73f b59e af65 4b5d b53f
00000430: 0000 00c0 4666 afbf 57be 7198 cdd5 b1bf
00000440: 0000 00a0 bdee c43f 2bf4 5d5a 06d4 ba3f
00000450: 4d10 4fe6 6c1e 8ebf b3a6 2c92 6cd2 b73f
00000460: 02e7 0351 2c3d c9bf e5aa b2eb bf55 acbf
00000470: 62e9 c9fe e161 c9bf 0caa c948 ab41 90bf
00000480: 0000 0000 bf84 9e3f 0320 7bca c166 823f
00000490: 7402 0a2b d61f c0bf 3604 544b 9e21 b8bf
000004a0: 9be4 c4d5 0695 b13f 9caa dbdd df62 a9bf
000004b0: 3217 fad7 477d c1bf 9685 7b91 428d c7bf
000004c0: 44f9 d85b 8975 b0bf 350d 57dd a6a6 913f
000004d0: 1b36 098d e227 c03f 0000 0000 b015 77bf
000004e0: 2231 732c a15e c6bf 221d a96a 1195 babf
000004f0: 0000 0020 420a c4bf 6571 e458 a7b0 c3bf
00000500: 0000 0000 d708 9dbf 407c 064b 521c b53f
00000510: 115e 453d b8a6 74bf bf34 88b4 2bde 8cbf
00000520: e8a0 421a 4350 c03f c4e5 a57b fc7f bb3f
00000530: 0000 0000 b570 a8bf 5a01 eed7 8f73 bebf
00000540: 0000 00c0 1f46 b73f d5ac 6aca 5c4a b83f
00000550: 9d54 8666 0073 b9bf d556 9be5 69ac 98bf
00000560: b9ba ebf0 743d c4bf 461d 2141 ce85 c2bf
00000570: dfcc 4ee6 61ea b4bf f417 f6ba f15b c03f
00000580: 0000 00e0 e555 c23f d9fb edfe e3ac c2bf
00000590: 8ffa 9c3b 1a7e b8bf 8394 954d 85c9 b73f
000005a0: 02be a079 3a35 b1bf b473 9000 fff9 b3bf
000005b0: 4cde 2e41 0232 c03f 66e2 1ff1 27fe 95bf
000005c0: 11e2 f3ae 6f15 b4bf 7f28 cd1f 2f8b c4bf
000005d0: 23af e97b 7637 aabf 0000 0000 c0dc 79bf
000005e0: 8541 80a1 fed8 843f 7e90 9ae6 b98d 8dbf
000005f0: 0000 0000 5b96 a6bf 4b8b 8c78 af13 c33f
00000600: 0000 0080 fb59 a33f 65e3 ce2b 4ff8 cabf
00000610: b0fa 9b7d 688a c9bf 0000 00e0 8054 b0bf
00000620: 0000 0040 f181 b33f 0e51 fa43 7e93 803f
00000630: 0000 0080 6347 c2bf e362 ccff 56f1 97bf
00000640: 0000 0080 807c b13f 0000 0080 d8fa adbf
00000650: 71ed 38f0 f47c c8bf 0000 00e0 b559 b0bf
00000660: 0000 0080 0fe6 ae3f 7d80 abe1 b027 b33f
00000670: 0000 0000 6117 a33f 729e 2e6c 257f a4bf
00000680: 0000 0000 f83c 67bf d9ab 6206 5fa7 b53f
00000690: a3c2 566f 9de5 b7bf b42b 9da4 b5a7 603f
000006a0: 0000 00e0 57d0 c3bf 0000 0000 9b14 ae3f
000006b0: 0000 00a0 fb9d c23f 1813 f7cf 295d bebf
000006c0: 2c5e 88f2 303f be3f 5a23 c3d8 43ac c13f
000006d0: 24f8 5413 0068 b2bf 0000 0000 1492 7f3f
000006e0: f4f9 9621 0199 bcbf ee3a df8b f889 b5bf
000006f0: 0000 00a0 878f c0bf 137c 8463 3c54 98bf
00000700: 0000 00a0 3d5d c63f af67 f81d e30d b2bf
00000710: e1de 5adc 15c1 b6bf 2e4f b7df 39a3 c8bf
00000720: c9cd d7eb a4e4 b3bf da0a 5b7e da98 bf3f
00000730: 0000 0040 d284 bf3f a522 2580 ed38 c33f
00000740: 0000 0000 2462 c1bf dd01 ff61 4db0 983f
00000750: e5c4 4474 3e9e a2bf 024b 6561 0894 a73f
00000760: edd2 018b 0599 9a3f 40b3 c915 546e b03f
00000770: 1904 0bb2 6c92 93bf 7056 99fe 103d b63f
00000780: 0000 00e0 6ee4 b0bf 74b9 017e 7e5c bb3f
00000790: cdf9 1e97 36e0 b5bf 7560 4d80 4138 ba3f
000007a0: e2fb c7da 9879 c7bf 8957 c0ea 2577 acbf
000007b0: f3c9 b936 dd4c b23f 272b 8c1d ea79 913f
000007c0: 3927 50dd ae60 d6bf 670f c324 81a8 aabf
000007d0: 1bab 6e9c 7359 51bf 0000 0000 5894 9abf
000007e0: fb9c 6681 1150 c13f 8af2 9f76 d7fe afbf
000007f0: 0000 0000 46bc 8a3f 572e c36a bd17 d0bf

hidd_layers.0.bias f8 [32]
-0.032134488224983215 0.2795384059700964 0.3146302448234598 0.4388564122038668 -0.029341091202642715 0.126470829646007 -0.09267804292416328 -0.030335571367281558
-0.01487509981053126 0.2785651956196879 -0.5486181662027125 -0.12745310568767645 0.06638617730692553 0.009910494089126587 -0.011339738965034485 0.12511651527282414
-0.20819176567586978 0.23274798293295068 -0.017673560098453438 -0.19167449215297203 -0.039459162340711285 -0.02221013083846284 0.5512340728701102 0.2746528014747653
-0.03850815053451813 -0.2218715786007397 0.018048882484436035 -0.11889861524105072 -0.10626860856720884 0.7661595611459933 -0.07139646261930466 0.07971623971901515
00000000: 0000 0080 ee73 a0bf b285 e70d f5e3 d13f
00000010: d659 f6e4 e622 d43f 5d8d 8334 3916 dc3f
00000020: 5ec4 934c 970b 9ebf 9521 9d36 3230 c03f
00000030: 09a4 6a8b bfb9 b7bf 1438 b6bb 4910 9fbf
00000040: c20f b019 d676 8ebf bf62 3f1d 03d4 d13f
00000050: eaa0 3aaf 478e e1bf c1e1 5924 6250 c0bf
00000060: 5890 703c affe b03f 0000 0000 f44b 843f
00000070: 0000 0000 4a39 87bf 4ea4 a466 d103 c03f
00000080: e6ea 6f1c 07a6 cabf 3a18 7497 afca cd3f
00000090: 3eca 818a 0419 92bf 4f20 a32d ca88 c8bf
000000a0: 68d3 8fc7 fd33 a4bf cd43 5da6 40be 96bf
000000b0: 4a60 6da3 b5a3 e13f 7fb0 0558 e993 d13f
000000c0: dab3 591e 57b7 a3bf d843 00b3 4966 ccbf
000000d0: 0000 0000 687b 923f 0000 00c0 2370 bebf
000000e0: ed38 6366 6b34 bbbf dc78 540e 6184 e83f
000000f0: 0000 00e0 0947 b2bf dca2 8d92 4868 b43f

out_layer.weight f8 [1, 32]
0.1639508157968521 0.5299854957230588 0.14010377468961216 -0.5359157547274233 0.012285749219017093 -0.04787422936808127 0.09394752972983422 0.023292139670693095
0.003411777834126785 -0.09591308471671975 -0.8312438691343594 -0.07047399903162156 0.005889608817104084 -0.03895455598831177 -0.09242542088031769 -0.2217870733923148
0.17699944974520412 0.2993575598151234 0.14691511359763354 0.17556991384636061 0.10082683563981773 0.014642450542148355 1.1603691673584615 0.42555326195935766
0.004347576224546739 0.08053005192987878 -0.03873571753501892 0.09268246591091156 -0.12125934053774641 -0.8089273013351607 0.07382003962993622 -0.15731484299495918
00000000: 0000 0020 57fc c43f 2e84 6f24 a4f5 e03f
00000010: ca44 2ba5 ebee c13f e3e4 fecb 3826 e1bf
00000020: 5ffe d158 4529 893f 8f0a ea92 f882 a8bf
00000030: c0c8 baff f10c b83f bed6 8e08 e5d9 973f
00000040: 9d58 0047 04f3 6b3f dee5 1d8a c28d b8bf
00000050: add7 1dbe 8c99 eabf 7924 0f81 950a b2bf
00000060: f153 17d4 b31f 783f 0000 0000 daf1 a3bf
00000070: 0000 0040 31a9 b7bf 2ea1 72d1 8463 ccbf
00000080: 2167 0800 eba7 c63f 2bd8 4d9c ac28 d33f
00000090: a450 184c 1dce c23f 1eda 102f 1379 c63f
000000a0: d6d6 a199 c9cf b93f 20d1 b171 dcfc 8d3f
000000b0: 2476 9142 df90 f23f 7994 b4bf 433c db3f
000000c0: 8681 389b c3ce 713f 8c4e 6213 9e9d b43f
000000d0: 0000 0000 2bd5 a3bf 0000 00c0 09ba b73f
000000e0: adb3 f125 da0a bfbf 056f 0282 bbe2 e9bf
000000f0: 0000 00c0 dee5 b23f 525b eb8c e422 c4bf

out_layer.bias f8 [1]
-0.03955050636863585
00000000: db7c c9c6 f63f a4bf
