homework1/result/model_save/adam-32-0.001-LeReLu-3-32-0/model.pt (torch, 11223 bytes, 6 tensors)

proj_layer.weight f8 [32, 1]
0	0xbfd2bf0811c296aa	-0.29290963873277553
1	0xbf8af3945930c07a	-0.013159903499485138
2	0x3fd640dbf76b7d8b	0.347708694096547
3	0xbfd43611787b20f8	-0.3158000637599936
4	0xbfd9f78c33e3affe	-0.4057341105205977
5	0xbf912d71446c5ff4	-0.016774911690930552
6	0x3fe90a0cc23b8cf5	0.7824767869573451
7	0xbfe3292532634913	-0.5987726196420077
8	0xbf954283d525143f	-0.020761546978310227
9	0xbfe22e027495baa5	-0.5681164052055762
10	0x3fb6f367454847f4	0.08965154115165302
11	0xbf93feff033ee110	-0.019527420590493227
12	0x3fbb1ac0cd71115d	0.10587697044053841
13	0x3fe260cb026ecf98	0.574315552474661
14	0x3fd5995452fae95a	0.3374834833481565
15	0xbfd03ac4b7e337a9	-0.25358694036264723
16	0x3fe6135ae668b7d0	0.6898626804520465
17	0xbfd6aa224dc29b18	-0.3541341552139996
18	0x3f951bbee8db184a	0.020613654100792446
19	0xbfe25f3f1197e2e4	-0.5741267531985526
20	0xbfae7f24c6338fa4	-0.0595637790627557
21	0xbfd1d76b326f8f78	-0.27877311635369706
22	0xbfd350bf556bfad2	-0.30180343000385534
23	0xbfb91a5e3b6142ea	-0.09805859517770057
24	0x3fd773a32050d95c	0.3664329352935931
25	0x3fd652c3f88db2a6	0.34880160591891707
26	0x3fe1c85deaaec206	0.5557088454862089
27	0x3fd6af94c7861806	0.35446662411447993
28	0x3fd99fb7f611b4be	0.4003734496134931
29	0x3fb1d0fc5b42d0b6	0.06959511974384011
30	0xbfe01cbf84f7770e	-0.5035092923169218
31	0x3fd2629a3790b793	0.28726821352290094

proj_layer.bias f8 [32]
0	0x3ff1c8d275b97b8c	1.1115288351645374
1	0x3ff37fb919bdf002	1.2186823850197475
2	0xbfe5cfd8e35a1bc7	-0.6816219749897464
3	0xbfca1e1876743d0c	-0.20404344352616766
4	0x3feb2202c0187c68	0.8479017021053439
5	0xbff2912cfdbde2aa	-1.1604432975565637
6	0x3fcd851b4adc1ff5	0.23062459140078287
7	0xbfe0c7af799e7506	-0.5243756652231759
8	0xbfd58e1a9ddf747c	-0.33679833810112547
9	0x3fc18c23e14a9096	0.13708923817205648
10	0x3ffbc2d94b18920f	1.735070508330981
11	0x3ff3c56355786cf2	1.2356904352844222
12	0x3ff465fad074012a	1.274897398252572
13	0xbfe2ebe6e24c7333	-0.5912966174979374
14	0xbff34478633d9d53	-1.204216373118318
15	0x3ff1043a43d3b968	1.0635321282857948
16	0xbffe611bc8e14370	-1.898708138167617
17	0xbfde18308b846f0e	-0.47022641777742613
18	0x3ff345c3c8f6bb83	1.2045324182651889
19	0x3fed3a116dfa08b3	0.9133383892042474
20	0xbfe30fd5931f6f4d	-0.5956828950397522
21	0x3fa7ee1122befbac	0.04673818158288809
22	0x3ff014a7c4934e98	1.0050428084113374
23	0x3fd68fc9db47e445	0.35252615369933366
24	0x3fd4b7cf4e287f24	0.3237188590301108
25	0xbffc7431f2b234c0	-1.7783679466549955
26	0xbfe556379d77d20e	-0.6667745662257987
27	0xbffc1dbdc63caffe	-1.7572610610613988
28	0xbff447a7af13a875	-1.2674939001977041
29	0xbfdff23d6860deca	-0.49916014855578494
30	0x3fe31092a0b5e397	0.5957730425717384
31	0xbff9ddd7e5c9ca02	-1.6166609741309235

hidd_layers.0.weight f8 [32, 32]
0	0x3fb67b951089f3e6	0.08782321599751661
1	0x3fb18c64c29ad09b	0.06854848624317571
2	0xbfb9ffc93e9df590	-0.10155923632370034
3	0x3fb7ee7401ed8e7e	0.09348225638455607
4	0xbfa2fce3eaae432b	-0.03708564986948767
5	0xbfbdf1b5a163b7e9	-0.11696944418119383
6	0x3fc40840d1485714	0.15650186747432626
7	0x3fbc8cb625628015	0.11152208721841846
8	0xbfb4b6e2c9d46ef6	-0.0809156172512607
9	0x3fb2a13f722ca431	0.07277294671497782
10	0x3f992b7244883ce6	0.024579797203895824
11	0xbfc6d043b000f94a	-0.17823072523055777
12	0x3f80923de1f181c0	0.008091433961625039
13	0x3f8b4cafa731b679	0.013329860963689587
14	0xbf6d1c4c680cf543	-0.003553532821028911
15	0x3fa0d52c51ee4586	0.032876381875335745
16	0x3fc5ba89a90bd4af	0.1697551799221961
17	0x3fc36c5c1fbe7f13	0.15174438047414948
18	0x3fad49a26ce9158a	0.05720241145585721
19	0xbfc86fbb13a4e652	-0.19090975245653624
20	0xbf8454e53006167c	-0.009927549865788914
21	0xbfb1b0a1e0c8f31c	-0.06910144555963565
22	0xbfb329d2e7af0685	-0.07485693127002875
23	0xbfc3f424a7690eeb	-0.1558881585534587
24	0xbfa1eca9ad3fc337	-0.03500871887070505
25	0x3fb7f3a686cc78ff	0.09356156149849325
26	0x3fc1a9b31137cd4e	0.13799131718369967
27	0x3fc3bcef838f2bf4	0.15420335696975906
28	0xbfb1074eb35d93e4	-0.06651775244752361
29	0xbfa0008a8b0a0f60	-0.03125412890679402
30	0xbfa05e9bf6ee7b0b	-0.0319718111925252
31	0x3fd0754d580a3eff	0.2571595535055024
32	0xbfb9c680f23995c4	-0.10068517602629529
33	0x3fd17646d0752216	0.27284403187926054
34	0xbfb05d55a6603c4e	-0.06392417251503099
35	0x3fbbf03845d950b7	0.10913421349806894
36	0xbface3555c71afe0	-0.05642191651790518
37	0xbfbedd929f018a32	-0.12056843168242251
38	0x3fb2fdd5d14b00dd	0.07418571815196935
39	0x3fb3e341710f924c	0.0776863957431228
40	0xbfba071a8edd079f	-0.10167089450717846
41	0xbf9eaa7f2fb0462b	-0.02994726875846802
42	0x3fcc9a2703d2b0c4	0.2234543579737701
43	0x3fbf66572345fafa	0.12265534030118977
44	0x3fcbc4fac7b02d0f	0.21694884062194617
45	0x3fc1b74dde07bcfe	0.138406499303052
46	0xbfbdadbaa24be012	-0.11593214475931315
47	0xbfc9c4d9a7e9c148	-0.20131989191896538
48	0xbfc808b12687e0c4	-0.18776525861154003
49	0x3fbae98f3bbffcbe	0.10512633522738477
50	0xbfb31631bac984a1	-0.07455740747674834
51	0x3fbd3a1c226eb9b1	0.11416793671262472
52	0xbfc9cf8d11b8fd98	-0.2016464554344395
53	0x3fabaeb2d135b2d1	0.05406721881704402
54	0xbfcfa35e9f3dff5d	-0.24717314506051027
55	0xbfd0595c0b56869e	-0.25545407397485487
56	0x3fc0813923ba248d	0.1289435791443662
57	0xbfc83c5146791a57	-0.1893407434565286
58	0xbfb3e75d5905ffaa	-0.07774909423278467
59	0xbfc0696b3b5824b4	-0.12821712873145474
60	0xbfd07b9ccf05dcbf	-0.2575447103221897
61	0x3fb4708a43938294	0.07984222554979176
62	0xbfa5ce8c431fe351	-0.0425914604128993
63	0xbf6ac4580f091199	-0.003267452230178058
64	0xbfd53781d783a234	-0.3315128903036879
65	0xbfce1d5bfaa19110	-0.23527097452018397
66	0x3fc80ba620da4b70	0.18785549739967733
67	0x3fbb8c65108e1f63	0.10761100439242237
68	0xbfcd1b82649a29a4	-0.22740201866356557
69	0x3fc1fd376d3a2abf	0.14054005463943572
70	0xbfc935793515df09	-0.1969443806844924
71	0xbf9f1ed529ab0057	-0.030391054790698337
72	0xbf94277559625f1d	-0.019681771832067974
73	0xbfa496334a44cb26	-0.04020843774414677
74	0xbfda285477d26eb4	-0.40871154500357965
75	0xbfd3a4cdb7cf6604	-0.3069338126202583
76	0xbfc7167e33e8f355	-0.18037393126169357
77	0xbfb2f5e6aecd30ea	-0.07406465308776303
78	0x3fd37ead26df6d6e	0.30460671230476677
79	0xbfe26046a174bc6c	-0.5742524293363096
80	0x3fd006f409b87390	0.2504243941237343
81	0x3fc86696b1992691	0.19063075706280988
82	0xbfd5de3a2adc5548	-0.3416886728822033
83	0xbfb07c3a70dc9e9b	-0.06439557319083138
84	0xbf9f2a7522e42035	-0.030435400251946205
85	0x3fc1c44164ff6f35	0.138801740947082
86	0xbfdc61c9977f896c	-0.44346847338433437
87	0xbfd6de12c0741a94	-0.3573042754582414
88	0xbfaf21974791c0ea	-0.06080315350198069
89	0x3fd26fa45b2beca9	0.2880640879008732
90	0x3fc3ed59fdc8c616	0.15568089381990607
91	0x3fc6aa6e92ccee2f	0.17707616966241477
92	0x3fbc7845686450f0	0.11121019171361346
93	0xbfb241fd5b5514c3	-0.07131942252916006
94	0x3f92b18e12fc5114	0.018255443486013226
95	0x3fd6d8f42557f0f2	0.35699180266216424
96	0xbfcb7329c7452af6	-0.21445200185765828
97	0x3fc3b3b60e05a237	0.15392184910457882
98	0xbfc1380551f5d394	-0.13452211858716778
99	0x3fb3f4290e5f7cc7	0.0779443416681601
100	0x3f93a47595d3368d	0.019182050008387953
101	0xbfa0529ffccc9145	-0.031880378350509754
102	0xbfa975a6de56b9e6	-0.04972573722931255
103	0xbfb73a65ea05db82	-0.09073483432244525
104	0x3fbf54dbb479e079	0.12238858371881801
105	0x3fc07579dd9934bf	0.1285850841544853
106	0x3fbd8646a1dc16c8	0.11533013774541268
107	0xbfba4a026433bea1	-0.1026917929300404
108	0x3fab90a0ad554e99	0.05383779636272585
109	0xbfc3fd68a2836989	-0.1561709207079043
110	0xbfbf3620c36cae3b	-0.12191967745882774
111	0xbfbb7ebabe03c0b6	-0.10740248812703865
112	0xbfc1e1a663dec9df	-0.1396987903259079
113	0x3fa99cf036c46e9f	0.05002546948000241
114	0xbfbf40d769a43eaf	-0.12208315209522412
115	0xbfcbc9cc16c53a57	-0.21709586250149712
116	0x3fc4506308778e2b	0.15870321191242573
117	0xbfb42b01d65fc8c5	-0.07878123744720529
118	0xbfd4db17f1d0d789	-0.32587240805457235
119	0x3fa2bb8d0979812f	0.03658715000779222
120	0xbfc4d6cb32b71f21	-0.16280498482068942
121	0xbfd16d898302ea6b	-0.2723106173904514
122	0x3fa3d2e4bd559b32	0.03871836482249193
123	0xbfc7df66142fff36	-0.1865050886699408
124	0xbfca963ee2bf20cf	-0.20771013328181318
125	0xbfaec1824add1aa4	-0.06007010616172195
126	0xbfa09a69f5df98cb	-0.03242808462509713
127	0xbfc1c04334b5ff86	-0.13867988656783953
128	0xbfd1a16a571501e5	-0.27547701362712324
129	0xbfbe697732d4ae25	-0.11879677763925452
130	0x3fc1f979c3d0c8eb	0.14042589246088907
131	0x3fc3c00dc530d117	0.15429851654483492
132	0x3fb0a379cdb4936f	0.06499444267372011
133	0x3fc11d213ebe6b5e	0.13370147288955087
134	0x3fc4b60d5e66c370	0.16180579289860075
135	0xbfbbcf8c19e612d7	-0.10863567001622286
136	0x3fc8a78d4740226f	0.19261327723531305
137	0xbfa95ba4524a31d9	-0.04952729706301157
138	0xbfb8b151b4965e18	-0.09645567568656366
139	0x3fb286a112cd3c52	0.07236677845979614
140	0xbfb7d6e405370219	-0.09312272193256667
141	0x3fb155acd13d4fc9	0.06771354778658102
142	0x3fc1f2c150a43a4e	0.14022079885076483
143	0x3fb89df5868037fc	0.09616026433670294
144	0x3fb3d3792ea3a998	0.07744557751326508
145	0x3fb13b6339feb848	0.0673124329175333
146	0x3f7cdc7148cbdb59	0.007046167866738917
147	0xbfc3e5d2293bdf4d	-0.15545107854245047
148	0x3fc68a01cd65c14f	0.17608664063619492
149	0xbfa1da53362b1daf	-0.03486881290660492
150	0xbfcf23acd71c55db	-0.24327621940089625
151	0xbfd031eb7d24f319	-0.25304686757208256
152	0x3f81dbbf6f6e452d	0.008719916904541403
153	0xbfa36be5004a1812	-0.037932544980364594
154	0x3f75e13d913cc387	0.0053417592023813415
155	0xbfa805b023caf557	-0.046918396348227524
156	0xbf840fb15822c14d	-0.009795556547346118
157	0xbfb98cd57f121fbf	-0.09980520584406259
158	0x3fbe76704dd78248	0.11899473095355362
159	0x3fc6cbe976cb1c29	0.17809789944132717
160	0xbfb58a165985a5ed	-0.08413829503628963
161	0x3fe0de08dd400e78	0.5271038361829161
162	0xbfad31afb29a6fb7	-0.05701970153060592
163	0xbfaa62a8a67242a2	-0.05153395683112662
164	0x3fd465b8630ccf67	0.3187085120473427
165	0xbfdfaa7f563133c8	-0.49478133599478413
166	0x3fad272cc4990420	0.05693950557589056
167	0xbfcc24f8674ae60c	-0.21987824481566098
168	0xbfc186cdca1517b3	-0.13692638747505512
169	0x3f8331cd2b3e419a	0.009372332460572608
170	0x3fe34e5d6e12b590	0.6033160352578069
171	0x3fe43130ce93dd3c	0.6310047182768481
172	0x3fd9a81e27a9b666	0.4008860957463639
173	0xbfa31167d65e4f20	-0.03724216930200286
174	0xbfdb0ef587b02ed3	-0.42278803110887714
175	0x3f95cafb431f15f2	0.021282125446097262
176	0xbfd5379cc7191423	-0.3315193123165178
177	0xbf9c98b7e6100dec	-0.027926324288285828
178	0x3fd97a0026388a34	0.39807132465844863
179	0x3fd1f4844863cbfc	0.2805491167957255
180	0xbfb15829156ae4c5	-0.0677514722145985
181	0xbf868c12fd73271b	-0.011009357795404953
182	0xbfc70c580ed74ccd	-0.18006420826586692
183	0xbfbd781843c0bf09	-0.11511375097392941
184	0xbfa0fbc5518d60ad	-0.0331708585787863
185	0xbfee883416d55b9e	-0.9541264005628027
186	0xbfc3359545ee1545	-0.1500727263884675
187	0xbfe49640599a37f0	-0.6433412313506306
188	0xbfd30be9fa510ef2	-0.297602171373213
189	0x3fe45f3e6fde328d	0.6366264519616195
190	0x3fcac61622e29338	0.20917011931774154
191	0xbfe4be3971fe906a	-0.6482207514241172
192	0xbfd65aaf73df7356	-0.34928499522884715
193	0xbfbc9b658e37a1b0	-0.11174616548635785
194	0x3fbe3d0ae5873585	0.11811893562044957
195	0x3fa970178c555ec2	0.04968331897788182
196	0xbfc830ef76817c80	-0.1889933899537688
197	0x3fc12a7736a09f33	0.13410844962458554
198	0xbf74bfcb0411327c	-0.00506572058754939
199	0xbfc1767e44268630	-0.136428626324276
200	0x3fb45d5640a56671	0.07954920843385495
201	0xbfb9ffc3144c8658	-0.10155886884288046
202	0xbfc135de837df970	-0.13445645733367995
203	0xbfc05e60343578b8	-0.127880120747198
204	0x3fa6ac91912f747a	0.04428534409792291
205	0xbfb2708f2961895c	-0.07203001747396826
206	0xbfb8c01cb76e0cdc	-0.0966813991381516
207	0xbfcce9497732d08e	-0.22586935348738674
208	0x3fc72fa16e46d7c8	0.18114107021909676
209	0x3fb144beb2d72a89	0.06745521417830437
210	0xbfca92e9ea934a54	-0.20760845140337614
211	0x3fbc2960180ef6b2	0.11000633799900575
212	0x3fca26a9791a6529	0.20430487073171236
213	0xbfb5f2490b1cc306	-0.0857282306794894
214	0xbfda99d42db5d22b	-0.4156389662159962
215	0xbfd26c9f8e0ec940	-0.2878798377306744
216	0xbfc0b0a68d88512d	-0.1303909483982663
217	0x3fc347e0de73a736	0.15063105451491204
218	0x3fc14b399affa4e2	0.1351081854657315
219	0x3fc11c46c3f5fd6b	0.13367542808917263
220	0x3fc2a428ae39f2c3	0.14563473231455334
221	0xbfabe3180c97a1bb	-0.05446696428026906
222	0x3f9b8350ed32cf29	0.026868118741460698
223	0x3fd1bedbc3485143	0.27727407522731456
224	0xbfa5fcc088c3e2f3	-0.04294397038933608
225	0x3fc676cbd6dcb81e	0.1755003737575302
226	0xbfb1ec75904f077d	-0.07001433156167809
227	0x3fb9218af4fad0bc	0.0981680725188338
228	0xbfd3a0ebed62bed2	-0.3066968744487727
229	0xbfc271a0021a5411	-0.14409256079366675
230	0xbfb1aef85a78e8e5	-0.069076082313504
231	0x3fbae90a90274d76	0.10511842746136843
232	0xbfb874a603468b68	-0.09552991466493455
233	0xbfc06110483811e6	-0.12796214605636108
234	0x3fa7ab78745aefb7	0.046230091289060686
235	0xbfa0780f79f5fa74	-0.03216598857669775
236	0x3f830111b966e7b5	0.00927938315441055
237	0xbfca936cd917958b	-0.20762405967904515
238	0xbf9d510a6d740bf5	-0.02862945836114857
239	0x3f8574699fae06c2	0.01047594564966248
240	0xbfbfbfeb9749fe0a	-0.12402222102718255
241	0x3f8fc6fd82439fa9	0.015516262567373778
242	0x3fc79e27fda0ae9d	0.18451404461062718
243	0xbfbc1a3f2951dceb	-0.10977549322875617
244	0xbfa49bf00e7dbf18	-0.04025221039671417
245	0x3fc6c43411c806a5	0.17786265247564362
246	0x3fd68cd090e47e1e	0.35234464788115527
247	0x3fc1d08b92a89622	0.13917679463445248
248	0x3fa90717e5a297b5	0.04888224294818092
249	0xbfbfab298b1b1b98	-0.12370547910823715
250	0xbf95fa84da318adf	-0.02146346647021857
251	0xbeb05a116a0f0f40	-9.746449125416719e-07
252	0xbfc2f873ad3fd295	-0.14820714911879365
253	0xbfba6dad8dd5bc7c	-0.1032360526348714
254	0xbfd0f22d2e691820	-0.2647812798717286
255	0xbfd07bcbd57aeb67	-0.2575559220091947

hidd_layers.0.bias f8 [32]
0	0xbfcc6068315a9442	-0.22169210824827884
1	0x3fd4681d3159151f	0.31885461634768036
2	0xbfe24f86e557c77b	-0.5722078780511163
3	0x3faca74577226d08	0.05596367911604189
4	0xbfc46331ddecbdb4	-0.1592771848313369
5	0x3fedde9c11cbdc27	0.9334240291199237
6	0xbfcfa5787f1f5bdc	-0.24723726470139595
7	0x3fcbd1af0a1c7fa4	0.2173365401622479
8	0x3fab7bb01de6d105	0.0536780392170915
9	0x3fcda318ab68f3b0	0.23153980607631075
10	0xbfc511e18b020939	-0.16460818564889637
11	0xbfe1ddab5df77b4b	-0.5583092532432173
12	0xbfc17dc26f3f0981	-0.1366503756708646
13	0x3fd245e496508898	0.28551592520865077
14	0x3fcb8925474b5d6d	0.2151228521458778
15	0x3fd8c4280708d8de	0.3869724339196078
16	0x3fbb2bd26ef250e0	0.10613742073684618
17	0xbfccfe92dc3c47db	-0.22651897195515755
18	0xbfc30805d05b4e06	-0.14868233369507794
19	0x3fa928e580aaec4a	0.04914014049196476
20	0xbfcb6a157303444a	-0.2141749202333208
21	0x3fc352ac8a35ff1e	0.15096050976352954
22	0x3fd6f2108394642b	0.35852444505286724
23	0xbfda266d7a061b7d	-0.4085954372061947
24	0x3fb65702c8df1a1d	0.08726518062676587
25	0x3fa757b47ca54c09	0.04559101125291682
26	0xbfdc989c048542ab	-0.44681454125842873
27	0x3fe71d348557cb54	0.7223150829653187
28	0x3fc359b73623d3f3	0.15117540496399293
29	0xbfb5a9602c9c067e	-0.0846157177839135
30	0x3fc4fd629b48b0c8	0.16398270208572385
31	0x3fb2777741cc9723	0.07213540417123147

out_layer.weight f8 [1, 32]
0	0x3fbf97e32c45d8ba	0.12341136771087494
1	0xbfc007013a9749e0	-0.12521376953971153
2	0x3ff2105622c59024	1.1289883955260018
3	0xbfc3fa9e136d7844	-0.15608573864568787
4	0x3fb43b0c9e9842b3	0.07902602073614666
5	0xbff0141153a7ab71	-1.0048993366023888
6	0xbfc54ce502f386c8	-0.1664091362391018
7	0x3fbecc01abc174cc	0.12030039256338226
8	0xbfc354223b94dd68	-0.1510050574231443
9	0x3fd31e77ca0c47fc	0.29873461467025186
10	0x3fb8221b6a94a7a3	0.09427043296878294
11	0x3fedf991740c7e82	0.9367148653581838
12	0x3fb87d502af5436f	0.09566212700634734
13	0x3fc737ce61c49626	0.18139056943725612
14	0x3fced7cd78bad7da	0.24096077342045313
15	0xbfcdde2d81edce5a	-0.23334282726465255
16	0x3f615660131a1705	0.0021163822610245097
17	0x3fcc98df381a6db7	0.2234152816716752
18	0x3f8b64ead64dd66f	0.013376078286209762
19	0x3f9ce1f160455389	0.028205653668311768
20	0x3fbae7875fb75810	0.10509534918614372
21	0x3fced45c38be34f4	0.240855720240155
22	0xbfd8ec7665c23856	-0.3894325250374825
23	0x3fa5b64f04d5bda9	0.042406529751015505
24	0xbfc26a68c8d01171	-0.14387235455809447
25	0x3fcc671456473d89	0.2218957349091222
26	0xbfe1ecd71fdc0d7c	-0.5601611730821072
27	0x3ff49ba0fd98487d	1.287995329480082
28	0xbfd23af5464258b1	-0.2848485170483271
29	0x3fa8e4fab72b45a3	0.048621973857403654
30	0x3fc9125d4129e82f	0.19587293321439023
31	0x3fcb425e4c58a336	0.21296290138095636

out_layer.bias f8 [1]
0	0x3fbbae145f2b8fe4	0.10812499354830113
