homework1/result/model_save/adam-64-0.001-Relu-3-65-0/model.pt (torch, 38167 bytes, 6 tensors)

proj_layer.weight f8 [65, 1]
000000 5e 4a 45 08 77 4a f1 bf fb 9c e9 59 85 03 d1 bf
       -1.0806799243042842 -0.26583989887735954
000010 ab f8 ec cf 89 ae be bf 9f b4 32 85 d5 54 e6 3f
       -0.11985074354467666 0.6978557206654336
000020 51 e6 41 bd 53 fb ce bf f0 03 71 d2 7d 68 da 3f
       -0.24204489461026182 0.4126276545612759
000030 00 00 00 00 c8 16 92 bf 00 00 00 00 d9 8b db bf
       -0.01766502857208252 -0.43041062355041504
000040 af d2 88 9c 32 9a ea 3f 42 4c b0 8f dd 3b e7 3f
       0.8313229615510717 0.7260577970904551
000050 00 00 00 40 af d4 e7 bf 00 00 00 c0 38 b3 e6 bf
       -0.7447124719619751 -0.709377646446228
000060 76 9b 94 cf 5f fd e9 3f 00 00 00 00 b2 3e bc bf
       0.8121794752413354 -0.11033165454864502
000070 e7 b1 9d 21 10 d6 f0 bf 81 d8 18 89 5e 09 dd 3f
       -1.0522614777684056 0.45369685543426647
000080 3f b0 8d 65 44 34 bc bf 49 0b 35 b7 a7 8f e1 bf
       -0.11017253379185464 -0.5487860277429287
000090 f3 eb 09 f7 21 42 db bf 00 00 00 00 35 12 df bf
       -0.42591141819838113 -0.4854862689971924
0000a0 bc 3d 23 73 e7 37 d2 3f f5 6b 0e 95 2d f0 e6 3f
       0.2846621155158251 0.7168186103111781
0000b0 2f 52 9f 93 a9 a7 db 3f c0 1e d1 cd 1a 62 b2 3f
       0.43210830131764316 0.07180945896936475
0000c0 35 57 2a 6f c4 34 de 3f 7b ee 4d 1a 88 18 ec 3f
       0.4719706616973441 0.8779945863493163
0000d0 00 00 00 00 d6 80 b5 bf fd b5 8c cc 7f 4a c9 bf
       -0.08399713039398193 -0.19758603561187718
0000e0 58 75 69 61 c6 59 d8 3f 00 00 00 00 0c 02 e4 bf
       0.3804794265068572 -0.6252498626708984
0000f0 c7 77 f3 67 a5 9a e5 3f 84 a8 3a 04 9f a5 e7 3f
       0.6751276998800159 0.7389674265480299
000100 c0 41 6e d6 00 7f e8 3f 00 00 00 00 e4 0f c2 bf
       0.765503329095786 -0.14110994338989258
000110 37 84 b0 c2 a8 1f e4 bf b5 db c5 a6 b2 e6 d7 bf
       -0.6288646509675634 -0.3734556797639315
000120 f2 49 f9 2d 10 1d b1 bf ce 61 18 6c 72 c4 b5 bf
       -0.06684971926123476 -0.08502879275363925
000130 59 ac 48 b4 a4 64 90 bf 28 a1 65 5a 16 3a e4 3f
       -0.016008924010901236 0.632090736919996
000140 fb 60 f1 2b b7 c4 e8 3f c8 2e 03 1a cd e7 ea 3f
       0.7740131242999547 0.840796042256863
000150 0a e2 a6 02 e4 07 e9 3f ee fb f9 70 ac 61 db 3f
       0.782213215999094 0.4278365233694207
000160 d5 01 e8 8a 77 e1 a3 3f 07 9a aa 8e 04 11 bf bf
       0.03882955141671444 -0.12135342104975431
000170 7c b7 be 25 33 fe e5 bf 30 14 6c e5 20 84 d9 3f
       -0.6872802483755858 0.39868948368558943
000180 af c3 a5 6a c4 4b e5 3f 00 00 00 40 56 90 e5 bf
       0.6654989321669883 -0.673869252204895
000190 db 9a 77 d8 7a 1d d1 bf 87 2b 5a 60 e2 ef e6 3f
       -0.2674243081986966 0.7167827493552615
0001a0 e2 0b 18 af 2c 8c e5 bf 97 0f 0f 64 9f 03 a5 3f
       -0.6733611507228228 0.04104326340123448
0001b0 00 00 00 00 ff f6 df bf 46 9e ed 37 9b 2d a0 bf
       -0.4994504451751709 -0.031597948624775316
0001c0 e2 7f e2 c5 fd f9 c0 bf 82 1f 9b c4 7a f2 a2 3f
       -0.13262912905065521 0.037006222247838685
0001d0 47 c2 e6 ad d1 5c 9c 3f 00 00 00 00 7e db b6 bf
       0.02769782661352085 -0.0892866849899292
0001e0 62 7e a1 b4 3d 49 eb bf be 92 99 c2 cd e8 b3 3f
       -0.8526905563302984 0.07777105332349785
0001f0 08 73 a4 56 14 5b ea 3f 51 1a 71 57 28 e8 eb 3f
       0.8236180965646733 0.8720895488593873
000200 e4 c4 96 de cc b2 e9 3f
       0.8030762050094862

proj_layer.bias f8 [65]
000000 cf 40 f3 ac 57 fc c9 3f 39 03 5a 4d 1f ea e6 3f
       0.20301338143190725 0.7160793791555086
000010 91 67 be db 5b d2 e1 3f 4f cd f8 84 13 5c d2 bf
       0.5569285671110596 -0.28686988816771913
000020 80 93 8d de 62 a3 d4 3f 36 9f fc 54 29 02 ee 3f
       0.32247230275816463 0.9377638492487452
000030 00 00 00 80 4c 56 e4 bf 00 00 00 00 14 99 b4 bf
       -0.6355345249176025 -0.08046078681945801
000040 6b 0c 6b aa 8e 9d e1 bf 62 5e 92 22 55 c7 fc bf
       -0.5504830673675206 -1.7986651754817093
000050 00 00 00 00 bf 34 e0 bf 00 00 00 00 e4 3c ed bf
       -0.5064387321472168 -0.9136829376220703
000060 74 ff 62 1b 7e 10 d6 bf 00 00 00 00 aa 60 b1 bf
       -0.34475662874682844 -0.06788122653961182
000070 c5 34 9a 8f 3a 6c e5 3f 8d bc 3b 15 5c e4 f2 3f
       0.6694615177854294 1.1807518796374865
000080 77 c1 42 ae 0a dd de 3f 0d 86 ec 85 f2 f6 ef 3f
       0.4822413160100249 0.998894940920026
000090 1d 84 12 54 21 61 e1 3f 00 00 00 00 8b de db bf
       0.5431067125356354 -0.4354579448699951
0000a0 c8 9d 4d 01 89 90 f4 3f 71 fb 31 50 7e cb ff bf
       1.2852869082361043 -1.9871810085894277
0000b0 b6 e9 29 09 b1 47 d8 3f 56 d7 f8 90 86 2b f7 3f
       0.3793757047166325 1.4481263792963168
0000c0 6a f2 1f 71 4c d6 fc bf ad 87 4a 82 01 3b f9 bf
       -1.8023189944207396 -1.5769057359216092
0000d0 00 00 00 00 f4 bc d5 bf d3 88 0f 85 95 92 ec 3f
       -0.3396577835083008 0.8928935622064053
0000e0 8a f2 35 a5 a1 17 eb 3f 00 00 00 00 a8 4f a3 bf
       0.8466346956989395 -0.03771710395812988
0000f0 d3 c5 b6 78 dc c9 d4 3f e0 96 5e 46 71 89 f7 bf
       0.3248206309172847 -1.471055292969531
000100 ba 73 ff b6 e3 cc d9 bf 00 00 00 00 cd f8 e5 bf
       -0.4031304633224938 -0.6866211891174316
000110 1b aa c4 f2 88 0f e2 3f 81 44 64 f6 9e 9a ed 3f
       0.5643963567320641 0.9251246273362456
000120 70 e9 11 66 7e 9f f3 3f 7d 2c ec 36 05 9b d7 3f
       1.2264389025791296 0.36883669246225975
000130 8a f3 1b 3b 8c 01 ee 3f a3 f4 8c ab ba b0 ea 3f
       0.9376889376140849 0.8340733862493334
000140 1d cc a9 a4 8c c3 c2 3f b7 87 13 23 89 fb ec 3f
       0.14659269371222275 0.9057050404628545
000150 72 c4 b0 e7 1e e5 fc bf 4a d8 31 8e 1b c9 f4 bf
       -1.8059376764688548 -1.2990985445481038
000160 7a ad 6c 82 9b a5 e7 3f d2 db 50 e3 5c 08 e2 3f
       0.7389657542566248 0.5635208549273278
000170 cc 62 dd 2a e2 7a f0 3f 2b d5 63 ff 31 2d 74 3f
       1.0300008463292896 0.00492591409987612
000180 79 df 8a 3d 74 9c f8 bf 00 00 00 00 82 72 b8 bf
       -1.5381967929842786 -0.0954972505569458
000190 fc 8c b2 02 57 c3 f2 3f ee 51 11 aa 28 f4 f2 3f
       1.1726904015893629 1.1846090930240467
0001a0 32 3d ea cf 86 e0 d0 3f fe b2 d4 3a ed a5 f5 3f
       0.26370401672552923 1.3530094431000061
0001b0 00 00 00 80 31 ed dc bf f5 95 ab db 9a d1 fb 3f
       -0.4519771337509155 1.7386730748052035
0001c0 ed 8d ea 49 89 a4 d1 3f c7 39 9b 16 0d b4 f6 3f
       0.2756674978101888 1.418957794481331
0001d0 74 d5 65 04 1d 9a f8 3f 00 00 00 00 d6 65 b8 bf
       1.5376253291882138 -0.09530389308929443
0001e0 2f 2e f5 b5 cf 94 e3 3f 7e 13 21 be 18 9d d1 bf
       0.6119154504644423 -0.2752134186487679
0001f0 41 f4 02 e7 06 6c f9 3f 0c e0 e6 81 da 36 f0 3f
       1.5888737701309454 1.0133919786731012
000200 db f0 e6 31 dc 7a eb bf
       -0.8587475752497328

hidd_layers.0.weight f8 [65, 65]
000000 00 00 00 00 1e 31 a0 3f 00 00 00 00 ba 67 9b bf
       0.03162473440170288 -0.02676287293434143
000010 00 00 00 c0 b4 6d b0 3f 00 00 00 00 40 3d 85 3f
       0.06417398154735565 0.010370731353759766
000020 00 00 00 80 92 65 a4 3f 00 00 00 40 45 41 b7 bf
       0.03983743488788605 -0.0908396989107132
000030 00 00 00 60 b0 83 be bf 00 00 00 c0 7c 0b b2 bf
       -0.11919691413640976 -0.07048778235912323
000040 00 00 00 60 f1 9d bb bf 00 00 00 40 13 8e bd 3f
       -0.10787876695394516 0.11544914543628693
000050 00 00 00 00 2c 5f 85 3f 00 00 00 00 d6 6c ad 3f
       0.010435432195663452 0.05747097730636597
000060 00 00 00 80 a8 1b ad bf 00 00 00 40 2f 4c b9 3f
       -0.05685164034366608 0.09881873428821564
000070 00 00 00 80 53 5d b8 3f 00 00 00 40 4e 8d b1 bf
       0.09517404437065125 -0.06856240332126617
000080 00 00 00 c0 9f 9f bc 3f 00 00 00 00 ac a8 af bf
       0.11181066930294037 -0.061833739280700684
000090 00 00 00 40 16 f2 a5 bf 00 00 00 40 b3 27 a0 bf
       -0.042862601578235626 -0.031552888453006744
0000a0 00 00 00 60 82 c0 b6 bf 00 00 00 c0 da 0d b3 bf
       -0.08887495845556259 -0.07443015277385712
0000b0 00 00 00 00 33 54 9b 3f 00 00 00 40 94 ff b3 bf
       0.026688382029533386 -0.07811857759952545
0000c0 00 00 00 a0 92 5d bc bf 00 00 00 80 b2 14 a8 3f
       -0.11080280691385269 0.047032907605171204
0000d0 00 00 00 00 d3 16 ae bf 00 00 00 20 c9 59 bd bf
       -0.058767884969711304 -0.11465127021074295
0000e0 00 00 00 c0 e4 4b ae bf 00 00 00 00 0d 9f bf 3f
       -0.059172771871089935 0.12352067232131958
0000f0 00 00 00 c0 da e2 bd 3f 00 00 00 40 fb 3a bf bf
       0.11674277484416962 -0.12199373543262482
000100 00 00 00 00 64 b0 7d 3f 00 00 00 c0 a1 e6 ba 3f
       0.007248297333717346 0.10508166253566742
000110 00 00 00 00 00 21 16 3f 00 00 00 c0 22 80 ab bf
       8.441507816314697e-05 -0.05371197313070297
000120 00 00 00 00 5c a2 90 3f 00 00 00 c0 5c 20 b6 bf
       0.016244351863861084 -0.08643130958080292
000130 00 00 00 a0 01 03 ba bf 00 00 00 40 ea 92 b1 3f
       -0.10160837322473526 0.06864799559116364
000140 00 00 00 80 fa 67 a5 3f 00 00 00 40 fb f8 bd bf
       0.04180891811847687 -0.11708040535449982
000150 00 00 00 c0 56 a0 b3 3f 00 00 00 80 db d8 90 bf
       0.07666532695293427 -0.01645224541425705
000160 00 00 00 80 a2 b9 bc 3f 00 00 00 60 74 31 b6 bf
       0.1122075617313385 -0.08669211715459824
000170 00 00 00 00 b4 2c a0 3f 00 00 00 80 cc 1c b3 bf
       0.031591057777404785 -0.07465818524360657
000180 00 00 00 00 b4 be 96 3f 00 00 00 40 ac 6e b1 bf
       0.022211849689483643 -0.06809498369693756
000190 00 00 00 c0 a9 e0 b1 3f 00 00 00 80 78 e0 b2 bf
       0.06983433663845062 -0.07373765110969543
0001a0 00 00 00 e0 bc 75 b1 bf 00 00 00 00 c5 12 b9 3f
       -0.06820278614759445 0.09794265031814575
0001b0 00 00 00 00 f0 eb 63 3f 00 00 00 80 1c 62 af 3f
       0.00243183970451355 0.06129540503025055
0001c0 00 00 00 00 ea 24 b1 3f 00 00 00 00 44 c0 7d 3f
       0.06696951389312744 0.007263436913490295
0001d0 00 00 00 80 58 c5 b7 3f 00 00 00 40 f4 87 a7 bf
       0.09285500645637512 -0.045959122478961945
0001e0 00 00 00 c0 fd 57 b8 3f 00 00 00 40 c3 49 a7 bf
       0.09509263932704926 -0.04548463970422745
0001f0 00 00 00 40 e7 27 bd bf 00 00 00 40 27 08 ba bf
       -0.11389012634754181 -0.10168690979480743
000200 00 00 00 00 2c 8f 6c bf 00 00 00 80 a2 e7 b0 bf
       -0.003486238420009613 -0.0660344660282135
000210 00 00 00 80 1d 14 9a bf 00 00 00 40 a3 29 bb 3f
       -0.02546735852956772 0.10610409080982208
000220 00 00 00 00 22 f7 91 3f 00 00 00 80 af 36 b2 3f
       0.017544299364089966 0.07114693522453308
000230 00 00 00 40 97 db a0 bf 00 00 00 80 3a aa be 3f
       -0.03292534500360489 0.11978498101234436
000240 00 00 00 80 f3 4b b4 3f 00 00 00 00 80 38 13 3f
       0.07928392291069031 7.332116365432739e-05
000250 00 00 00 00 ea 93 be 3f 00 00 00 00 dd a9 b1 bf
       0.11944448947906494 -0.06899815797805786
000260 00 00 00 00 f5 34 a8 bf 00 00 00 00 c8 9d 60 3f
       -0.047279030084609985 0.002028360962867737
000270 00 00 00 00 28 0d 6a bf 00 00 00 c0 23 d8 b2 3f
       -0.00318010151386261 0.07361052930355072
000280 00 00 00 00 61 2c 81 bf 00 00 00 00 88 1b 5e bf
       -0.008385427296161652 -0.00183761864900589
000290 00 00 00 00 57 be bd bf 00 00 00 40 84 87 be bf
       -0.11618560552597046 -0.11925531923770905
0002a0 00 00 00 00 de e0 a8 bf 00 00 00 80 f0 23 ab bf
       -0.04859060049057007 -0.05300857126712799
0002b0 00 00 00 00 21 ae a3 3f 00 00 00 00 dd a6 87 bf
       0.038437873125076294 -0.011548735201358795
0002c0 00 00 00 60 01 73 bd bf 00 00 00 c0 f4 af bb 3f
       -0.11503609269857407 0.10815362632274628
0002d0 00 00 00 e0 3a 32 b1 bf 00 00 00 00 f4 51 a8 3f
       -0.06717269867658615 0.04750025272369385
0002e0 00 00 00 60 45 34 bb bf 00 00 00 00 fe b5 9e 3f
       -0.10626634210348129 0.029991120100021362
0002f0 00 00 00 e0 c9 81 be bf 00 00 00 60 bc 97 b2 bf
       -0.11916791647672653 -0.07262780517339706
000300 00 00 00 00 60 7a bc bf 00 00 00 00 e0 75 3e 3f
       -0.11124229431152344 0.00046478956937789917
000310 00 00 00 20 de 53 b1 bf 00 00 00 40 db 0d be 3f
       -0.06768596917390823 0.1173989325761795
000320 00 00 00 80 55 4f 92 bf 00 00 00 00 c0 c4 2b bf
       -0.01788076013326645 -0.00021185725927352905
000330 00 00 00 80 39 9c be bf 00 00 00 20 9d b3 b3 bf
       -0.11957129836082458 -0.07695943862199783
000340 00 00 00 00 e0 a4 96 3f 00 00 00 60 06 d6 bc bf
       0.022113323211669922 -0.11264076083898544
000350 00 00 00 80 2c f5 91 bf 00 00 00 80 17 92 a6 bf
       -0.01753682643175125 -0.04408334195613861
000360 00 00 00 40 bc 39 ba bf 00 00 00 a0 8d 9a bf bf
       -0.10244347155094147 -0.12345204502344131
000370 00 00 00 00 02 19 92 bf 00 00 00 60 94 b5 b7 bf
       -0.017673522233963013 -0.09261443465948105
000380 00 00 00 e0 8e f5 b7 bf 00 00 00 80 a1 9f a8 bf
       -0.09359066933393478 -0.04809288680553436
000390 00 00 00 40 56 a8 b8 bf 00 00 00 00 b6 e7 87 3f
       -0.09631861746311188 0.011672422289848328
0003a0 00 00 00 00 66 76 b1 bf 00 00 00 c0 ae 93 a9 bf
       -0.06821286678314209 -0.049954853951931
0003b0 00 00 00 00 e0 d0 5f 3f 00 00 00 c0 b2 0d bb bf
       0.0019418895244598389 -0.1056777685880661
0003c0 00 00 00 00 57 3f 9e 3f 00 00 00 80 cb 81 b7 bf
       0.02953849732875824 -0.09182426333427429
0003d0 00 00 00 80 72 35 be bf 00 00 00 00 13 07 b9 3f
       -0.11800304055213928 0.09776419401168823
0003e0 00 00 00 80 68 07 ae 3f 00 00 00 a0 8d 7b be bf
       0.058650270104408264 -0.11907277256250381
0003f0 00 00 00 60 e2 27 b8 bf 00 00 00 80 bb a3 9b bf
       -0.09435858577489853 -0.02699177712202072
000400 00 00 00 60 f2 0a b2 bf 00 00 00 00 57 15 91 3f
       -0.07047953456640244 0.01668296754360199
000410 00 00 00 80 49 16 a9 3f 00 00 00 00 a2 4b a2 bf
       0.048998162150382996 -0.03573328256607056
000420 00 00 00 60 0a 05 b5 bf 00 00 00 a0 36 ea bd bf
       -0.08210816234350204 -0.11685506254434586
000430 00 00 00 80 63 00 b0 bf 00 00 00 40 fb b8 b1 bf
       -0.06250593066215515 -0.06922884285449982
000440 00 00 00 00 84 4f 98 bf 00 00 00 80 8f e9 bd bf
       -0.023740828037261963 -0.11684510111808777
000450 00 00 00 00 4f 2c a9 3f 00 00 00 40 e4 5f ba 3f
       0.04916617274284363 0.10302568972110748
000460 00 00 00 40 96 67 aa bf 00 00 00 00 e1 69 80 bf
       -0.0515715554356575 -0.00801444798707962
000470 00 00 00 00 96 5f 94 bf 00 00 00 20 dc e2 b8 bf
       -0.019895881414413452 -0.09721160680055618
000480 00 00 00 80 7a 83 9a bf 00 00 00 00 50 71 7f 3f
       -0.02589217573404312 0.007676422595977783
000490 00 00 00 00 d8 5f 63 3f 00 00 00 c0 77 3f bf 3f
       0.0023650377988815308 0.12206219136714935
0004a0 00 00 00 00 7d 88 98 3f 00 00 00 80 e2 a8 a6 3f
       0.02395816147327423 0.04425723850727081
0004b0 00 00 00 c0 eb e6 b9 bf 00 00 00 80 87 2d a5 bf
       -0.1011798232793808 -0.04136298596858978
0004c0 00 00 00 00 5e 3a b8 bf 00 00 00 00 fd ce a6 3f
       -0.09464061260223389 0.04454794526100159
0004d0 00 00 00 00 d6 76 af 3f 00 00 00 40 5c 48 b6 3f
       0.06145352125167847 0.08704163134098053
0004e0 00 00 00 c0 a9 51 b8 3f 00 00 00 c0 8a 93 b9 3f
       0.09499607980251312 0.09990756213665009
0004f0 00 00 00 80 2c ae ae bf 00 00 00 e0 7b 4c bd bf
       -0.05992259085178375 -0.11444830149412155
000500 00 00 00 80 71 33 bd 3f 00 00 00 40 d1 68 ae bf
       0.1140662133693695 -0.059393443167209625
000510 00 00 00 00 e0 5e aa bf 00 00 00 c0 2c d0 ba 3f
       -0.051505088806152344 0.1047389954328537
000520 00 00 00 c0 1e ba ba 3f 00 00 00 00 26 9b 9c 3f
       0.10440246760845184 0.02793559432029724
000530 00 00 00 80 44 ab a9 bf 00 00 00 00 00 10 52 bf
       -0.05013479292392731 -0.001102447509765625
000540 00 00 00 00 33 4c 9f 3f 00 00 00 00 0f 70 b6 3f
       0.030564114451408386 0.08764737844467163
000550 00 00 00 00 ef a0 a2 3f 00 00 00 40 1f 35 bb 3f
       0.03638407588005066 0.10627932846546173
000560 00 00 00 00 38 1a 8f 3f 00 00 00 00 2b 62 b5 3f
       0.015186727046966553 0.08352917432785034
000570 00 00 00 c0 a3 08 ac bf 00 00 00 40 d5 4f b7 bf
       -0.054753415286540985 -0.09106190502643585
000580 00 00 00 00 bb 19 ae 3f 00 00 00 20 6b f3 b8 bf
       0.05879005789756775 -0.09746427088975906
000590 00 00 00 e0 c1 63 b6 bf 00 00 00 80 ba d5 9f bf
       -0.08745967596769333 -0.031088747084140778
0005a0 00 00 00 40 2b 52 b2 3f 00 00 00 c0 1e cb b5 bf
       0.07156629860401154 -0.08513061702251434
0005b0 00 00 00 00 cc b0 81 3f 00 00 00 40 39 0b b5 bf
       0.008637994527816772 -0.08220250904560089
0005c0 00 00 00 80 cd 20 92 bf 00 00 00 00 84 a5 be bf
       -0.017703257501125336 -0.11971306800842285
0005d0 00 00 00 00 46 73 9d bf 00 00 00 00 76 ee a9 bf
       -0.028760045766830444 -0.05064743757247925
0005e0 00 00 00 00 1a ce b4 3f 00 00 00 00 43 ae a2 3f
       0.08126986026763916 0.036485761404037476
0005f0 00 00 00 a0 1d af bf bf 00 00 00 00 df 19 bd bf
       -0.12376580387353897 -0.11367601156234741
000600 00 00 00 80 24 8d a6 bf 00 00 00 40 0c 1e a9 bf
       -0.0440455824136734 -0.04905737191438675
000610 00 00 00 80 c2 de a6 3f cd 11 ec 9c 42 3f a2 3f
       0.04466827213764191 0.03563888707688854
000620 17 95 d8 42 59 e4 a5 bf 08 a1 84 0b 33 9d bf 3f
       -0.04275778714171901 0.12349242240145852
000630 5c 8f 17 4a 0f 56 ad bf 2a fd 43 1d 10 35 b5 bf
       -0.05729720858997098 -0.08284092630855314
000640 0e 85 8b 31 ac 2d 7a 3f 00 00 00 00 0c 35 87 3f
       0.006391213065144242 0.011331647634506226
000650 00 00 00 00 8c 60 b9 3f 2c 6e cd a1 1d 24 ae bf
       0.09912943840026855 -0.05886929130675997
000660 6c 57 60 46 3f ca 9c bf 00 00 00 e0 48 b1 bc bf
       -0.028115261717253245 -0.1120801493525505
000670 00 00 00 c0 d0 84 b5 3f b8 b8 8e 74 0a b2 b7 3f
       0.08405785262584686 0.09256043763773192
000680 00 00 00 80 a2 e4 b2 3f 75 df 58 05 5c ff b8 bf
       0.073801189661026 -0.09764647608323947
000690 b4 07 85 05 32 e5 c1 3f 46 0c ce 65 81 94 d0 3f
       0.1398069884253893 0.2590640539348822
0006a0 42 bb 46 ef 5b 54 b4 3f 92 4f 8e 0f 05 ab be bf
       0.0794122180147783 -0.11979705457480197
0006b0 00 00 00 40 11 f0 bc bf 05 75 0c 98 91 e6 b0 3f
       -0.11303813755512238 0.06601819955945494
0006c0 4a 10 1f 59 13 64 76 3f 9c dc 6b 70 57 a0 ba bf
       0.005466533259042514 -0.10400911802922724
0006d0 05 40 86 cc df b1 c5 3f 92 f4 0c 6a 56 09 cc bf
       0.1694907902387969 -0.21903495958568847
0006e0 c5 7f 20 71 8f c4 be bf 00 00 00 c0 f6 0a ab bf
       -0.12018677245987337 -0.052818022668361664
0006f0 2e 45 a3 9d 03 3c 86 3f 86 59 c1 44 54 40 b3 3f
       0.010856655357573599 0.07520033529849543
000700 00 00 00 00 00 8b 60 3f 6b 05 1c 0c 30 7c b7 bf
       0.0020194053649902344 -0.09173870368615204
000710 92 57 4a 87 4b 6b 9b bf 3b a6 00 aa de dd a5 3f
       -0.026776485569449067 0.042708357097876314
000720 00 00 00 40 32 a6 b4 bf b7 fb 6f 19 f7 43 8f bf
       -0.08066095411777496 -0.015266352142132662
000730 bc 36 a3 c8 d0 ab b4 bf b8 dc be 76 71 0e d9 3f
       -0.0807466974103716 0.39150654407735486
000740 33 c6 fd c6 ff 04 cb 3f f7 82 29 f2 65 0c b7 3f
       0.21109006134388295 0.09003293192064264
000750 80 3a 6e 43 08 92 a0 3f 72 f4 a0 2a 25 96 a4 3f
       0.03236413787009429 0.04020801682825316
000760 33 01 b0 ff 08 a9 b9 3f c4 79 00 d4 9c 67 ab bf
       0.10023552172061016 -0.05352487647927576
000770 d7 ce 7f 98 7b 29 c0 bf 63 66 ad f5 9b 7e c1 3f
       -0.12626595445873676 0.13667630668605843
000780 54 58 ef 30 6d dd be 3f 05 af e8 4e 52 86 6e 3f
       0.12056620068264695 0.0037261588652394173
000790 79 e0 09 76 bd 6c 89 3f 23 36 33 ea 6f 9d a3 3f
       0.01241443649745143 0.03831052526366487
0007a0 00 00 00 40 ff dc ab bf 24 25 cc 05 17 6a cd 3f
       -0.05442044883966446 0.22980010779455384
0007b0 0c 58 85 42 35 5d a3 bf c6 67 cc d5 15 09 a5 3f
       -0.03782049595854184 0.04108494028896774
0007c0 97 1e b9 59 c5 be ca 3f 00 00 00 80 0c 89 9c bf
       0.20894686585437647 -0.027866549789905548
0007d0 38 6e df 49 58 b3 d3 3f 14 0f c1 be ab ce cc bf
       0.30782134260309446 -0.22505709470907986
0007e0 7a 09 2d dc 1c ed c5 3f 75 26 57 63 98 11 cf 3f
       0.1712986064031375 0.2427244648991295
0007f0 00 00 00 c0 ac a7 b5 3f 97 bf e6 ec 88 9a be bf
       0.08458976447582245 -0.1195455149052108

hidd_layers.0.bias f8 [65]
000000 00 00 00 80 4d c8 b9 bf 00 00 00 20 91 54 b7 bf
       -0.10071262717247009 -0.09113413840532303
000010 00 00 00 00 50 93 77 3f 87 33 4c be 75 5d d0 3f
       0.005755722522735596 0.2557043417335127
000020 00 00 00 60 d6 85 bd bf 69 6f 60 9c 03 2f a2 bf
       -0.11532344669103622 -0.03551493915457977
000030 26 b5 65 95 f6 cf b5 3f 99 2b b6 01 e6 84 c0 bf
       0.08520451686282068 -0.12905573924612382
000040 d4 5a d2 57 99 8b 9d 3f 00 00 00 80 fd 0d b4 bf
       0.028852840409480177 -0.07833847403526306
000050 0c 88 dc e3 9f 95 b1 bf bd 25 c2 48 eb 79 95 3f
       -0.06868933976196007 0.020972896877116776
000060 07 52 55 1e 0a f4 df bf 18 87 ac 77 9d 6f c8 3f
       -0.49926999056086213 0.19090622275785374
000070 5e ed 49 e9 ae a5 b1 bf bb 51 9a e9 f2 9b bb 3f
       -0.0689343757202798 0.10784834101861566
000080 5f 5e c7 17 de f7 d5 bf 89 39 c1 25 4f d5 b6 bf
       -0.34325363466402864 -0.08919233962772045
000090 00 00 00 20 09 31 bd bf 37 55 0d a3 23 13 d4 3f
       -0.11402947455644608 0.3136681644731029
0000a0 38 d7 a7 5c 37 99 b8 bf 36 9a e2 13 e0 ff b6 3f
       -0.09608789455509459 0.08984184728124309
0000b0 19 40 0a fa 75 1d cb bf 09 1c 3c 1e 59 40 c8 3f
       -0.2118365736864696 0.1894637487059472
0000c0 00 00 00 80 00 52 b5 bf 17 45 e8 30 c4 77 a2 bf
       -0.08328250050544739 -0.0360699948979663
0000d0 b0 77 c1 65 10 f1 a5 3f e3 73 20 a2 71 0d bb 3f
       0.042854797765115804 0.10567388733075193
0000e0 00 00 00 40 81 9e bb 3f 00 00 00 00 a2 1d 8d bf
       0.10788734257221222 -0.014216676354408264
0000f0 95 62 0d a3 47 30 a4 3f e5 04 9a 35 54 bb b2 bf
       0.03943084588417382 -0.07317091282495232
000100 65 e7 c1 28 4f cf bd 3f 00 00 00 80 26 71 93 bf
       0.11644453759245506 -0.018986321985721588
000110 1d 5e 70 70 22 b7 d6 bf b9 ed 10 dc f2 42 c6 3f
       -0.35492764454235887 0.17391811128059745
000120 7f 20 b5 53 68 98 c0 3f 7e f1 a0 a1 1d 68 a6 3f
       0.1296511086204681 0.04376309011465461
000130 3d e8 80 e3 d3 b6 c1 3f b5 69 8b 9f 32 3c 43 bf
       0.13839195831843823 -0.0005870101150223158
000140 a8 b9 50 69 eb 75 ac 3f 7e c6 1c 10 20 57 e8 3f
       0.05558715496623573 0.7606354059882532
000150 ac fc 92 e7 5c 8c 9b 3f 8e 39 55 dd 22 2c c0 bf
       0.02690262950340798 -0.12634692961951227
000160 af bb 71 c7 c9 d2 ac bf d8 ca 42 99 f6 0f ca bf
       -0.056295686336731314 -0.20361216052477604
000170 c8 ea 42 1e 78 0e c6 3f c4 4d 48 4a bb 1d d3 3f
       0.17231656530005623 0.2986896729864521
000180 00 00 00 80 10 15 a8 3f 3f a3 72 ad d4 33 aa 3f
       0.04703570902347565 0.0511766874054218
000190 af ef 10 89 85 fa b2 bf d6 fd e4 79 42 c6 d8 bf
       -0.07413515659658175 -0.3871008100868186
0001a0 00 00 00 00 7e b6 a1 3f b1 ad f1 25 42 90 61 bf
       0.03459542989730835 -0.0021439830739404466
0001b0 00 00 00 00 fd 45 97 3f 00 00 00 a0 0e b9 bc bf
       0.02272792160511017 -0.11219874769449234
0001c0 7c 10 1e c3 24 80 99 3f 3f 82 b6 cf 59 72 c4 3f
       0.024902891549132708 0.15973971025688802
0001d0 fe 11 a4 20 e4 39 da 3f 8f a2 fc 72 20 73 c9 3f
       0.40978339374149175 0.19882588972656776
0001e0 00 00 00 00 b4 a4 bb bf 00 00 00 00 80 e1 b3 bf
       -0.10798192024230957 -0.07765960693359375
0001f0 26 3f 9c bc fa bb cf bf 4a ae 4c d9 ba 99 bd 3f
       -0.24792417726029575 0.11562698178448119
000200 00 00 00 00 a0 c2 b3 bf
       -0.07718849182128906

out_layer.weight f8 [1, 65]
000000 00 00 00 40 91 09 be bf 00 00 00 80 dd f1 b3 bf
       -0.11733348667621613 -0.07790932059288025
000010 00 00 00 80 0d c4 ab bf 24 14 d4 7a 99 bd c0 bf
       -0.054230138659477234 -0.13078611848337218
000020 00 00 00 00 6d 70 b1 3f e1 5b 6c 31 58 ee 74 bf
       0.06812173128128052 -0.005110115532054289
000030 03 d3 d4 fb a1 2e bb bf 95 24 d6 36 3b 34 b0 bf
       -0.10618030927873794 -0.06329698647290834
000040 db cc 92 d3 35 d2 a0 3f 00 00 00 c0 bf 51 a0 bf
       0.03285377700503896 -0.03187369555234909
000050 aa 2a 34 b6 27 ac 67 3f 62 f3 ed 12 1b 6c bc bf
       0.002889707147578709 -0.11102456295152544
000060 45 67 0c 6e 7d ba e2 3f 3c 6e f3 d2 51 56 d2 3f
       0.5852648877509884 0.28651853180574327
000070 fb 5e d7 ed 6e ed 68 3f da 77 01 e9 d8 85 b8 bf
       0.003042904527983723 -0.09579234779945925
000080 f7 39 8c 1e ed 34 e0 3f ee f8 41 b5 3f 21 72 3f
       0.5064607235561301 0.004426239833376961
000090 00 00 00 a0 55 3e bb bf 99 2d 42 fe a6 61 b5 bf
       -0.10641989856958389 -0.08352130610926735
0000a0 8a 79 ca 36 ad e8 b6 3f 62 ad 4d a7 75 dd af bf
       0.08948786342305062 -0.06223647753980789
0000b0 ec 67 69 7f 3c c2 c3 bf 50 11 62 9e 34 22 d0 3f
       -0.15436512204433883 0.252087740584348
0000c0 00 00 00 c0 7b e7 b0 bf 67 8f 07 49 56 21 9c bf
       -0.06603215634822845 -0.027470920760506525
0000d0 d1 6a 57 ce f7 4c 80 3f 2a 74 38 cb f5 5d d0 3f
       0.007959304794828455 0.25573487134699013
0000e0 00 00 00 40 0d 04 be 3f 00 00 00 80 c5 3d b5 bf
       0.11724932491779327 -0.08297380805015564
0000f0 3e dc 2b dc 0b b4 b7 bf 9c 0a ef 0e 5f e3 6b 3f
       -0.09259103894497486 0.0034043175323586593
000100 0f 23 de 8e 19 01 a3 3f 00 00 00 00 f0 3c 63 3f
       0.03711776608458283 0.002348393201828003
000110 a0 43 95 f1 7a 4a dd 3f 80 34 0a b1 8f e1 d1 3f
       0.4576709136209107 0.2793921688942831
000120 51 a6 28 a0 f4 c0 cd 3f 6c 26 5c 42 96 a5 94 bf
       0.23245103664639769 -0.020162914085665326
000130 12 1f f0 33 21 c5 cd 3f 01 46 cf e5 b8 8f a5 3f
       0.23257842098268405 0.04211213879865384
000140 c8 cc 81 86 29 aa 73 bf fd 6e d1 c5 2b af e9 bf
       -0.004800951203026212 -0.8026331771502268
000150 ea f9 b1 5f 0a e2 43 3f 4b 27 7e e8 86 72 a0 bf
       0.0006067801144949401 -0.03212377155348508
000160 34 7a 76 f2 a8 5d 6d bf 5e c6 1e 50 78 73 96 3f
       -0.003584699606747033 0.021924857988500406
000170 6f 80 63 4e 00 0b cb 3f f2 63 0b b6 c4 d7 ce 3f
       0.21127322986194794 0.24095972908870028
000180 00 00 00 80 a9 02 98 bf f0 16 fe ba 6c b4 96 bf
       -0.023447655141353607 -0.02217264071761965
000190 f6 d4 a1 0e b2 f3 ba bf c4 3f 66 3d 44 6b e6 3f
       -0.10528099877577177 0.7005940627295719
0001a0 00 00 00 40 3f c6 a4 bf 60 47 f3 91 c4 7c 88 bf
       -0.04057500511407852 -0.011956725791978762
0001b0 00 00 00 00 f9 02 a5 3f 00 00 00 00 0a 56 91 3f
       0.041038304567337036 0.01692977547645569
0001c0 75 36 0d b0 2c 70 56 3f f2 83 cc e2 0b b9 c6 3f
       0.0013695179370246922 0.17752216886677236
0001d0 44 61 25 79 1c c3 e3 3f fe fb a8 9a b4 2f d0 3f
       0.6175672880299676 0.25291171172642624
0001e0 00 00 00 80 30 d0 ba 3f 00 00 00 c0 0c 06 a0 bf
       0.1047392189502716 -0.03129615634679794
0001f0 8e 43 21 1c 8f 63 ca bf 17 21 85 e6 16 bb bc bf
       -0.20616330026180346 -0.11222975852900095
000200 00 00 00 80 2f 90 be 3f
       0.11938759684562683

out_layer.bias f8 [1]
000000 38 4b 42 0e 94 f6 82 bf
       -0.009259373364590581
