homework1/result/model_save/adam-64-0.001-Relu-3-8-0/model.pt (torch, 2775 bytes, 6 tensors)

proj_layer.weight f8 [8, 1]
00000000: 0000 0080 c345 e4bf 1d73 ee3a a719 ea3f
00000010: ed13 ac6c 82e4 c2bf 0000 00c0 216c e2bf
00000020: cd72 496d 393b d3bf 842e df4d e1cf d6bf
00000030: 80f4 95f8 d548 ec3f 0000 0000 b213 b9bf
-0.6335160732269287 0.8156314993862882 -0.1475985556245684 -0.5756996870040894 -0.3004897658591233 -0.3564379940478164 0.8838910918417611 -0.09795677661895752

proj_layer.bias f8 [8]
00000000: 0000 0000 ba43 eebf d0b2 b379 c9b0 e83f
00000010: 54a1 3902 9889 e93f 0000 0040 2bbd e8bf
00000020: 24ea ebae 7aae 0140 e889 6924 9b7e fa3f
00000030: c3da 8c28 3c2e fdbf 0000 0000 4612 b0bf
-0.9457674026489258 0.7715804459563405 0.798046116205152 -0.7730919122695923 2.210194937300246 1.6559096739152839 -1.8237878402702996 -0.06277883052825928

hidd_layers.0.weight f8 [8, 8]
00000000: 0000 00c0 b897 c03f 62e3 186f d5a9 c73f
00000010: 2ad3 3315 88dd e03f 0000 00c0 7f18 c33f
00000020: 6b48 fc5b 82c4 f5bf 3b31 18ba a854 cdbf
00000030: f464 c39d 9bcb bebf 0000 0000 fc34 94bf
00000040: 0000 0080 947e bebf 9264 6c60 fde4 c83f
00000050: 2d37 a47b 39be f5bf 0000 0040 fe4f d6bf
00000060: a8d7 dccb dc89 e63f c25f 09e5 0634 edbf
00000070: d8ae 4fd1 a5b4 b33f 0000 0060 afaa c0bf
00000080: 0000 00c0 7119 d6bf 0000 0000 da6f 913f
00000090: 0000 0040 99ab d0bf 0000 0000 9843 743f
000000a0: 0000 00c0 840a c13f 0000 0060 d4e2 c0bf
000000b0: 0000 00c0 67d8 c0bf 0000 0080 17c2 bf3f
000000c0: 0000 00c0 d4c7 cfbf 0000 00a0 ca46 d5bf
000000d0: 0000 0020 c093 d1bf 0000 0040 b446 cd3f
000000e0: 0000 0080 6377 ccbf 0000 0040 9d97 d0bf
000000f0: 0000 0080 48dd b7bf 0000 0080 d1ff b33f
00000100: 0000 0000 22f1 b93f a539 af7f c72e 9fbf
00000110: b0c2 b310 4fe2 a6bf 0000 00e0 f303 d63f
00000120: 8215 48bb 0986 c03f 52ca 1c78 95a5 d6bf
00000130: bfb2 daa8 dcb7 eebf 0000 0020 f0af d43f
00000140: 0000 00c0 4a4c c23f 0000 00e0 4245 cbbf
00000150: 0000 0000 abd3 a3bf 0000 0000 9060 863f
00000160: 0000 00a0 1f44 d3bf 0000 0040 3f2f cd3f
00000170: 0000 00c0 fa4f cc3f 0000 0060 c6e7 d03f
00000180: 0000 0000 f05d 7e3f c298 4cad 0175 cc3f
00000190: d7a2 76b7 6fd4 c53f 0000 0000 8705 a0bf
000001a0: 9f35 9792 c9e0 cb3f cf3a a9d2 89db 9c3f
000001b0: cbd9 7779 5652 e5bf 0000 00e0 8093 d03f
000001c0: 0000 0000 7a7d b7bf c8bb 62e4 44ee abbf
000001d0: 16e4 7f49 0eef fdbf 0000 0040 a178 d2bf
000001e0: 3f3f 4894 0f19 0040 46ea e1fc 651e f5bf
000001f0: c9e6 3bc5 8bdf d13f 0000 0000 eedb af3f
0.1296301782131195 0.1848704140154736 0.5270424284086392 0.1491851508617401 -1.360475882833749 -0.22914609038014952 -0.12029430963174886 -0.01973336935043335
-0.11911895871162415 0.19448821266340538 -1.3589415387863923 -0.3486323952674866 0.70432891671111 -0.9126009438868936 0.07697521553171371 -0.13020889461040497
-0.3453029990196228 0.017028242349624634 -0.2604735493659973 0.004947274923324585 0.13313350081443787 -0.13192228972911835 -0.1316041648387909 0.12405535578727722
-0.24828585982322693 -0.33244577050209045 -0.2746429741382599 0.22872021794319153 -0.2223934531211853 -0.2592537999153137 -0.09322026371955872 0.07812222838401794
0.10133564472198486 -0.030451886337510854 -0.04469534949192189 0.3439912497997284 0.12909051556213674 -0.35385643701298364 -0.9599440858779288 0.32323840260505676
0.14295324683189392 -0.2130511850118637 -0.038724273443222046 0.010926365852355957 -0.3010329306125641 0.2280043661594391 0.22119078040122986 0.2641464173793793
0.007413804531097412 0.22232075654864586 0.1705455442254535 -0.03129217028617859 0.21779746682879605 0.028181222422342608 -0.6663009998726975 0.2590028941631317
-0.0917583703994751 -0.05455222404395205 -1.87086323462268 -0.2886126637458801 2.0122367462680866 -1.31992148191661 0.2792691637147127 0.06222480535507202

hidd_layers.0.bias f8 [8]
00000000: f886 baaa 631f e93f f3ae 18f3 e8b3 e2bf
00000010: 0000 00e0 bb03 c3bf 0000 00e0 971f d03f
00000020: 4688 61f4 eb5d d73f 0000 0000 b4fa 83bf
00000030: 755d e3be cc61 cbbf 5430 cbea 07a1 ebbf
0.7850817045730016 -0.5844616649605697 -0.14855144917964935 0.25192829966545105 0.3651075254948676 -0.009755522012710571 -0.2139221126624126 -0.8634070955099653

out_layer.weight f8 [1, 8]
00000000: ac3b e911 8eb0 e23f f990 bc42 a498 d9bf
00000010: 0000 0000 1dbb be3f 0000 0000 a321 b9bf
00000020: 777f 0858 8f55 e33f 0000 0000 ea5e bd3f
00000030: e4c4 66cd e899 e43f cdf4 d6cd 849b f9bf
0.5840521192384265 -0.3999415065502628 0.12004262208938599 -0.09816950559616089 0.6041943282507266 0.11472952365875244 0.6437877666232024 -1.600468448697302

out_layer.bias f8 [1]
00000000: e650 7070 9b67 e53f
0.6688973613804847
