homework1/result/model_save/adam-64-0.0005-Relu-3-32-0/model.pt (torch, 11223 bytes, 6 tensors)

proj_layer.weight f8 [32, 1]
00000000: e600 5683 1edb b83f b02c 96b1 2756 d1bf
00000010: b137 c459 30a7 e33f bb20 8399 dc37 da3f
00000020: d7bd 0f3a be12 ce3f 3e52 9568 9aa3 d73f
00000030: 0000 0000 00b7 aabf e99c af18 8fc3 abbf
00000040: 0000 0040 f2c8 edbf 5770 fa3b ed0e c4bf
00000050: 6eaf 0f1d a86f d3bf b6c8 5f42 6e07 e53f
00000060: 39ce bf6d d7fd d0bf 0000 0080 1791 edbf
00000070: 1d8d 6f57 48d9 d43f 2b20 dc0f 25e1 e93f
00000080: 0000 0000 8f49 eebf 0000 0000 88a6 dbbf
00000090: 6928 9492 958c c6bf b301 8b59 0a5c d6bf
000000a0: d86e b931 c80b d83f 53c6 2b22 4c8f e63f
000000b0: 4f8d bb69 eece d73f 2b11 eb94 bbb4 e13f
000000c0: b097 fb5b c54b c7bf 5a44 218d 2139 e63f
000000d0: 50a6 37ef 0914 d03f 912c 963d cec3 d93f
000000e0: 0000 0080 6a00 debf c323 5379 fd77 e9be
000000f0: c4b6 37b3 9643 e0bf 0000 0000 8072 65bf
0.09709349352306482 -0.27088348715251254 0.6141587975741826 0.4096595286505466 0.23494699320825305 0.369360544330707 -0.05217742919921875 -0.05422637153952243
-0.9307795763015747 -0.15670552662493506 -0.3036899837304564 0.6571570679064027 -0.265493256737702 -0.9239614009857178 0.3257618764748303 0.8087334928286557
-0.946479320526123 -0.4320392608642578 -0.17616529137768858 -0.34936770195420336 0.37571911674397773 0.7049923579599614 0.37200508428050666 0.553312102180404
-0.1819998454222378 0.694474006313736 0.2512230716807595 0.4025760270530521 -0.4687753915786743 -1.2144427993370199e-05 -0.5082505703300844 -0.002618074417114258

proj_layer.bias f8 [32]
00000000: de47 38a0 ca8a d53f ef6c f269 14a6 d63f
00000010: 1ab6 fe56 ebd0 da3f 4e39 851c 6531 f63f
00000020: 09b5 37c2 dc3d f2bf 6703 b5f5 bb95 d43f
00000030: 0000 0040 d1d5 e6bf 8d6f ca2c 4b64 f63f
00000040: 0000 0040 2bd0 efbf 32ea 1a35 eae7 e63f
00000050: 15db a60f 7f11 f13f d85a a244 699d e4bf
00000060: a456 32c4 19ce f03f 0000 0040 23a3 e4bf
00000070: ae90 447f db07 e23f f5d1 d7e4 35d8 c5bf
00000080: 0000 0080 fc96 dabf 0000 0080 bb33 e0bf
00000090: f8b9 dc2e 9df0 e73f 4fac 334a 6183 e43f
000000a0: 6ee8 8916 38a3 f53f e532 930f 8032 e6bf
000000b0: 4427 c2b2 a8d1 f4bf e331 6d17 138b e13f
000000c0: f23d bf52 f56e e93f 6ddf e7d2 0b36 e73f
000000d0: 5963 0461 7910 f5bf 5125 2772 236d edbf
000000e0: 0000 0000 824b bfbf 5787 7c26 e97b 7abf
000000f0: c02f 275d 4fa5 df3f 0000 0040 846d e8bf
0.33659616133183856 0.3538867029798913 0.4190014218864647 1.3870593179777475 -1.1401031099915733 0.3216390513880953 -0.713600754737854 1.3994857549323314
-0.9941612482070923 0.7158099209985436 1.0667715655706094 -0.6442152348052685 1.0503175414973294 -0.6449142694473267 0.5634591565799576 -0.17066072153069425
-0.41546547412872314 -0.5063149929046631 0.748121825721511 0.6410376023535579 1.3523484115999298 -0.6936645797919395 -1.301186273837133 0.5482268769788415
0.7947947136071305 0.7253474349263179 -1.316522006009299 -0.9195725659894071 -0.1222459077835083 -0.0064658267436089245 0.4944647226045582 -0.7633687257766724

hidd_layers.0.weight f8 [32, 32]
00000000: 65b8 5142 0ee9 b63f c6cb 384d a1ff 93bf
00000010: 1973 4a30 a767 b53f 9a72 83eb 03d2 c4bf
00000020: 3a74 6219 3902 d93f ba3f 90f9 6f30 bd3f
00000030: 0000 0040 fd3b b73f f6d2 6d5e 3b9b e1bf
00000040: 0000 00a0 8cdc c03f 3883 3336 4dfc ccbf
00000050: 8483 572b 9f82 c7bf ecf1 158e 796c c43f
00000060: ade3 a064 2b09 dabf 0000 0020 05d9 c3bf
00000070: a9bf f6ec 8562 b73f 83d1 aa54 ea03 babf
00000080: 0000 0080 7184 a23f 0000 00c0 3797 b1bf
00000090: 7b4e 89a8 54f3 c7bf c001 1f15 cc00 c5bf
000000a0: 682c 72ef 91be b73f 80bf a9b1 8c20 9dbf
000000b0: 4afa 7e16 d81e d43f f3d2 3799 4715 b3bf
000000c0: 1274 a943 a5ac d4bf bd08 e6d9 6e77 aebf
000000d0: ea44 8020 ee07 d13f 94cb ae39 b6f6 c13f
000000e0: 0000 0080 ffe6 b03f c334 cd28 050a bdbf
000000f0: 075c a768 ad04 a1bf 0000 0000 eb65 99bf
00000100: 8c5b 1c8b 4a4c b03f f642 2fde 8c21 dbbf
00000110: 9fc1 af12 4834 933f 5ea8 d5dc e3ab bd3f
00000120: 089a 688f 3f4b d8bf 9415 d73a 7469 9f3f
00000130: 0000 00c0 074d bb3f 5390 3953 e499 e83f
00000140: 0000 0060 7a95 c0bf da01 faab bd19 d43f
00000150: 8cf1 247a c507 d43f 5c5d 2697 5d5d c1bf
00000160: e064 13a6 c673 ca3f 0000 0040 39e3 b93f
00000170: 29a2 17a3 7d7d b0bf b1f9 7e20 7da1 bebf
00000180: 0000 00a0 427a b8bf 0000 00c0 4c14 bb3f
00000190: 9bae 5a5c 4c4e d23f 5c8a eaaa d64e d0bf
000001a0: 895a 685f 0e29 c73f 5ff9 8314 e3d5 c3bf
000001b0: 9e4b 5cfb c3bc d3bf 6e46 4054 336d b63f
000001c0: 1132 1ea1 287d c83f 5c22 5818 d264 b93f
000001d0: a667 c8ba 3620 d1bf 98f4 80d9 cf64 af3f
000001e0: 0000 0080 5349 aa3f 5bf2 1cbd a58b bb3f
000001f0: 39e3 f74a ba07 933f 0000 00c0 51a2 b8bf
00000200: f680 0fd1 e494 b13f d035 24ab 6d31 bdbf
00000210: abf4 2e3f ae2e 943f 9187 1fb7 78be 913f
00000220: a38f 282d f3fe a43f 26cf d5b2 1259 8a3f
00000230: 0000 0040 472b b63f 800b f4bc 2afc cebf
00000240: 0000 0040 4bb3 b33f 9849 c84a 0269 c9bf
00000250: 01b1 7570 06c2 d5bf efff 8932 efc2 c23f
00000260: 9cb7 b044 be2f b6bf 0000 0080 076a c1bf
00000270: 73bf 4feb 7250 89bf 5273 d0f8 ccc3 c53f
00000280: 0000 0000 6894 89bf 0000 0000 d6dd a3bf
00000290: b2b4 c39c 65be c2bf 4a7b e85b 6196 bb3f
000002a0: 59db 2597 a840 93bf 2f3f 2cef 5467 c73f
000002b0: 13c7 cd54 e6a3 ae3f 967d 1e3c cb69 8f3f
000002c0: 311f f8fd eb65 a6bf bae4 5920 c2f5 81bf
000002d0: f2b7 01a1 b173 b53f 64ca ff2e 52cb a83f
000002e0: 0000 0060 f827 c53f f1a5 4c4a 2464 c13f
000002f0: 4ce3 a36f 2aff bfbf 0000 0080 6e82 b7bf
00000300: 47f4 b0bb 5c64 c83f a873 9ffd bad7 d5bf
00000310: 2ccf c4ed af65 9b3f 98d6 df99 0a1e d03f
00000320: 8510 5f89 e198 d6bf f69a a0f8 61a2 c63f
00000330: 0000 0080 b5e6 a73f bcac 07c8 e357 cb3f
00000340: 0000 0040 1115 be3f c61c 1b78 7ea3 ca3f
00000350: c723 e49a 69c3 d23f ee24 7c42 abee cfbf
00000360: 98df 322c 7a77 e13f 0000 0020 3b96 c13f
00000370: 0df7 03b6 1ed3 a03f a882 c8b6 b998 cfbf
00000380: 0000 00e0 69b7 bcbf 0000 00c0 e5d5 bfbf
00000390: 8826 03aa a684 d53f 9a09 c07f f436 d9bf
000003a0: 0e40 8bb6 adea bb3f 9009 a8c4 a96d b0bf
000003b0: 1aeb 1c88 ed9b d0bf 4063 330c e7ef aabf
000003c0: efd5 3446 1fd1 c63f 9374 3707 f7d6 5fbf
000003d0: 563f b12d f9bb e2bf 7f31 6882 29e1 64bf
000003e0: 0000 00a0 1715 c1bf b3b1 cea7 533b 9d3f
000003f0: d390 786f 9aae c7bf 0000 00c0 2b78 b9bf
00000400: ab12 7320 a85c b4bf a84c 5225 fd31 b9bf
00000410: 0363 d875 7f68 c43f 48c2 7798 e8b1 a3bf
00000420: 9ada c1fd 8b27 bebf 35ad 25b9 b559 b23f
00000430: 0000 0000 653c bbbf 3920 9d3c c823 c8bf
00000440: 0000 0080 c106 c1bf 4889 ce93 699f dfbf
00000450: 9192 d4d4 2535 d6bf 2108 ad39 6494 adbf
00000460: b1d7 d52f c817 ccbf 0000 00a0 5fb9 c5bf
00000470: bbd8 2f43 d899 b73f 3287 7bb3 ee28 873f
00000480: 0000 0020 145a c03f 0000 0080 d784 adbf
00000490: 352d 5b90 9783 dcbf d7ab e828 3e7b bfbf
000004a0: 9791 b44c c86c b23f c0b5 a9b6 4f2d abbf
000004b0: c530 035a a590 b93f e8ad 9289 3bf1 c3bf
000004c0: 628e da17 c3b6 bbbf 7e04 0646 3438 ba3f
000004d0: 0970 2113 627f b93f b4a5 7f1d 74a1 a2bf
000004e0: 0000 0060 6582 bdbf 8e1c a11b 7efa c53f
000004f0: a68e 2b04 b3dc b53f 0000 00c0 b5b5 b63f
00000500: d46f e210 2d27 c1bf 0000 0020 6e4a c3bf
00000510: 059c 0d3c 67dd b1bf c790 6ab4 dca9 b23f
00000520: 06be 3e6c 7f0f 7d3f 48dd 3f4c 9fee c0bf
00000530: 0000 0000 67d7 953f d81c 2a0c 8a92 92bf
00000540: 0000 00c0 3d36 c0bf 0000 0000 d91f bbbf
00000550: 0000 00a0 b316 c6bf 3155 ff3c 9080 b43f
00000560: 0000 00a0 6f1a c53f 0000 0000 4cf7 a43f
00000570: 28f7 2797 b2f4 be3f 353e 5c09 990b 9d3f
00000580: 0000 0040 8c31 c5bf 0000 0000 507f 603f
00000590: 0000 0000 6ef8 82bf 0000 0060 c87b c1bf
000005a0: 6465 a66c 7a91 b5bf 5db2 9443 1f0c a03f
000005b0: 613d ab7a 1cc2 a5bf 0918 4cf4 7a41 bdbf
000005c0: 0000 0000 6ac6 a0bf b8ab 34f5 39d1 9d3f
000005d0: c25b a841 5044 b9bf fc0a b9bd a01c c03f
000005e0: 0000 00c0 9f9d b63f 5a9b 8f3b c40f a7bf
000005f0: 0000 0040 4984 bb3f 0000 0000 f095 a5bf
00000600: f62f d610 7883 ac3f 4178 392c 2fac c33f
00000610: 5d3e 59c4 1f00 c03f db5e 5f5d 0a06 bcbf
00000620: ef40 5321 c211 bc3f fa25 2b98 f6ac bf3f
00000630: 0000 00c0 14fa c5bf 3524 8d4b eaab c3bf
00000640: 0000 00e0 313d c23f 062f 54d4 0e91 d8bf
00000650: 73f0 c863 73e1 afbf 1827 e2e7 d859 c13f
00000660: aea6 ec99 d379 cbbf 0000 0080 c2af a1bf
00000670: ea00 4062 9386 60bf 8fc1 39d6 24f5 c1bf
00000680: 0000 0000 ca56 9ebf 0000 0000 2904 98bf
00000690: 4648 b2d6 ffb7 b9bf 8570 95b4 b504 733f
000006a0: 0796 3201 a6d5 b1bf ecd1 59a7 6950 c43f
000006b0: e4a6 5c25 6d3f b83f fadc 2c55 40cf 9fbf
000006c0: 4bac 167c ba5e c2bf f82d d8ae 329f c23f
000006d0: 4859 2951 8fdc 8bbf baef 95cd 239e c63f
000006e0: 0000 0000 aea1 8ebf a8a0 696b 74a9 c5bf
000006f0: 56b5 a1b7 ed46 a6bf 0000 0080 fc32 b03f
00000700: 0000 0020 cf6b c13f 0000 00a0 7b60 b0bf
00000710: 0000 00a0 395d b5bf 0000 0080 b33a b03f
00000720: 0000 0060 0b64 c03f 0000 0000 8248 ac3f
00000730: 0000 00e0 329b c03f 0000 0040 ca79 b83f
00000740: 0000 0000 895e 92bf 0000 0000 70f2 a13f
00000750: 0000 0040 a7f3 c2bf 0000 0000 9842 9dbf
00000760: 0000 0060 3828 c63f 0000 0000 6402 b0bf
00000770: 0000 0000 bad3 a7bf 0000 0000 3459 9d3f
00000780: 0000 0020 197b c23f 0000 0040 d906 c4bf
00000790: 0000 0000 14ca 8ebf 0000 0060 2ba7 c43f
000007a0: 0000 0020 70f2 bebf 0000 00c0 030a b6bf
000007b0: 0000 0000 4209 95bf 0000 0020 cfb7 c4bf
000007c0: 0000 00a0 59f1 c2bf 0000 0060 f9f6 b1bf
000007d0: 0000 0080 ef7c c0bf 0000 0000 e4db adbf
000007e0: 0000 00c0 1ec3 c2bf 0000 0000 bfbd a23f
000007f0: 0000 0020 4f43 c5bf 0000 00c0 9f29 b33f
0.08949364775773601 -0.019529838884590388 0.0836128704926974 -0.16265915870362307 0.39076068381274676 0.11402034609659398 0.09075911343097687 -0.5501992077175533
0.13173063099384308 -0.22644963404220575 -0.18367375961591048 0.15956038892535618 -0.4068096621227209 -0.15506042540073395 0.09134709391832864 -0.10162224356719744
0.036166712641716 -0.06871365010738373 -0.18711336354555272 -0.1640868285303565 0.09275161834573142 -0.028444479316419358 0.31438257405162473 -0.07454345217395168
-0.32303744895563213 -0.059504951571413646 0.2661090199845392 0.14034154717009228 0.06602475047111511 -0.11343414541370848 -0.03323881056319782 -0.02480284869670868
0.06366411110171394 -0.42392274568287236 0.018754125729118717 0.11590408460111365 -0.3795927906489003 0.03067571267253795 0.10664413869380951 0.7687856317029492
-0.12956170737743378 0.31407110018338147 0.31297432830958694 -0.13566179161419256 0.2066582022587573 0.10112340748310089 -0.06441483718629883 -0.11965162318572344
-0.09561554342508316 0.10577850043773651 0.28602894801108797 -0.25481192294151866 0.1809404340608192 -0.15496481420263827 -0.30839633509565967 0.08760376746092799
0.1913195406635997 0.09919465154974588 -0.26759117355833906 0.061316008854626236 0.05134068429470062 0.10759960047739396 0.01858416636057145 -0.09622679650783539
0.0686781893159639 -0.11403546741731607 0.019709322554025615 0.01732815377898295 0.041007613432412236 0.012865205843560167 0.08659787476062775 -0.24207052446589827
0.07695455849170685 -0.19851711894496016 -0.33996735556026186 0.14657392471053707 -0.08666600396165197 -0.13604825735092163 -0.012360475355279487 0.1700378622926118
-0.01249009370803833 -0.03880184888839722 -0.1464354529811423 0.10776337140894757 -0.01880134031804501 0.1828409355007294 0.05984420571520679 0.015338504574002692
-0.04374635195932653 -0.008769528019217144 0.08379659825160937 0.04842621635170444 0.16528229415416718 0.13586858394528137 -0.12498727059927467 -0.09183397889137268
0.19056281246767723 -0.3412921406541565 0.02675509346700193 0.25183358217996377 -0.3530811158673333 0.17683052673347505 0.04668204486370087 0.21361968295182077
0.11750896275043488 0.20811444153353004 0.29317703367319975 -0.24947109934172523 0.5458346236473401 0.1373971849679947 0.032860717505157046 -0.24684831070864743
-0.1121736690402031 -0.12435756623744965 0.33622137644543004 -0.39397919154739613 0.10904966074599562 -0.06417332698041478 -0.2595170811870716 -0.05261156104979259
0.17825690200849872 -0.0019433414826075842 -0.5854459659985689 -0.0025487719278826644 -0.13345618546009064 0.028546626202727143 -0.18501596873205148 -0.09948991239070892
-0.07953882972931108 -0.09841901932877539 0.1594390225807488 -0.03846670972041416 -0.11779093690152323 0.07168136377520258 -0.10639029741287231 -0.1885919853177727
-0.13301867246627808 -0.49410476145034865 -0.3469938829823969 -0.057772762337222845 -0.21947576842984298 -0.1697196513414383 0.09219123497300334 0.01130854115712374
0.1277489811182022 -0.05765412747859955 -0.4455317411163436 -0.12297428606750259 0.07197238800706028 -0.053080073402138606 0.09986337134904762 -0.155799333738613
-0.1082574780689867 0.1024201079326463 0.09959996192031907 -0.03638804302301982 -0.1152709349989891 0.17170692776764834 0.08539885379610243 0.08871017396450043
-0.13400805782737157 -0.15070892870426178 -0.06978459564344071 0.07290439037984973 0.007094857926787329 -0.13228217337721504 0.02132950723171234 -0.018137127869093245
-0.12665531039237976 -0.10595470666885376 -0.17256779968738556 0.08008672227091009 0.1648692637681961 0.040949225425720215 0.12092128935179558 0.02836455459242711
-0.1655745804309845 0.0020138323307037354 -0.009262904524803162 -0.13659004867076874 -0.08425107147777094 0.031342484473815026 -0.042496576284629446 -0.11428039993560914
-0.032763779163360596 0.029118447867556546 -0.09869863131494497 0.12587365402040251 0.08834265172481537 -0.04504216410696556 0.1074872761964798 -0.0421595573425293
0.05569052892232655 0.15369214686774238 0.12500378691992156 -0.1094671705208116 0.10964597047427892 0.12373295989086577 -0.17169436812400818 -0.1536839360144612
0.14249251782894135 -0.3838536332630017 -0.06226692765309929 0.13555442163879472 -0.214655351789863 -0.03454406559467316 -0.0020172957028990928 -0.14029369793162202
-0.029627948999404907 -0.023453369736671448 -0.10046385757075979 0.0046431634776490415 -0.0696662667201836 0.15870400115421945 0.09471780931621826 -0.031064038466152667
-0.14351588305484805 0.14548333680464487 -0.013604278244355186 0.17670104540218096 -0.014956817030906677 -0.16923384899860605 -0.04350989214513372 0.06327798962593079
0.1361025720834732 -0.06397221237421036 -0.08345375210046768 0.06339570879936218 0.12805311381816864 0.0552406907081604 0.1297362893819809 0.09560836851596832
-0.017938748002052307 0.03505277633666992 -0.14806070923805237 -0.028574347496032715 0.17310242354869843 -0.06253647804260254 -0.04653722047805786 0.028660595417022705
0.14438165724277496 -0.1564590036869049 -0.015033870935440063 0.16135160624980927 -0.12088681012392044 -0.08609031140804291 -0.02054312825202942 -0.1618594080209732
-0.147990420460701 -0.07017477601766586 -0.1288127303123474 -0.058318257331848145 -0.1465795934200287 0.0366038978099823 -0.1661166101694107 0.07485388219356537

hidd_layers.0.bias f8 [32]
00000000: 6882 f087 b18e dabf d3f7 38cc 4034 e13f
00000010: b948 5451 cb8a a8bf 3215 feca 92ee c63f
00000020: ec3a 9c37 ba2f be3f bef2 d8bc cd1b c6bf
00000030: 90fe 0f29 0fef cfbf 0000 00e0 b7d5 b2bf
00000040: 0000 00a0 c72f bbbf 4da1 47b6 979c ea3f
00000050: 201d 3069 6634 e03f d9ac 1ce9 fc96 c33f
00000060: 226f 9a83 fed9 babf f80e ef03 2fd4 bebf
00000070: c6d3 9a85 23c9 d33f 6400 cca2 c612 c6bf
00000080: 0000 0000 27be c2bf eaff 444a ad2f b93f
00000090: 4a22 16f3 c666 b53f 7e54 cc4a 5aa0 d33f
000000a0: c1cb 1043 8f9e c0bf 347d b055 e6a7 eb3f
000000b0: 6c6c e717 25af d13f 8c8b 5c5b 0c75 cbbf
000000c0: 943c 25d3 2112 993f 4475 2ca6 6833 c13f
000000d0: eef8 a7f4 a406 aa3f b3d6 7896 dc2b a5bf
000000e0: c611 c433 e4fb c4bf 60d0 2cde 4247 92bf
000000f0: b6ff ae1c f44f d63f 01e1 7759 667a d63f
-0.41495931887951665 0.5376285542222327 -0.04793391578472623 0.17915568267577836 0.11791576249764163 -0.17272350045268142 -0.24948300843242466 -0.07357358187437057
-0.10619781166315079 0.8316153106834833 0.5063964895679511 0.1530452860109566 -0.10488882744760678 -0.12042516561546879 0.3091515354856792 -0.1724479956537862
-0.14642798900604248 0.0983837419817061 0.08359950480201764 0.30666215233333805 -0.1298388555020136 0.8642455743428514 0.27631499609350985 -0.21450952969561532
0.02448323107938373 0.13438137163113073 0.0508319424297826 -0.04135026299301838 -0.16393711593276644 -0.017849964914788408 0.34862997819072505 0.3512206910813945

out_layer.weight f8 [1, 32]
00000000: d9cb b21e 4de7 c2bf dcc1 262e 7595 ea3f
00000010: 3845 882b c1a8 aabf ba52 71a2 3db1 d53f
00000020: 3653 1d23 b754 96bf 4fac 3c58 4212 a33f
00000030: 21d2 a0ab 55d2 93bf 0000 0000 eb20 963f
00000040: 0000 0060 4b9b c3bf 0a3e 27d2 fe58 f3bf
00000050: 59d8 a762 a677 e23f 1b23 9ffc 37bc dc3f
00000060: 8bb3 5ad1 3927 a03f 5c03 0c97 655d c0bf
00000070: f575 9c1f 4ed7 c33f dc0c cb23 f20a c03f
00000080: 0000 0000 3220 c2bf 633c a3cf 5024 cdbf
00000090: 6fff 7ee8 8c1a 933f 2bbc 44ac 5c08 de3f
000000a0: 63c8 2706 b098 a2bf 5646 4b7f f8f8 e9bf
000000b0: c3e7 a2d9 35f2 da3f 9514 843a 1d25 933f
000000c0: b51f 7a9c 488e 9dbf 67ae 7873 0bbc d13f
000000d0: 68c1 43ac b441 b73f a40c 117e 3c68 c13f
000000e0: 509e 8eb4 ac11 bd3f ba62 75e2 951b c13f
000000f0: 00e0 de17 b5d2 d8bf 21d8 c42b d16a e03f
-0.14768375395723757 0.8307443524736828 -0.05206874519729826 0.3389429174760995 -0.02180753852674685 0.03724868132697933 -0.019357050514559163 0.021609947085380554
-0.1531767100095749 -1.209227391158381 0.5771057059162202 0.4489879576690769 0.031549269491143304 -0.12785024524057576 0.15500809234156035 0.12533404109681257
-0.14160752296447754 -0.22767076624447488 0.018655969324526674 0.46926037619681676 -0.03632116389407327 -0.8116419302188642 0.4210333466868372 0.018696266838578685
-0.02886308150348756 0.27710233952050206 0.09084634023361604 0.13599353938670788 0.11355094345219041 0.13365434224649225 -0.3878605588065511 0.5130391936170363

out_layer.bias f8 [1]
00000000: 888b 187e b1c9 b3bf
-0.07729634598267243
