homework1/result/model_save/adam-8-0.001-Relu-3-32-0/model.pt (torch, 11223 bytes, 6 tensors)

proj_layer.weight f8 [32, 1]
0	0xbfdccb5848d29e86	-0.4499111853751646
1	0x3fc3e371f457fb73	0.15537857466548707
2	0xbfd84d3d00000000	-0.3797142505645752
3	0x3fd5e22be90af9fd	0.3419294143494936
4	0xbfbba75200000000	-0.10802185535430908
5	0xbfd991ead2978824	-0.3995310837327699
6	0xbfe992d0cf2350ec	-0.7991718335784106
7	0xbfe37a3880000000	-0.6086695194244385
8	0xbfbe192c00000000	-0.11757159233093262
9	0xbfb6b62112f2f60a	-0.088716570974576
10	0x3fc7a781fea07c3d	0.1847994321151151
11	0xbfda8b8880000000	-0.41476643085479736
12	0x3fd895d8941ae62f	0.38414587462793554
13	0x3fc9de15adc31997	0.20208998665311803
14	0xbfe19644e7ef331d	-0.5495934038131939
15	0x3fd06b8135828e7e	0.25656156755051274
16	0x3fbca9421645fde7	0.11195767444404901
17	0xbfd077be00110aaa	-0.2573084831857765
18	0x3fc41f47320efb80	0.15720453209175034
19	0xbfd22a3800000000	-0.2838268280029297
20	0x3fdebce2844d9c89	0.48027861519080567
21	0x3f8320df1d3554c6	0.009340041235797247
22	0xbfccd19c00000000	-0.22514677047729492
23	0x3fd080771d8f52ee	0.2578408993406772
24	0x3f7dda4369ad1933	0.007288230258217165
25	0x3fca379376b4333b	0.20482104583825297
26	0xbfea02a840000000	-0.8128243684768677
27	0x3fccd8ca0a6600e8	0.2253658819936455
28	0x3fdd03c9010d33de	0.4533560285825028
29	0x3fd04b21d3720471	0.2545857014557163
30	0xbfeb307900000000	-0.8496670722961426
31	0x3fc2fb78be8f2ed4	0.1482993059602139

proj_layer.bias f8 [32]
0	0x3fe22f888821a5ce	0.568302408105575
1	0xbfd3eadecf106bd7	-0.31121034833057365
2	0xbfa555c000000000	-0.04166984558105469
3	0xbff8752a0b175c36	-1.528604548764418
4	0xbfeb909980000000	-0.8614013195037842
5	0x3fe466bc0ba9ead7	0.6375408389861502
6	0x3fc4d7b45ed7afea	0.16283278113348781
7	0xbfe75a17c0000000	-0.7297476530075073
8	0xbfe6a57500000000	-0.7076973915100098
9	0x3fec116ac50e58d1	0.8771261070967517
10	0xbff0b57fba94e7ed	-1.044311264834046
11	0xbfb1027800000000	-0.06644392013549805
12	0xc00086ba272a1adf	-2.065784746143762
13	0xbffb92cf8fd24d60	-1.7233424776103092
14	0x3fef931d04175387	0.9867081718353895
15	0xbffc82e2ab4ab75c	-1.7819544497574134
16	0xbfed11da8333030e	-0.9084293901906635
17	0x3ff377494bc1b175	1.216622634815477
18	0x3ff200aa49b77062	1.1251623992493696
19	0xbfdf043780000000	-0.48463237285614014
20	0xbff18372ddda0b3a	-1.094591967209182
21	0xbfc0597bf9661b45	-0.12773084333113097
22	0xbfde887f00000000	-0.4770810604095459
23	0xbff4da83e2b7ded5	-1.3033484321767237
24	0x3fe9876f718b4e5d	0.7977826326045477
25	0xbff11e65d9ccc51b	-1.0699213512237467
26	0xbfe4bf8000000000	-0.64837646484375
27	0xbfe417a37c6933be	-0.6278855733777318
28	0x3ff62236e7d6c27a	1.3833531433303095
29	0x3ff72102bfd5b238	1.4455592626137683
30	0xbfe5664080000000	-0.6687319278717041
31	0xbff3243e33cfeff8	-1.1963483833233095

hidd_layers.0.weight f8 [32, 32]
0	0xbfd721ba94742345	-0.3614336442702107
1	0xbfc11a133a70016a	-0.133608249219843
2	0x3fc5df7960000000	0.17088238894939423
3	0xbfe7375c5525246c	-0.725507894801138
4	0xbf97a3a700000000	-0.023085221648216248
5	0xbfd4ca1ffefef198	-0.32483673002186597
6	0x3fb21538472d1f34	0.07063628900243374
7	0xbfad3578c0000000	-0.057048581540584564
8	0xbfb18feca0000000	-0.06860236078500748
9	0xbfa2aea91518ce6b	-0.03648880369692339
10	0xbfc384a3342e002c	-0.15248527572475845
11	0x3fbdfd32c0000000	0.11714474856853485
12	0xbfe710fb6ceac9ef	-0.7208230140006985
13	0xbf9007910d4d8fb2	-0.015653864323567475
14	0xbfdd780f514f307f	-0.46045287075390456
15	0xbfd1b8cede5427e6	-0.2769047900370637
16	0xbfd12932a569ef98	-0.2681395163888225
17	0x3fe474bd82e6c6a1	0.6392505222958854
18	0x3fbb09924e123351	0.10561479955704313
19	0xbfc4d8d820000000	-0.16286756098270416
20	0xbfe4fcd23b5941dc	-0.6558619650987185
21	0x3fc6ef1e7e4a9798	0.17917233625956608
22	0x3fa3051500000000	0.03714814782142639
23	0xbfe7c0d36060d13d	-0.742288292158754
24	0x3fc21c79c6343129	0.14149400880740728
25	0xbfd1433c5eb0554f	-0.2697287487693147
26	0xbfb417eec0000000	-0.07849018275737762
27	0xbfe6a617e980bb01	-0.707775074062596
28	0xbfaf38527c516315	-0.06097657935669624
29	0x3fc65d625ef241f8	0.17472486148882616
30	0xbfab984480000000	-0.05389608442783356
31	0xbfc655f22b18dd6d	-0.1744978628573607
32	0xbfee470fd717e80f	-0.9461745453875227
33	0xbfa68ed7bf84fe4a	-0.04405855381855568
34	0x3fb47b9a40000000	0.0800110250711441
35	0x3f91dd5e1aff9321	0.017446012876365494
36	0x3f92554300000000	0.017903372645378113
37	0xbfeaf11f93fb09de	-0.841934002899787
38	0x3fc3d9e00c3c72e3	0.1550865230318755
39	0x3fb5224f40000000	0.08255477249622345
40	0x3fc3d6b4a0000000	0.1549897938966751
41	0x3fc919b0528000ba	0.1960964587051473
42	0xbfda76057f34f590	-0.41345345900102703
43	0xbfc23cd0e0000000	-0.14248095452785492
44	0xbfba088408d4322e	-0.10169244018124665
45	0xbfcd6b582eed4c04	-0.2298383931289153
46	0xbfe620741ea32fdb	-0.6914616201770473
47	0xbfa5d3dcd3cc8708	-0.04263200841366027
48	0xbfc87c36ad323eeb	-0.19129069763993498
49	0xbff5568c274b3840	-1.3336297545352096
50	0x3fd1dc93b80bc8c2	0.27908795331235237
51	0xbfb6ed7120000000	-0.08956057578325272
52	0xbfba6899f47423d7	-0.1031585904894564
53	0xbfb0c7639aa4c32d	-0.06554243588903992
54	0x3fc357ad20000000	0.15111316740512848
55	0xbfd231e07dfb1394	-0.2842942457467015
56	0x3fc00cc1152d9806	0.12538922819220505
57	0xbfc2ab39e67ef02c	-0.14585040812187466
58	0xbfb232e340000000	-0.07108898460865021
59	0x3fb29b01fb9ddf84	0.07267773049340859
60	0x3fd1f356d469fece	0.2804772447925473
61	0x3f99129d405d214a	0.0244850702795543
62	0x3fa9c43080000000	0.0503249317407608
63	0x3f877e9f433cc09d	0.011471981276912674
64	0x3fb2075040000000	0.07042409479618073
65	0xbfa4746980000000	-0.0399506539106369
66	0x3fb07ac900000000	0.06437355279922485
67	0x3fbaea8740000000	0.10514111816883087
68	0x3fb8a91cc0000000	0.09633044898509979
69	0x3fc3b74460000000	0.15403036773204803
70	0x3fb0b0bcc0000000	0.06519679725170135
71	0x3fbaa26240000000	0.10404027998447418
72	0x3fbc96ccc0000000	0.11167602241039276
73	0x3fa55cb700000000	0.04172298312187195
74	0x3fb046a380000000	0.06357786059379578
75	0xbf67a3e800000000	-0.002885773777961731
76	0xbfc48cae00000000	-0.16054320335388184
77	0x3fb8fb1140000000	0.09758098423480988
78	0xbfbc79dec0000000	-0.11123459041118622
79	0xbfb61a6320000000	-0.08634013682603836
80	0xbf93fb6600000000	-0.019513696432113647
81	0xbfc1a6f300000000	-0.13790738582611084
82	0xbfab8b42c0000000	-0.05379685014486313
83	0x3fb73acec0000000	0.09074108302593231
84	0x3f81268400000000	0.008374243974685669
85	0x3fb76699c0000000	0.09140931069850922
86	0x3fbb58a4c0000000	0.10682134330272675
87	0x3fbdf65b40000000	0.11704035103321075
88	0xbfc0f8f360000000	-0.13259737193584442
89	0xbfc5dbc220000000	-0.17076899111270905
90	0xbfb76ac680000000	-0.09147301316261292
91	0xbfb91b9460000000	-0.09807708114385605
92	0xbfc29ec040000000	-0.14546969532966614
93	0x3fbea0a9c0000000	0.11963902413845062
94	0x3f80a79200000000	0.008132115006446838
95	0x3fbbb25640000000	0.10818995535373688
96	0x3fb3caff329ce205	0.07731623635925906
97	0xbfbb75398f345928	-0.10725745912745721
98	0x3fb2d59d40000000	0.07357199490070343
99	0xbfb9363060000000	-0.09848310798406601
100	0x3fb5aada40000000	0.08463825285434723
101	0xbfb53891df8af085	-0.08289443690859073
102	0xbf99b1db86bceddd	-0.025092535113101156
103	0x3f81de3600000000	0.008724614977836609
104	0x3f612d9800000000	0.0020969361066818237
105	0xbfc447b064bb72c8	-0.15843777578893126
106	0xbfb9809800000000	-0.09961843490600586
107	0xbfbceab960000000	-0.11295660585165024
108	0xbfb210a2c0000000	-0.0705663412809372
109	0x3fb538b3c0000000	0.08289645612239838
110	0xbf9a6e7ae5431194	-0.025812072985688397
111	0xbf90f81500000000	-0.01657135784626007
112	0xbfcb3325ddf1fc8c	-0.21249841057940377
113	0x3fb975fe58b92b66	0.09945668855759279
114	0x3f87ee889b2148f2	0.011685435518448337
115	0x3f84fb5600000000	0.010245010256767273
116	0x3fb992e4a3ab1c96	0.09989766116915386
117	0xbfc066a176a9c840	-0.12813204092123165
118	0xbfc1720ee0000000	-0.13629327714443207
119	0xbfc2ae29a0000000	-0.14594002068042755
120	0xbfbff5d5266a4fff	-0.12484485805390476
121	0x3f7d84f000000000	0.007206857204437256
122	0xbfa12c4f00000000	-0.03354117274284363
123	0xbfc312c9a0000000	-0.14901085197925568
124	0xbfbbbdcac249c357	-0.1083647465072891
125	0x3fafa7aebf5eee80	0.06182619176931059
126	0x3fa39a2780000000	0.038285478949546814
127	0xbfccbc77851f5e8f	-0.2245015525829683
128	0x3fb23f9ec0000000	0.0712832659482956
129	0xbfc37805c0000000	-0.15210029482841492
130	0x3f8d9cb200000000	0.014459028840065002
131	0x3fc2258760000000	0.14177028834819794
132	0xbf9669e800000000	-0.021888375282287598
133	0xbfb992a5a0000000	-0.09989390522241592
134	0xbfc0bf0140000000	-0.13082900643348694
135	0x3fbfd8d940000000	0.12440259754657745
136	0xbfb2514d20000000	-0.0715530589222908
137	0xbfbb012f20000000	-0.10548681765794754
138	0x3fbdc5bac0000000	0.1162983626127243
139	0x3fa4b3e280000000	0.04043491184711456
140	0x3fc4dc1520000000	0.16296638548374176
141	0x3fb4eeacc0000000	0.08176688849925995
142	0x3fc5ba0da0000000	0.16974039375782013
143	0xbfafa66380000000	-0.061816319823265076
144	0xbfb4eec080000000	-0.08176806569099426
145	0xbfc648df20000000	-0.17409886419773102
146	0x3f9e71d900000000	0.02973116934299469
147	0xbfc1a379e0000000	-0.137801393866539
148	0xbfc29cb3c0000000	-0.14540717005729675
149	0xbfafacfa80000000	-0.06186659634113312
150	0x3fc311a5e0000000	0.14897607266902924
151	0x3f75f56400000000	0.0053609758615493774
152	0x3f96f47a00000000	0.02241697907447815
153	0x3fb35111c0000000	0.07545576989650726
154	0x3fc14ecba0000000	0.13521714508533478
155	0xbf95e6bc00000000	-0.021387994289398193
156	0xbfc2b78ac0000000	-0.14622625708580017
157	0x3fc45a2de0000000	0.15900205075740814
158	0xbf2ab18000000000	-0.00020365417003631592
159	0xbfa5d2ff00000000	-0.04262539744377136
160	0x3fa8cd0f00000000	0.048439472913742065
161	0xbfb1c371a0000000	-0.0693884864449501
162	0xbf6c8f2000000000	-0.0034862160682678223
163	0xbfb76b98e0000000	-0.09148555248975754
164	0xbfc18f7d20000000	-0.13719142973423004
165	0xbfb4082420000000	-0.07824922353029251
166	0xbfb2b76600000000	-0.07311093807220459
167	0x3fc6739fa0000000	0.17540355026721954
168	0x3fc5f3c6e0000000	0.1715019792318344
169	0xbfc5626680000000	-0.16706544160842896
170	0x3f8ea08200000000	0.0149545818567276
171	0x3fba725ac0000000	0.10330741107463837
172	0x3fb6aac3c0000000	0.08854316174983978
173	0x3fb3aa3340000000	0.07681579887866974
174	0xbfc5c66b60000000	-0.17011778056621552
175	0xbfc56e5e80000000	-0.16743069887161255
176	0x3fc1393560000000	0.13455836474895477
177	0xbfc30b7f40000000	-0.14878836274147034
178	0xbfc394b800000000	-0.15297603607177734
179	0xbfb18bdac0000000	-0.06854026019573212
180	0xbfc4f2a140000000	-0.16365447640419006
181	0xbfc1efa480000000	-0.1401258111000061
182	0x3faf275900000000	0.060847073793411255
183	0xbfafc169c0000000	-0.06202249974012375
184	0x3fc001aea0000000	0.1250513345003128
185	0x3fbc795ec0000000	0.11122696101665497
186	0x3f94ce8b00000000	0.020319148898124695
187	0x3f924aff00000000	0.01786421239376068
188	0xbfc5051540000000	-0.16421762108802795
189	0xbfc2599d80000000	-0.14335983991622925
190	0x3fac52e700000000	0.05531999468803406
191	0x3f81286400000000	0.008377820253372192
192	0xbfc56bb440000000	-0.16734936833381653
193	0x3fc0783460000000	0.12866835296154022
194	0x3fbb2af840000000	0.10612441599369049
195	0xbfb5cb3fc0000000	-0.08513258397579193
196	0x3fb8d98740000000	0.09706921875476837
197	0xbfa79e9400000000	-0.04613173007965088
198	0xbfc69e34c0000000	-0.1767030656337738
199	0x3f7b302000000000	0.006637692451477051
200	0x3fb8d9b140000000	0.09707172214984894
201	0xbfc22648e0000000	-0.141793355345726
202	0xbf8dc0e000000000	-0.014528036117553711
203	0x3fb6656640000000	0.08748473227024078
204	0xbfac040080000000	-0.054718032479286194
205	0x3fc12562e0000000	0.13395343720912933
206	0x3fb738cc40000000	0.09071041643619537
207	0xbfc298a3a0000000	-0.14528317749500275
208	0xbfc2863b00000000	-0.1447213888168335
209	0xbfaebee380000000	-0.0600501149892807
210	0x3fc2a814e0000000	0.14575444161891937
211	0x3fb94543c0000000	0.09871314465999603
212	0x3f8def3c00000000	0.014616459608078003
213	0xbfc44be940000000	-0.15856662392616272
214	0x3fb9834240000000	0.09965910017490387
215	0x3fc56fdfe0000000	0.16747663915157318
216	0xbf9e28de00000000	-0.029452770948410034
217	0xbfb6383500000000	-0.0867951512336731
218	0x3fc5eb7ea0000000	0.17124922573566437
219	0xbfc5d836a0000000	-0.1706608086824417
220	0xbfc4c64c60000000	-0.16230158507823944
221	0xbfc0e223a0000000	-0.13190121948719025
222	0x3fc406c720000000	0.1564568430185318
223	0xbfc558eca0000000	-0.16677625477313995
224	0x3fbfd517c0000000	0.12434528768062592
225	0x3f7949886594bafc	0.00617364196777603
226	0x3fc435dd60000000	0.1578938215970993
227	0x3fc3bc232b7d240c	0.15417899726369944
228	0xbf85d6ce00000000	-0.010663613677024841
229	0xbf51661000000000	-0.0010619312524795532
230	0xbfb345c180000000	-0.07528313994407654
231	0x3fb6d9f240000000	0.08926309645175934
232	0x3fa5fe4c00000000	0.042955756187438965
233	0xbfb48a36ad9dd552	-0.08023397196469276
234	0x3fa9ce7c7a6098a8	0.050403490008009755
235	0x3fb52dc040000000	0.08272935450077057
236	0x3fb443b09c926bf6	0.07915786573941816
237	0xbfb1671ed72e98d6	-0.06797974351374889
238	0xbfa5851800000000	-0.042031049728393555
239	0xbfbd8ec384bbd6d7	-0.11545965185708994
240	0xbfa1924ebfa671aa	-0.03431936349372518
241	0x3fbe2edec0000000	0.11790268123149872
242	0xbfb2d8803563bcf6	-0.07361604026276666
243	0x3fc00c2ae0000000	0.1253713220357895
244	0xbf8bde2149e756dc	-0.01360727316652393
245	0x3facea1cbe107392	0.056473634911731754
246	0x3fb3fe4e40000000	0.07809914648532867
247	0xbfaa6b6c091567a7	-0.051600814923133335
248	0x3fc1eb1a3b8c3e5c	0.13998725803002088
249	0xbfc3d8135018f925	-0.15503159914983047
250	0xbfaf0a2d00000000	-0.060624510049819946
251	0x3fc37e1468c5d7f4	0.15228514781819025
252	0xbfbec4029359e774	-0.12017837617341148
253	0xbfc6babb891b6b26	-0.1775736255138664
254	0x3fb5144140000000	0.0823403149843216
255	0x3f7710edcb6eff39	0.005631379018211474

hidd_layers.0.bias f8 [32]
0	0x3fd6ba4a76387aa9	0.35512029213888724
1	0x3fe7825bbc71e251	0.7346628838123
2	0x3fbc77aa40000000	0.11120094358921051
3	0x3f86bf1f3fac55ed	0.011106723909999306
4	0x3fb2223780000000	0.07083460688591003
5	0x3fa086eb00000000	0.03227934241294861
6	0x3fbd858340000000	0.11531849205493927
7	0xbfb2f45db5ed46fd	-0.07404123012136306
8	0xbfc77325eb07df40	-0.1832015416728101
9	0xbfe11375d2f2c0ba	-0.5336255188067505
10	0x3fbf980c40000000	0.1234138160943985
11	0x3fd5df3ea2372098	0.3417507728704634
12	0x3fc087506f3a02f6	0.12912946158396438
13	0xbfd36f66d9891d48	-0.30367442363463626
14	0x3fb2e906ae2345f1	0.07386819602404394
15	0xbfd3469ff502e621	-0.3011855976761542
16	0x3fd491213a582834	0.32135801980678314
17	0x3fcd78feb94ddf0c	0.23025497482353108
18	0xbfe150001defd795	-0.5410156807617904
19	0x3fd1f470b87b5971	0.28054445281795554
20	0x3fc4faed20000000	0.16390766203403473
21	0x3fe86a4aa9c0c87a	0.762975055264419
22	0x3fe222796b4c9598	0.566708287781398
23	0x3fe8bb81c01e5654	0.7728890182795092
24	0xbfd9ba4f57e5985c	-0.4019964559905753
25	0xbfe517496178d9e4	-0.659092607855936
26	0xbfc014e740000000	-0.12563791871070862
27	0x3fd7015c2d27c478	0.35945801171971636
28	0x3f76bf55dae24f1f	0.005553565379290664
29	0xbfa4ebdaf44dd697	-0.04086193306185953
30	0xbfc0fc85e88429ae	-0.13270639279683166
31	0x3fd720a9a5a976d5	0.3613685720246001

out_layer.weight f8 [1, 32]
0	0x3fd1b28637d0590c	0.27652125788280624
1	0xbfbf5dc1212ae0c8	-0.12252432880166275
2	0x3fbcffc1c0000000	0.11327753961086273
3	0x3fb0826da8d9e16f	0.0644901787981149
4	0x3fabb35b80000000	0.054102763533592224
5	0x3fba0025c0000000	0.10156475007534027
6	0x3fbdf7f240000000	0.11706461012363434
7	0x3fbe6a6020d8180e	0.11881066133364035
8	0x3fbdd5ebea2f1195	0.11654543368701405
9	0x3f74cbdcd27694ca	0.0050772310127388896
10	0x3fa8ba8a00000000	0.048298180103302
11	0x3fc93e7620e5bd07	0.19721867185896988
12	0x3ff0df6158fa3ab5	1.0545361972505536
13	0xbfb1c01b9d1e1772	-0.06933758340718812
14	0xbfab6460dec2e3bf	-0.05350020140890121
15	0x3fe641cc35bc2b9e	0.695531945182086
16	0x3fefe07cd1f0d499	0.9961532688527256
17	0xbf841ce227904b49	-0.00982071574438738
18	0x3fc34dc877b2cce0	0.15081125111246418
19	0x3fd390434cd895e5	0.305680108113249
20	0x3fad49bf00000000	0.0572032630443573
21	0xbfddc99824717797	-0.4654293399706772
22	0xbfe7215f09da2b1d	-0.7228236381937198
23	0xbfcfa0ceeca73130	-0.247094979813832
24	0xbfb3b2fb6c31c5a3	-0.07694980040994052
25	0xbfd6955441012c21	-0.35286432598212697
26	0xbf93292600000000	-0.01871165633201599
27	0x3fb1618191e00b35	0.06789407550244848
28	0xbfa6ab23d30759a9	-0.044274444113102725
29	0x3fc074143d5dbe84	0.12854245182414925
30	0x3facce9848ff5e46	0.05626369372447164
31	0x3fd3e636be1032af	0.3109261375509886

out_layer.bias f8 [1]
0	0xbfe8a0b4d775cb09	-0.7696174820142413
