homework1/result/model_save/adam-64-5e-05-Relu-3-32-0/model.pt (torch, 11223 bytes, 6 tensors)

proj_layer.weight f8 [32, 1]
000000 00 00 00 00 e3 ff e2 bf 0c 92 bb d3 e1 7d eb 3f
       -0.5937361717224121 0.8591164718059772
000010 00 00 00 00 89 d2 e7 bf 35 ef c5 bf a1 39 c5 3f
       -0.7444500923156738 0.16582128395008913
000020 98 b3 f4 57 d2 38 d0 bf 6e 6a f4 47 b5 90 c6 3f
       -0.25346811856689433 0.17629114163794973
000030 00 00 00 80 60 1c d5 bf e6 cd 1a ef 09 4e da bf
       -0.3298569917678833 -0.4110131106383207
000040 e2 c7 94 04 99 ad dc 3f 53 a9 27 1f 6d e8 c4 3f
       0.4480955643404042 0.16334308644520465
000050 27 f0 fc 4e 95 cd ec 3f 00 00 00 00 fe 61 b9 bf
       0.9000956099257608 -0.09915149211883545
000060 20 ff 22 0e b6 25 c8 3f ca 75 b0 75 79 bd cf 3f
       0.18865085306423968 0.24796980139301034
000070 3a 07 32 ec f4 92 b3 3f 6d ce ce 1b 3e bd d2 3f
       0.0764611317299825 0.29280045238122093
000080 ac 94 05 f6 4b ee ec 3f 00 00 00 00 84 18 c7 bf
       0.9040889554131772 -0.1804356575012207
000090 c0 9e e6 e8 f0 1f d0 bf 38 c1 1c cc 87 48 be bf
       -0.2519495272085628 -0.11829422696314829
0000a0 9f 77 54 31 9e 17 b1 3f d9 99 c4 25 15 56 d2 bf
       0.06676663116783609 -0.28650406540182655
0000b0 86 bb 76 c4 99 28 d1 3f da 54 a2 ad 77 28 c4 3f
       0.26810306726377353 0.15748496988513844
0000c0 ec ec cd 94 c6 6f dc bf f1 29 fb 77 53 ab d1 bf
       -0.44432224780730567 -0.2760819122019305
0000d0 2b 8e 60 ed 35 f4 ce bf b7 08 6d df 24 8f c1 3f
       -0.24182771769220443 0.13718090924709767
0000e0 1f 87 17 54 59 1c ea 3f c6 f3 e8 26 c5 8e bc 3f
       0.81596056389046 0.11155349922132904
0000f0 92 d0 72 29 6b bf db 3f 72 ed 84 b1 91 d0 ba 3f
       0.433558264233633 0.10474501213041323

proj_layer.bias f8 [32]
000000 00 00 00 c0 0d 3e e3 bf de f1 75 1f 34 22 ee 3f
       -0.6013249158859253 0.9416752447573875
000010 00 00 00 40 3c a2 eb bf d2 2f 39 a9 79 e3 d5 3f
       -0.8635541200637817 0.34200898671838076
000020 4b 53 3a ec d3 e1 ec 3f f7 f4 4f 59 87 e1 c6 bf
       0.902566872961509 -0.17875758992150967
000030 00 00 00 00 96 2d bc bf 80 da 5e f1 b7 cb ea 3f
       -0.11007058620452881 0.8373679842250823
000040 d8 74 94 b9 99 77 e2 bf 8d 9c 35 c3 6d b6 ef 3f
       -0.5770996689422203 0.9910191357311234
000050 4e f6 3c 1e 1b 4e e9 3f 00 00 00 00 69 02 e4 bf
       0.7907844153011838 -0.6252942085266113
000060 e9 d0 a1 37 79 18 e6 bf ac e2 ba 3a 0d 57 ed bf
       -0.6904874884189925 -0.9168764254637458
000070 cd a2 a5 fd bc 46 de 3f d1 cb 19 3f a6 20 cc bf
       0.4730675198575625 -0.21974638062564947
000080 0b 1e d3 ff a2 bf e5 bf 00 00 00 80 46 82 e2 bf
       -0.6796431538177229 -0.5784027576446533
000090 4d ad e3 de b1 93 ec 3f 78 b5 58 58 73 25 db 3f
       0.893029151278293 0.4241608011969542
0000a0 f7 98 03 6b aa f8 e5 3f 57 38 cb 13 26 3f f0 3f
       0.6866046991461009 1.0154171727367804
0000b0 df 20 26 d6 34 72 de 3f 0d 8e b8 1d 9a a4 d7 bf
       0.47572060502035457 -0.36942150976594307
0000c0 11 cc d1 37 68 d2 e1 3f 8c 10 ee 88 6b 4c ef 3f
       0.5569344606614114 0.9780786203778162
0000d0 0c 94 f9 d7 7c fd e3 3f c7 47 0e 56 23 5b e4 3f
       0.6246933191547455 0.6361252480294234
0000e0 eb 5a 61 66 a6 73 ef 3f 49 61 93 03 3b 61 eb bf
       0.9828674316039189 -0.8556189603651002
0000f0 d6 e4 a2 8c 5f 06 c6 bf e8 a5 e5 9e 15 75 be bf
       -0.1720694958401398 -0.11897406701395818

hidd_layers.0.weight f8 [32, 32]
000000 00 00 00 00 c0 bf 6c 3f 81 8b 5f 27 fc 20 8e 3f
       0.0035094022750854492 0.014711351348472014
000010 00 00 00 e0 54 43 b6 bf f9 d0 c6 d5 60 d5 c0 3f
       -0.08696489781141281 0.1315117877799208
000020 6d 9a 25 e1 87 ba ac 3f ac f9 aa 3e 22 ab f9 be
       0.05611061690688222 -2.447938087856711e-05
000030 00 00 00 c0 2e 50 b4 3f 62 f5 7c 63 11 41 d2 bf
       0.07934848964214325 -0.2852214309276261
000040 b4 46 82 26 a0 23 ba 3f ba 3a 62 d4 61 86 bd 3f
       0.10210610332640152 0.11533175883435379
000050 c7 80 a4 ff af c5 b7 3f 00 00 00 80 a2 81 a2 bf
       0.09286022177957697 -0.03614528477191925
000060 0d 10 69 ce 59 ae c2 3f f9 11 9f ad 75 fe ca 3f
       0.14594576433785314 0.21089049317937716
000070 5a 10 54 13 8f a4 9e 3f b0 1c cb dc 2f ee c3 bf
       0.02992461734267269 -0.15570638924530078
000080 4a a4 ed db 43 14 ac bf 00 00 00 00 24 19 c1 bf
       -0.054842110249247414 -0.13357973098754883
000090 19 8f c4 48 ef b6 c9 3f 33 50 86 42 5a 86 a1 3f
       0.20089522412410402 0.03422815382069224
0000a0 ab f5 09 aa f4 14 c1 bf f1 0a be 94 cc 8b 88 3f
       -0.1334520178096857 0.011985395707374976
0000b0 3e b6 8a a0 1f f4 c5 3f 0f 8b 57 c7 14 cf 9b 3f
       0.1715125593085975 0.027157139460437792
0000c0 3b 1d a8 c6 dd c8 73 3f b2 0b 5f d8 be fe bb bf
       0.00483023291827261 -0.1093558576822449
0000d0 9c 55 e4 35 11 fc d4 bf af e9 7f 60 7f 77 a2 bf
       -0.32788496268161693 -0.0360679440782009
0000e0 59 54 8c 78 6c 03 c6 3f 4b 0f f9 37 fc 6f dd bf
       0.1719794834722588 -0.45996003595449925
0000f0 da 98 5e b2 2b 23 bb bf 1e c8 93 bd 99 98 a4 bf
       -0.10600541214680295 -0.04022674979377448
000100 00 00 00 40 bf 82 ba bf 00 00 00 c0 36 b3 ba 3f
       -0.1035575419664383 0.10429708659648895
000110 00 00 00 00 35 e8 ae 3f 00 00 00 40 dc 47 b8 3f
       0.06036534905433655 0.09484650194644928
000120 00 00 00 00 b6 0f 89 bf 00 00 00 00 aa 00 c1 bf
       -0.012236997485160828 -0.13283276557922363
000130 00 00 00 c0 51 8c be 3f 00 00 00 00 3c 2e 7b 3f
       0.11932860314846039 0.006635889410972595
000140 00 00 00 00 f0 49 8b bf 00 00 00 40 51 60 c3 bf
       -0.013324618339538574 -0.151376873254776
000150 00 00 00 80 74 eb a1 3f 00 00 00 c0 a0 af b9 3f
       0.034999504685401917 0.10033611953258514
000160 00 00 00 a0 83 7c c2 3f 00 00 00 60 01 6b bf bf
       0.14442487061023712 -0.12272652238607407
000170 00 00 00 40 73 30 be 3f 00 00 00 a0 30 5c bd bf
       0.11792679131031036 -0.1146879568696022
000180 00 00 00 e0 c1 08 b5 bf 00 00 00 00 dd aa a4 3f
       -0.08216487616300583 0.04036608338356018
000190 00 00 00 00 72 e9 93 3f 00 00 00 40 6b 49 b3 3f
       0.019445210695266724 0.07533903419971466
0001a0 00 00 00 e0 7c 3a bd bf 00 00 00 80 dc 0a a7 bf
       -0.11417370289564133 -0.04500474035739899
0001b0 00 00 00 60 17 3b c1 3f 00 00 00 00 70 f3 97 bf
       0.13461582362651825 -0.023389577865600586
0001c0 00 00 00 a0 20 3e c6 3f 00 00 00 a0 db 12 b7 bf
       0.1737709790468216 -0.0901314988732338
0001d0 00 00 00 80 bc 7f c0 bf 00 00 00 40 05 88 b3 3f
       -0.12889820337295532 0.07629425823688507
0001e0 00 00 00 20 e2 54 c2 bf 00 00 00 40 10 29 bf 3f
       -0.14321543276309967 0.1217203289270401
0001f0 00 00 00 80 09 3f af 3f 00 00 00 80 23 d7 a2 3f
       0.06102780997753143 0.03679762780666351
000200 00 00 00 00 7c e8 9e bf 01 57 de a1 28 cf b0 3f
       -0.030183732509613037 0.06566099120967907
000210 00 00 00 a0 d9 4b c0 3f f0 ea 96 92 16 35 c0 bf
       0.1273147612810135 -0.1266201225060608
000220 47 dd 2b 28 69 d5 be 3f a6 3c 9f 16 71 ed 99 3f
       0.12044388991113407 0.02531983089994285
000230 00 00 00 c0 b3 ec bf 3f 53 77 c8 1d e2 8c 90 bf
       0.12470553815364838 -0.016162427013220192
000240 d8 ad 30 e5 c2 24 c4 bf 41 62 c5 80 a6 67 b3 3f
       -0.15737186613965437 0.07580032962631213
000250 11 ee 86 81 6e 93 a8 3f 00 00 00 20 20 36 c0 bf
       0.04799981433049195 -0.12665177881717682
000260 f8 e9 c9 f8 28 a0 b4 bf 60 f6 98 e4 a2 7a c7 3f
       -0.0805688483614303 0.18343006288516772
000270 33 12 13 48 87 78 c3 3f 2c f2 ff 71 36 61 c3 3f
       0.15211573619139215 0.15140419546504924
000280 3d 61 81 53 8b f4 ae 3f 00 00 00 00 f8 43 6f bf
       0.06045947450974374 -0.0038165897130966187
000290 d3 b8 31 f3 a7 52 d0 3f f6 79 8e 64 c4 a4 ba 3f
       0.25504492520748306 0.10407664732927188
0002a0 89 f9 9e 59 a7 75 b3 bf d3 46 f3 3c 98 1e ae bf
       -0.07601400316250397 -0.058827168884489155
0002b0 31 ac 3a ab 47 5a b7 3f db 42 cd 42 71 b5 c3 bf
       0.09122131281280656 -0.15397468339735706
0002c0 c2 a5 d1 7e 8d ab c1 bf 4b 8b 82 7e 1c 7c c1 3f
       -0.13804787342387043 0.13660007645838798
0002d0 af 94 0e 62 35 a5 b5 bf a5 ea 13 27 15 33 c6 3f
       -0.08455213207214983 0.17343391807647382
0002e0 bf 4c f4 6e 1b a4 b3 bf c4 4a 1b a0 ff 7c e3 bf
       -0.0767228265652191 -0.6090086104471415
0002f0 97 a1 4a a5 87 67 c1 bf fa d5 00 d3 1f 75 98 bf
       -0.13597198077083014 -0.023884293798081636
000300 00 00 00 00 54 38 7d bf fc d3 9c 66 6f d8 c0 bf
       -0.007133796811103821 -0.13160507688886003
000310 00 00 00 00 50 c6 8b bf 92 37 f8 22 2f 38 c6 3f
       -0.013561844825744629 0.17358960349559688
000320 32 ae 1a 3b 8a 31 cc 3f 7d e8 d6 9d 21 74 c1 bf
       0.22026183973263042 -0.13635654646879294
000330 00 00 00 60 12 c0 c2 3f 39 7b 47 f5 f0 e7 b9 3f
       0.1464865654706955 0.10119539249670319
000340 f4 f4 ae ff bd 17 b6 bf 10 6e 1c aa 52 ec ac bf
       -0.08629977695723651 -0.05649050070334394
000350 e3 4c a1 ba a8 cf c3 3f 00 00 00 c0 85 ce af bf
       0.15477475273892258 -0.062122516334056854
000360 00 00 00 40 34 e3 c1 bf 00 00 00 a0 f7 a8 c3 3f
       -0.13974621891975403 0.153593972325325
000370 fe db b3 a1 91 33 ca 3f cb fa e9 28 28 84 c9 bf
       0.20469875712998936 -0.19934560773614005
000380 cc 23 e1 73 3d 0a c4 bf 00 00 00 e0 81 50 c5 3f
       -0.1565625015084876 0.1665193885564804
000390 58 c2 24 ad 9a 05 c2 3f 2c 26 4c 25 38 f6 80 3f
       0.14079602674748304 0.008282126081684181
0003a0 ff b5 09 2e 1a 6d 9e bf 82 22 3a 97 30 64 b2 bf
       -0.029713067111904575 -0.0718412751394997
0003b0 35 38 be 09 89 92 c5 3f 7c eb 36 53 2c 47 8a 3f
       0.1685344026158774 0.012831064500337545
0003c0 19 e7 94 7b 02 3f cb 3f eb 97 b4 9a 98 1f b4 bf
       0.21286040338764492 -0.07860711838711125
0003d0 98 eb 7a eb 90 72 b5 3f ec 7a 5b ab 45 1e b8 bf
       0.08377938984896927 -0.09421191628960529
0003e0 ef 45 16 03 da 2c bc 3f 00 00 00 80 f2 75 c0 bf
       0.1100593812500603 -0.12859946489334106
0003f0 db 06 75 e0 2e b4 cb bf 10 79 1f ac 13 11 b5 3f
       -0.21643625221081816 0.08229182197780838
000400 00 00 00 e0 be c4 c2 3f 56 46 a6 a6 8e ad 9e 3f
       0.146629199385643 0.029958943292120864
000410 00 00 00 80 ac 0f b0 bf c0 63 2e 18 3e 63 b2 bf
       -0.06273916363716125 -0.07182682123529016
000420 f3 dd dd 6b b6 49 b3 3f 74 05 cd 51 51 4b ae bf
       0.07534351476157734 -0.059168378100831115
000430 00 00 00 40 17 db b6 3f 64 0e 1d 4a 2a 3d ba bf
       0.08928056061267853 -0.10249580678378717
000440 f8 6b 6f e4 4f 35 c1 bf 19 85 69 3b 4a e3 7d 3f
       -0.134439455547948 0.007296838730867416
000450 15 93 a8 e0 80 94 a5 3f 00 00 00 00 78 95 79 3f
       0.04214861624158154 0.006246060132980347
000460 74 cb 08 da 5a 15 b0 3f 57 50 b0 e7 96 3f 9e bf
       0.06282584975342137 -0.029539449587972246
000470 a1 01 4b a4 56 fd a2 bf 3c 4b a3 0e fc 7c b8 bf
       -0.037089068942353316 -0.09565711362237733
000480 5a c1 8e 7e 71 cd c4 bf 00 00 00 60 d9 2b c6 3f
       -0.16251963309833678 0.1732131689786911
000490 50 9c 05 bb 9e 67 c2 3f cc 95 70 50 a2 e7 c9 3f
       0.14378723270349036 0.2023814099094764
0004a0 43 c3 ec e2 c0 e9 b0 3f 0a d0 3f 34 7b 23 d2 3f
       0.0660667947784193 0.28341560461490245
0004b0 03 86 41 9b 68 58 ad bf 35 d7 d4 22 d8 03 b8 bf
       -0.057315129234449834 -0.09380865908027831
0004c0 69 d1 d5 f9 a2 76 94 bf e5 fa d5 85 c0 40 c0 3f
       -0.019983812807781307 0.12697607550577242
0004d0 cd 84 6c 36 56 12 d3 bf 2e 0a ec 2e 44 49 b9 bf
       -0.2979941874965107 -0.09877420564229375
0004e0 fe 25 db 95 9a f8 c1 3f 00 00 00 00 a7 51 b7 bf
       0.14039928738775126 -0.09108966588973999
0004f0 df fc 3a 5d 7f 07 b5 bf 1c 97 c8 00 fd 7d d0 bf
       -0.0821456530202229 -0.25768971516150585
000500 00 00 00 c0 3b a9 be bf ce e4 8c d0 d5 c4 c5 3f
       -0.11976979672908783 0.17006943400500635
000510 00 00 00 80 d8 d0 a0 3f e5 6a 85 f2 2f c2 ad bf
       0.032843366265296936 -0.058122156481393884
000520 35 70 4d 9f 80 67 a7 3f 67 98 b8 5b d5 5f c0 3f
       0.04571153587923541 0.1279246042115034
000530 00 00 00 40 f5 80 c3 bf 35 9e f8 4c 65 65 96 bf
       -0.15237298607826233 -0.02187116892142012
000540 1c 03 2b f3 f0 6c b1 3f 3f e5 dc 23 10 eb b0 bf
       0.06806856095046182 -0.06608677745397971
000550 f8 15 65 aa d7 7a c0 3f 00 00 00 00 5a 86 ab 3f
       0.1287488538747963 0.05375939607620239
000560 e0 52 7c 85 ed 9f ad 3f d2 d4 29 79 c3 50 c5 bf
       0.057860777420648324 -0.1665272084825689
000570 1c 85 58 d4 f4 8a c2 bf 92 5d b3 4b 3a 48 c5 3f
       -0.14486561172911017 0.16626671501465445
000580 79 7c 79 56 30 27 b1 bf 00 00 00 a0 0d f4 bb bf
       -0.06700422393031315 -0.10919270664453506
000590 a4 0d c7 af f4 5c 9d 3f f0 d9 70 cd 6b 57 8b 3f
       0.028674910763368935 0.013350336272293511
0005a0 03 af 0f 12 f2 dd 86 3f e2 4e 13 2c fe 15 b3 3f
       0.01116551511400799 0.07455433441219442
0005b0 de 07 91 17 69 40 a2 bf 36 29 0a fb a0 ca 8f bf
       -0.03564766323735545 -0.015523202572940247
0005c0 a0 f9 3a cb 72 b7 c6 3f 8a d6 73 95 f0 8c cb bf
       0.1774734012924002 -0.21523864076123217
0005d0 39 33 d0 af 98 68 b2 3f d5 b1 ae 58 12 9a b6 3f
       0.07190851490322538 0.08828844704721146
0005e0 3e 98 30 f0 7b 53 bb 3f 37 3c 29 06 6c dc dd 3f
       0.10674261678704597 0.46657848931949125
0005f0 c4 e1 8e 0c 87 bb c2 bf df 34 d5 eb db 12 a8 3f
       -0.14634788621130046 0.04701888326472114
000600 00 00 00 80 05 6c ac 3f 7c 13 37 65 1c be bb 3f
       0.05551163852214813 0.10836961241791515
000610 00 00 00 40 ec 09 bf bf 2e 55 7f 56 17 5a a3 bf
       -0.12124516069889069 -0.03779671603084932
000620 98 46 23 85 d4 fd 75 3f ce d4 85 7f e2 ab c3 3f
       0.005369024426003975 0.15368300654123462
000630 00 00 00 00 07 c2 c0 bf 3b 6e 78 e1 e0 4a a9 bf
       -0.13092124462127686 -0.049399402163740246
000640 ac 2c 6d 33 35 48 c0 bf 36 9b 80 81 49 5b ac 3f
       -0.1272036076646591 0.05538396554793794
000650 b2 22 c8 f4 e7 a0 c1 3f 00 00 00 20 f4 bc ba bf
       0.13772296383128474 -0.10444570332765579
000660 84 68 fb 5c 80 ea 9b 3f 3d 9e 10 05 f2 2f cb 3f
       0.027261739421057488 0.2124006771784809
000670 db 11 8d d0 86 41 c3 3f 7f de 11 5d c3 6a a4 bf
       0.15043721373707694 -0.03987703810792897
000680 fe 66 86 04 d4 a9 c2 bf 00 00 00 00 a5 f6 a5 3f
       -0.1458077451796313 0.04289737343788147
000690 63 a9 16 1f 57 3f c5 3f c5 98 77 5b f6 65 d2 3f
       0.16599549310678716 0.28747328693715374
0006a0 ce d5 ce 38 26 58 95 3f cb 3c 46 52 5e f3 bf 3f
       0.02084407541015825 0.12480725773478978
0006b0 e1 a5 d0 ae d6 59 a9 bf 94 db 23 c8 df 30 c3 bf
       -0.049513539161420324 -0.1499290206190521
0006c0 ff 24 bd d2 bd 1d d2 bf 53 ba ac 1d d5 34 c0 3f
       -0.2830652769085446 0.12661231945954174
0006d0 59 7d df 02 81 66 bb bf d3 91 0c 27 57 f0 ae 3f
       -0.10703283615247496 0.060427402035461285
0006e0 24 54 fe 5c f3 53 7d 3f 96 d4 44 d4 d9 fd de bf
       0.007160139692037357 -0.48424382905370444
0006f0 aa 72 43 90 3e 74 ba 3f 7b 8a 25 3b 58 32 b7 bf
       0.10333624860818227 -0.0906119484330165
000700 00 00 00 00 00 6b 84 3f 2b a0 59 a2 91 59 a7 bf
       0.009969711303710938 -0.04560523135006663
000710 00 00 00 00 7b 74 a7 3f bc e9 67 cf 7c d4 b5 bf
       0.045810550451278687 -0.08527355254765373
000720 3c bf be 69 c7 24 96 bf 00 00 00 80 0a ce a6 3f
       -0.02162467558781532 0.04454071819782257
000730 00 00 00 00 73 be 94 bf ca 1e 22 38 c9 a7 92 3f
       -0.020257756114006042 0.0182181778441464
000740 00 00 00 60 4a 94 b9 bf 79 4e 15 ad 32 b3 86 3f
       -0.09991898387670517 0.011083980471688225
000750 08 b0 77 0f c2 51 b7 bf 00 00 00 40 23 ed b1 3f
       -0.09109127881646384 0.07002468407154083
000760 00 00 00 00 24 44 7e bf 00 00 00 00 6d e7 a4 bf
       -0.00738920271396637 -0.04082813858985901
000770 42 67 7d a5 6d 51 95 3f 00 00 00 00 a3 03 96 bf
       0.020818436837863226 -0.021498247981071472
000780 00 00 00 60 cf b8 c4 3f 00 00 00 00 dd bf c1 bf
       0.1618899554014206 -0.13866770267486572
000790 68 db df 33 cf 6a a3 3f 4b bd 44 8c 05 c5 b8 3f
       0.03792426594002657 0.09675631212734463
0007a0 4f d0 2b cd 3f 31 9d 3f 00 6c df 85 0d 44 c2 3f
       0.028508183381703408 0.1427018073726174
0007b0 bd ba c5 b8 3b 80 c0 3f 00 00 00 e0 22 d4 c1 3f
       0.12891336938942813 0.13928638398647308
0007c0 3b e7 d7 89 c6 f7 a0 bf 41 d7 0d 69 12 a7 c4 bf
       -0.03314037735613203 -0.16134863023369841
0007d0 93 1e c2 df 0a 5b aa 3f bb c5 2b 61 9d f4 a3 bf
       0.05147584897445969 -0.03897563754243146
0007e0 1b 76 62 79 13 f5 a2 bf 00 00 00 60 44 f5 c2 3f
       -0.037026032035310595 0.14810995757579803
0007f0 c0 90 a8 4b 7e 40 8a bf 00 00 00 a0 63 15 bc bf
       -0.012818323787606167 -0.10970137268304825

hidd_layers.0.bias f8 [32]
000000 9e 9b ca a5 8d 01 a6 bf 00 00 00 00 45 9c 9f bf
       -0.04298060082265141 -0.030869558453559875
000010 7c 85 0b f1 3b 4a 9e bf ab 2e 72 ba 0a 52 83 bf
       -0.029580055796832636 -0.009433826269990083
000020 f9 24 16 a1 c8 5a ce 3f ce ef 04 b9 6b 7a c3 3f
       0.2371454989009079 0.15217348608154996
000030 6f dc ee 4b 24 82 c0 bf 2a 28 51 6b 31 db 98 3f
       -0.12897161204975613 0.024273655104743032
000040 04 67 de 92 28 15 b6 3f c7 9c a4 ec 5f cc b2 bf
       0.0862603529516513 -0.07343101050774968
000050 3d b5 42 dd 02 01 85 3f a5 35 ce 6a 1d 29 a7 3f
       0.010255834939324355 0.04523555687692785
000060 6f 9d aa e3 cd e9 a7 3f 22 b1 db 99 c0 c3 c5 bf
       0.04670565990573549 -0.170036387563763
000070 a3 46 d0 ca f7 72 c5 bf 12 76 8f f3 a1 64 b4 bf
       -0.16757104304320078 -0.07966053196238246
000080 79 f5 40 0b 3b d9 bd 3f 1f 65 1c 47 ea ab b2 3f
       0.11659592652082108 0.07293571697336575
000090 d5 92 51 0f c5 d8 a2 3f e8 cf 15 79 b5 0a a7 bf
       0.036810072059585565 -0.045003577261837624
0000a0 6e 12 3b 5e 80 45 c7 3f c1 5a db 8e 68 c0 ae bf
       0.18180851555929983 -0.0600617098222549
0000b0 37 0d c8 37 91 d8 a4 bf 50 e7 1a 15 97 e6 a6 3f
       -0.04071477704931186 0.044728013349824125
0000c0 98 c3 d6 59 5b 5c bc bf 00 00 00 e0 22 fb c0 3f
       -0.1107842535336786 0.13266406953334808
0000d0 3b 91 32 6c 8f ad c2 3f e9 ec 27 ac 6a c8 d1 3f
       0.14592163832743119 0.27785746395211547
0000e0 00 00 00 c0 b1 dd c0 bf 00 00 00 c0 78 f7 bd bf
       -0.13176557421684265 -0.11705736815929413
0000f0 a7 78 7c 21 f1 79 b1 3f 6e ae 22 a6 64 56 a5 3f
       0.0682669359925706 0.04167475250264095

out_layer.weight f8 [1, 32]
000000 6a 9d f8 40 b9 96 bd 3f 00 00 00 20 fa 24 b6 bf
       0.11558111034593357 -0.08650172501802444
000010 e8 43 6f 52 e6 ee c9 3f 22 73 54 93 d5 c0 d1 bf
       0.20260314011696257 -0.27739467036899346
000020 2c 90 75 90 71 ab d6 3f a3 e7 39 74 ed db a9 bf
       0.35421408755633155 -0.050506039083259034
000030 9e a0 3c 22 9f 27 bb 3f 0c 22 1d db bb ea bb bf
       0.10607332788333898 -0.10905050372560526
000040 19 58 6c 6b fd 59 bf bf ab 39 9b ea 93 aa bb bf
       -0.12246688721310796 -0.10807156064695415
000050 60 35 d2 81 05 6b c4 bf 7f e2 a9 9e c1 b3 c3 3f
       -0.15951603735849584 0.15392322776076026
000060 55 90 d5 47 02 7e c8 3f 59 63 26 64 a6 c5 b1 3f
       0.19134548671275078 0.06942214913432333
000070 58 f8 53 fb 94 12 c8 3f 16 b2 3c 12 d4 e0 c1 bf
       0.18806707641482734 -0.13967371836169268
000080 00 03 d7 d6 27 e0 d4 3f f4 50 78 6d 9a 45 d2 3f
       0.326181373409824 0.28549824419430014
000090 f3 13 19 f2 2b 4c ca bf 6e 71 d2 2b 4f 04 be bf
       -0.2054495746725987 -0.1172532541263018
0000a0 ef 13 69 2f 9a 16 b4 bf 2f 43 50 95 06 6c c8 bf
       -0.07846988351327842 -0.19079668322276563
0000b0 42 58 64 5d cd dd be bf 85 78 80 42 f7 90 bb bf
       -0.12057193307950434 -0.1076807534559255
0000c0 c7 07 17 76 21 1c c3 3f 00 00 00 20 28 fe c5 bf
       0.1492959810839791 -0.17181874811649323
0000d0 78 76 a0 c2 d0 6b d4 bf b7 a2 8c a2 15 86 c8 3f
       -0.31908053404354275 0.19159193455677379
0000e0 00 00 00 80 5b 76 a6 bf 00 00 00 00 2d ab 97 bf
       -0.043871745467185974 -0.023113921284675598
0000f0 41 ea 01 67 75 50 c8 bf 30 88 54 cb c2 2f bf 3f
       -0.1899554017034735 0.12182252372852598

out_layer.bias f8 [1]
000000 d5 ff e7 d0 51 60 7b 3f
       0.006683654397875179
