homework1/result/model_save/adam-64-0.001-Relu-4-32-0/model.pt (torch, 20111 bytes, 8 tensors)

proj_layer.weight f8 [32, 1]
0.19748539905792284 0.7829360353338561 -0.3364828824996948 -0.3918393549208984 -0.0358100655595017 -0.9888904094696045 -0.23536346701819327 0.6982358378120026
0.4754114457376009 -0.5125248229863518 -0.7217529354545312 -0.46667302602972904 -0.8445259810182777 -0.691936731338501 -0.6673885583877563 0.2926316548804587
-0.2072405245258777 -0.278120756149292 -0.7435711622238159 -0.5622698950294776 -0.7160230875015259 0.42080186638008826 0.832784360361759 0.2374718288694481
0.5512892184620355 0.1900593514646632 0.14382032241049983 0.2786141394688061 0.18071757328951102 -0.18783183864799288 -0.5747667878038244 -0.4559532403945923
00000000: b815 3299 3347 c93f 50cd 53df cf0d e93f
00000010: 0000 0080 ef88 d5bf 96f1 aa5f e513 d9bf
00000020: 9c2f e468 b255 a2bf 0000 0080 fda4 efbf
00000030: 9a16 c2dc 6320 cebf da86 09af f257 e63f
00000040: a192 e520 246d de3f 8faa 2375 9a66 e0bf
00000050: f936 b29c 9918 e7bf 5646 2e8a f8dd ddbf
00000060: f410 a359 5b06 ebbf 0000 0080 5824 e6bf
00000070: 0000 0040 3f5b e5bf 7619 df1e 7aba d23f
00000080: c84c 9f85 db86 cabf 0000 0000 bbcc d1bf
00000090: 0000 00c0 55cb e7bf a6a9 556f 1dfe e1bf
000000a0: 0000 0040 a9e9 e6bf fbaf 8cf3 6aee da3f
000000b0: 15f8 0b63 2ba6 ea3f 6598 5b15 7a65 ce3f
000000c0: a6d1 7d49 29a4 e13f 3b7b 6b65 dd53 c83f
000000d0: 3d6b a04e b468 c23f 6a30 4e66 d0d4 d13f
000000e0: b1a3 8be1 c021 c73f bf01 12aa df0a c8bf
000000f0: 8138 8e51 7d64 e2bf 0000 0080 562e ddbf

proj_layer.bias f8 [32]
0.3765457410496814 1.0120214155649845 -0.81947922706604 0.3327431703944655 0.9882699080040269 -0.1978929042816162 0.9570203845211614 0.44437454376678986
1.1787024123878833 0.8935874938540006 0.9283285582447899 0.3043930012480656 0.13451487114156285 -0.9967052936553955 -0.5707811117172241 -1.0805839431609194
0.9862087798077875 -0.7411694526672363 -0.26059019565582275 0.5150421689390396 -0.44370710849761963 0.7090578873062658 0.1407567753451758 0.37063837391615917
-0.5112916733020794 -1.5581882928219537 -0.5805437022001572 0.23683570327165315 -0.7943567166175253 0.9605971110954533 0.6009055086412497 -0.6363227367401123
00000000: f269 d04e 5319 d83f 7240 2b5e 3d31 f03f
00000010: 0000 0080 2c39 eabf 01f1 b302 aa4b d53f
00000020: 74f1 cf36 e89f ef3f 0000 0000 8e54 c9bf
00000030: 9ff5 a336 e99f ee3f 64cf 29ed a170 dc3f
00000040: 98c1 8e0f f7db f23f 09f6 c6cc 4498 ec3f
00000050: a355 b317 deb4 ed3f 7d78 5fc8 2c7b d33f
00000060: 2678 3086 c837 c13f 0000 0080 02e5 efbf
00000070: 0000 00c0 d643 e2bf 8a57 8763 124a f1bf
00000080: 2fae 09b7 058f ef3f 0000 0000 a9b7 e7bf
00000090: 0000 0080 82ad d0bf 3eee f4b6 397b e03f
000000a0: 0000 0080 b265 dcbf c470 9e2a 9ab0 e63f
000000b0: 3323 6669 5104 c23f 9433 a703 8ab8 d73f
000000c0: e495 f15a 805c e0bf c4e2 ead8 56ee f8bf
000000d0: 6826 db62 d093 e2bf 34d8 09e0 a150 ce3f
000000e0: e35d e7c6 5e6b e9bf 852f 1927 36bd ee3f
000000f0: 9536 7330 9e3a e33f 0000 0080 c15c e4bf

hidd_layers.0.weight f8 [32, 32]
-0.011913979682509292 0.12237374936460378 0.10610441863536835 0.16771602035321473 0.22353617389089836 0.08618147671222687 -0.10138624202096688 0.10204919989510593
-0.02392143220759303 -0.14183645111698517 0.026935978922455705 0.2014273774170941 -0.10119738440199415 0.08452443778514862 0.13799820840358734 -0.06508597388332375
-0.197429115326659 -0.07322195172309875 0.08324874937534332 0.02280350221593276 0.12374179065227509 0.015221940083786361 0.04123597913397556 -0.09236157387960445
-0.2249948867660988 -0.3272259963574443 -0.030314221128464616 0.11980780295118594 -0.20703260840738597 -0.29889521551339554 0.01333757160169684 -0.02594459056854248
-0.18382070922293903 0.1375866379400655 -0.13353988528251648 -0.4782902388444117 -0.40756932592588174 0.1700897365808487 0.20419174036218604 0.0690318140934416
-0.04802934355991267 -0.006376445477435805 0.027198370921210052 0.03610721768099735 -0.07979244979137638 -0.032037362456321716 0.064781054854393 0.3688540588749647
0.07677007706822093 -0.10128562152385712 0.01803438365459442 -0.00035986287590040897 -0.005914613604545593 0.11519684627680714 -0.10534334756654021 -0.03568476689879627
-0.04282897411178387 1.7232712598705728 0.07558038186366911 -0.11426584062533268 0.2583817279670938 -0.02387964485210791 -0.09390363695580156 -0.06984823942184448
0.08975721895694733 -0.03793279826641083 -0.023535490036010742 0.10139499604701996 0.16226579248905182 0.08381552994251251 0.08270470798015594 -0.04527951776981354
-0.14976193010807037 -0.09052670747041702 -0.17286530137062073 -0.16832754015922546 0.022426098585128784 0.1306401938199997 -0.020887896418571472 -0.07391111552715302
-0.06534645706415176 -0.14930613338947296 0.04737895727157593 -0.05190049111843109 0.04262314736843109 -0.007584139704704285 0.036920949816703796 -0.11348618566989899
-0.02898848056793213 0.09314064681529999 0.007881462574005127 -0.10433357208967209 0.11965052783489227 -0.05890195071697235 0.09212665259838104 -0.13280987739562988
0.07363427581692154 -0.06928001116683415 -0.11813946813344955 0.08404706418514252 -0.09173701240148573 -0.17555221915245056 0.0827457529683884 -0.11276038670472566
0.08728873161237335 -0.0741648345811023 -0.09347988497977652 0.1311725229024887 -0.0032885223627090454 0.09704823791980743 0.09391264617443085 -0.04714655876159668
0.0500135209729422 0.16352377831935883 0.09265919029712677 -0.14889952540397644 0.00783693790435791 -0.052650737906030254 -0.1756967468863265 0.09636066673322609
-0.17510991223125646 -0.15719564259052277 0.10247929394245148 0.11718016893543032 -0.043411463499069214 -0.11258688876506699 -0.17787683640184607 0.115312859416008
-0.1256645259719833 -0.195072188952691 0.14179928600788116 -0.1326856611850025 -0.01629109331490538 0.06631836295127869 0.11433256270130593 0.12520365919800486
0.06255471595396665 -0.17606729442249802 0.10156720299246416 0.0049930628021771705 -0.1632456141023871 -0.15172846615314484 0.05509267747402191 0.07176607847213745
0.06557427329390782 -0.08606502413749695 0.08102844655513763 0.10950918933625171 0.12435241043567657 -0.13459690874656138 -0.08782479098974857 -0.010703225682752952
0.16082020103931427 -0.17162151634693146 0.15377020561441931 -0.17840028667673544 0.15445436537265778 0.06654122450507606 0.09937781204866189 -0.06964391469955444
0.03342273831367493 -0.15257340669631958 0.05146387219429016 -0.03583703935146332 -0.030926406383514404 -0.04087531566619873 -0.11149834841489792 -0.04720546305179596
-0.0831930935382843 -0.15331697463989258 0.01768481731414795 0.033132120966911316 0.06560555100440979 -0.14044734835624695 -0.11139888316392899 -0.11097901314496994
0.012577950954437256 0.01936902105808258 0.08679939806461334 -0.00028145313262939453 -0.09396354854106903 -0.1520119607448578 0.1764577478170395 -0.09265817701816559
-0.004417881369590759 0.1604403704404831 0.17028658092021942 0.03684087097644806 -0.05044110119342804 0.1760183721780777 -0.08241655677556992 0.12942610681056976
-0.10913412272930145 -0.0039022117853164673 -0.022646844387054443 -0.038436487317085266 -0.11658768355846405 0.14725260436534882 0.006063133478164673 -0.03307393193244934
0.05007374286651611 -0.1639334112405777 -0.16484399139881134 0.11909471452236176 -0.08855832368135452 -0.10529656708240509 0.1382938176393509 -0.09108968824148178
0.007509663701057434 -0.027914419770240784 0.12963657081127167 0.0952976793050766 -0.1541409194469452 -0.01987367868423462 -0.161329984664917 -0.09450478106737137
-0.08378620445728302 -0.1419813334941864 0.057121217250823975 -0.1557578295469284 0.0478132963180542 -0.1458728164434433 -0.13241654634475708 0.04534122347831726
-0.15601662426692597 0.12715318318037247 -0.034656912088394165 -0.07327812041698269 -0.19393161192890618 0.09642715752124786 0.09230988283815789 -0.1412884131319065
0.14107811323934794 -0.054795491679805124 0.04237695406820419 -0.17921712200406925 0.1409799216702005 -0.135723277926445 0.07122503221035004 -0.12007549607183968
-0.1801544743657919 -0.10983700305223465 0.002231985330581665 -0.05997531641745923 -0.056100234389305115 0.012516919592390735 0.13990091646233277 0.0853405135128706
0.09775751406169574 -0.8104669535062516 0.10954457454671884 -0.1148604863202795 -0.20337032516098769 0.08781478535905017 -0.0028377803063239886 0.016125723719596863
00000000: 410c d048 5b66 88bf 81ed 68d3 e253 bf3f
00000010: 0000 00c0 a829 bb3f 8356 37f3 b777 c53f
00000020: e2cc 2a56 d59c cc3f 0000 0040 fd0f b63f
00000030: 9690 bee1 72f4 b9bf 05e8 2178 e51f ba3f
00000040: 2337 0524 dc7e 98bf c0cd 7663 b227 c2bf
00000050: c313 3bf2 1a95 9b3f 8a42 434f 5fc8 c93f
00000060: 9b82 7260 12e8 b9bf 0000 00c0 64a3 b53f
00000070: 0000 00e0 eca9 c13f ebd6 4171 79a9 b0bf
00000080: 6198 cd74 5b45 c9bf 0000 0080 acbe b2bf
00000090: 0000 0040 ca4f b53f 44bc 0121 cd59 973f
000000a0: 0000 00c0 8aad bf3f 2376 bb36 ae2c 8f3f
000000b0: bc11 99db e11c a53f 3251 3813 02a5 b7bf
000000c0: 2cbc 36e8 a1cc ccbf 3666 304e 45f1 d4bf
000000d0: 04e1 66f1 b00a 9fbf ed1f 7b63 b9ab be3f
000000e0: aa5b 2865 0b80 cabf e1e5 e365 1921 d3bf
000000f0: 99e2 b28e ba50 8b3f 0000 0000 3891 9abf
00000100: 8453 38df 6f87 c7bf b3da 285f 709c c13f
00000110: 0000 00c0 d517 c1bf 384c 75a9 4e9c debf
00000120: 5515 6da7 9d15 dabf 0000 0020 80c5 c53f
00000130: 5105 7c77 f422 ca3f cf35 eaa7 11ac b13f
00000140: 0725 ad57 4d97 a8bf 2d20 a50c 301e 7abf
00000150: 88bd 71c6 e3d9 9b3f a2ca 2d2e a57c a23f
00000160: db59 522a 476d b4bf 0000 0080 3367 a0bf
00000170: 0000 00c0 7d95 b03f 6859 f70d 4e9b d73f
00000180: c1c4 512a 34a7 b33f 0000 00c0 daed b9bf
00000190: 0000 0000 9b77 923f e918 7548 7f95 37bf
000001a0: 0000 0000 ec39 78bf 4f79 5c5f 8a7d bd3f
000001b0: 7242 a618 c8f7 babf bd67 9715 4645 a2bf
000001c0: 4f3f 43e6 aded a5bf 457e 74e2 8492 fb3f
000001d0: c0da 5264 3c59 b33f 0c27 89b0 8640 bdbf
000001e0: 322b e083 5389 d03f 3e37 b8d6 e773 98bf
000001f0: 245c b399 110a b8bf 0000 0000 93e1 b1bf
00000200: 0000 0040 54fa b63f 0000 0080 ed6b a3bf
00000210: 0000 0000 b019 98bf 0000 00c0 05f5 b93f
00000220: 0000 0020 20c5 c43f 0000 0040 ef74 b53f
00000230: 0000 00c0 222c b53f 0000 0080 e02e a7bf
00000240: 0000 0020 662b c3bf 0000 0020 c22c b7bf
00000250: 0000 0040 7320 c6bf 0000 00c0 c18b c5bf
00000260: 0000 0000 def6 963f 0000 0060 d1b8 c03f
00000270: 0000 0000 a363 95bf 0000 00c0 d6eb b2bf
00000280: 0000 00a0 8bba b0bf 0000 00a0 761c c3bf
00000290: 0000 0000 0e42 a83f 0000 0080 b392 aabf
000002a0: 0000 0080 b3d2 a53f 0000 0000 8c10 7fbf
000002b0: 0000 0080 4de7 a23f 0000 0040 6e0d bdbf
000002c0: 0000 0000 28af 9dbf 0000 00c0 10d8 b73f
000002d0: 0000 0000 2824 803f 0000 00e0 9ab5 babf
000002e0: 0000 00c0 6aa1 be3f 0000 0080 6528 aebf
000002f0: 0000 00c0 9c95 b73f 0000 0000 eaff c0bf
00000300: 0392 7f26 b2d9 b23f a162 3ab6 55bc b1bf
00000310: 0000 0060 633e bebf 0000 00c0 1b84 b53f
00000320: 5bdd 18ac 137c b7bf 0000 00c0 7e78 c6bf
00000330: d2d2 e15e d32e b53f 385d 2e5d dddd bcbf
00000340: 7e9f 95e7 8d58 b63f 6d01 0a73 77fc b2bf
00000350: 666d d238 4cee b7bf 0000 00e0 42ca c03f
00000360: 0000 0000 88f0 6abf 0000 0040 27d8 b83f
00000370: 0000 00c0 a80a b83f 0000 0000 9823 a8bf
00000380: 9f89 df49 5f9b a93f 0000 00e0 58ee c43f
00000390: 0000 0040 83b8 b73f 0000 00c0 230f c3bf
000003a0: 0000 0000 d00c 803f 7055 d59a 09f5 aabf
000003b0: 63f7 f122 3b7d c6bf 196e 3db8 17ab b83f
000003c0: f78c 1e69 006a c6bf 0000 00a0 fc1e c4bf
000003d0: 0000 0040 153c ba3f fc42 5101 85ff bd3f
000003e0: 0000 0000 073a a6bf 7350 348d 7ed2 bcbf
000003f0: 65eb 870d abc4 c6bf 0000 00c0 2485 bd3f
00000400: d093 a872 c615 c0bf b199 f41f 20f8 c8bf
00000410: 0000 00a0 7a26 c23f 4907 b8ff d7fb c0bf
00000420: 76b0 03c4 9cae 90bf 0000 0080 3dfa b03f
00000430: b483 ab19 e644 bd3f aa27 cc6a ac06 c03f
00000440: 779c 3bfb 9503 b03f 6c4c b883 5f89 c6bf
00000450: 52e6 32e7 4e00 ba3f 975a 1317 9b73 743f
00000460: 1381 e476 3be5 c4bf 0000 00a0 d66b c3bf
00000470: 0000 0080 1b35 ac3f 0000 0000 435f b23f
00000480: e59c 41bf 79c9 b03f 0000 0080 5b08 b6bf
00000490: 0000 00c0 47be b43f 4588 cf52 cb08 bc3f
000004a0: 0000 0040 8fd5 bf3f 54c6 9ab4 783a c1bf
000004b0: b639 147d af7b b6bf 422e 27a2 92eb 85bf
000004c0: 0000 00a0 c195 c43f 0000 00a0 b1f7 c5bf
000004d0: bb47 1bfa bdae c33f 3bd2 6f12 d2d5 c6bf
000004e0: 0000 0020 29c5 c33f d1c8 157f d808 b13f
000004f0: 0e71 b204 d370 b93f 0000 0000 2fd4 b1bf
00000500: 0000 0000 c91c a13f 0000 0080 8687 c3bf
00000510: 0000 0000 7959 aa3f 0000 0080 3b59 a2bf
00000520: 0000 0000 2cab 9fbf 0000 0000 9ced a4bf
00000530: 0000 00e0 278b bcbf 0000 0080 502b a8bf
00000540: 0000 0080 244c b5bf 0000 0000 e49f c3bf
00000550: 0000 0000 f81b 923f 0000 0080 b1f6 a03f
00000560: 0000 0080 86cb b03f 0000 00c0 2dfa c1bf
00000570: 0000 0020 a384 bcbf 0000 00e0 1e69 bcbf
00000580: 0000 0000 78c2 893f 0000 0000 79d5 933f
00000590: 0000 0040 7c38 b63f 0000 0000 0072 32bf
000005a0: 0000 00c0 fe0d b8bf 0000 00c0 2075 c3bf
000005b0: 0000 00e0 2a96 c63f 0000 0040 72b8 b7bf
000005c0: 0000 0000 7c18 72bf 0000 0060 4f89 c43f
000005d0: 0000 0060 f3cb c53f 0000 0080 cedc a23f
000005e0: 0000 0080 6ad3 a9bf 0000 0020 c587 c63f
000005f0: 0000 0060 4019 b5bf 0000 00e0 0891 c03f
00000600: 0000 00c0 36f0 bbbf 0000 0000 88f7 6fbf
00000610: 0000 0000 bc30 97bf 0000 0080 f2ad a3bf
00000620: 0000 00c0 b0d8 bdbf 0000 0060 2cd9 c23f
00000630: 0000 0000 a8d5 783f 0000 0000 11ef a0bf
00000640: 0000 0000 44a3 a93f 0000 0020 c5fb c4bf
00000650: 0000 00a0 9b19 c5bf 0000 00c0 fd7c be3f
00000660: 0000 0020 c2ab b6bf 0000 0040 b7f4 babf
00000670: 0000 00a0 9cb3 c13f 0000 0060 a751 b7bf
00000680: 0000 0000 74c2 7e3f 0000 0000 9995 9cbf
00000690: 0000 0060 ee97 c03f 0000 00c0 6d65 b83f
000006a0: 0000 00c0 e3ba c3bf 0000 0000 c459 94bf
000006b0: 0000 0000 76a6 c4bf 0000 0020 7731 b8bf
000006c0: 0000 0040 0373 b5bf 0000 00c0 712c c2bf
000006d0: 0000 0000 fe3e ad3f 0000 0060 dfef c3bf
000006e0: 0000 0000 fc7a a83f 0000 00e0 f5ab c2bf
000006f0: 0000 0080 06f3 c0bf 0000 0000 f736 a73f
00000700: 14ec 6d4d 5af8 c3bf 8fc6 ab35 8e46 c03f
00000710: 0000 0000 8dbe a1bf d90a b4da 5ac2 b2bf
00000720: 6c96 7245 c0d2 c8bf 0000 0040 73af b83f
00000730: e031 e3d7 9ea1 b73f 7646 da1c bd15 c2bf
00000740: 60ae 45fd d80e c23f 2f4c 7799 270e acbf
00000750: a070 a79f 6eb2 a53f 1803 f22e 96f0 c6bf
00000760: e5aa 7b4c a10b c23f 0000 0060 615f c1bf
00000770: 0000 00c0 cd3b b23f 8af5 ad88 44bd bebf
00000780: e087 d043 4d0f c7bf 0000 0020 471e bcbf
00000790: 0000 0000 d048 623f 1f15 29ad 15b5 aebf
000007a0: 0000 0080 2bb9 acbf b02a 5e82 78a2 893f
000007b0: 466d 71f2 45e8 c13f adc6 8f3a e0d8 b53f
000007c0: 6f4f d5ed a206 b93f 108a 7964 58ef e9bf
000007d0: 68e4 21fd 1c0b bc3f 4b27 5930 7f67 bdbf
000007e0: c68b c5ef 0908 cabf e7ed 389f 077b b63f
000007f0: 1810 7cb3 413f 67bf 0000 0000 4383 903f

hidd_layers.0.bias f8 [32]
0.054356934400599 -0.47672813604233844 -0.14969441294670105 0.002723405632585041 0.01631416119546859 0.10207952558994293 0.03544364869594574 0.10986651627951366
-0.11634930223226547 0.013846606117077394 0.0634934459058473 -0.04242052137851715 -0.15479084849357605 -0.07159484922885895 0.10846201244625885 0.16442270576953888
-0.09165942668914795 0.15026109323124204 -0.14987201988697052 -0.10390098371849796 0.09197618951771883 0.5414602234617844 0.2225227171051964 0.15280033625129996
-0.14884091652538678 0.20705543627596765 -0.03787893825297466 -0.047504737973213196 -0.11846153438091278 0.005032506201782167 -0.03359752893447876 0.2981844229511361
00000000: 856e 1f0f acd4 ab3f eaa1 58ba b682 debf
00000010: 0000 00c0 2f29 c3bf 67b1 0544 654f 663f
00000020: a351 2fd3 a8b4 903f 0000 0040 e221 ba3f
00000030: 0000 0080 ab25 a23f 0491 5846 3620 bc3f
00000040: 0000 0060 11c9 bdbf e4af 7703 9c5b 8c3f
00000050: aa0b ad41 1b41 b03f 0000 0080 24b8 a5bf
00000060: 0000 00c0 2fd0 c3bf 0000 0040 0a54 b2bf
00000070: 97a5 509c 2ac4 bb3f 0000 00a0 cd0b c53f
00000080: 0000 0000 fe76 b7bf c80a a568 c13b c33f
00000090: 0000 00a0 012f c3bf 76da 173f 4199 babf
000000a0: ca42 fd65 c08b b73f 8b4d fb63 a453 e13f
000000b0: 86bc 4ad8 9f7b cc3f 8831 821f f68e c33f
000000c0: f83f 641a 380d c3bf 5bd4 a1e3 ca80 ca3f
000000d0: d7e8 0142 de64 a3bf 0000 0080 8a52 a8bf
000000e0: 0000 00c0 7e53 bebf e16d db18 f79c 743f
000000f0: 0000 0000 b233 a1bf dc1c 301e 7415 d33f

hidd_layers.2.weight f8 [32, 32]
-0.07623226215366509 0.3916245026062543 0.1731327921152115 0.12213918887707748 0.15683294941299472 0.07856343686580658 0.1625540405511856 -0.04024654088836534
-0.12928102910518646 -0.20841172059626575 -0.054607428617369225 0.16740356385707855 -0.1373182237148285 0.06593175232410431 0.548282749122216 0.007784813642501831
0.048040494322776794 -0.10685647914114588 0.16414158046245575 0.12100933655987176 -0.07094434945685506 -0.5531289018895876 0.08397816068753888 0.09188474578384263
0.11491065466759454 0.41996804551940903 0.03628154234485462 -0.0806947574019432 -0.07157419621944427 0.05172419660745697 0.0944155603647232 0.0934740057844585
0.13164932448066538 -0.08668110441136759 0.023875728249549866 0.047643572092056274 0.06460181232083499 -0.16150891780853271 -0.09690641611814499 -0.1165764686712834
-0.13104815781116486 -0.08310840345203427 0.16879194828275781 -0.12188388407230377 0.047989413142204285 0.1492326408624649 -0.20721528488969163 0.05794183909893036
0.0036752820014953613 0.0290286208034764 -0.022884413599967957 0.14066775565021583 0.055585984637059646 0.5472071191587067 0.15328582258728402 -0.3324615180986852
-0.1414494457625642 -0.42906890163263145 0.05104797514909993 0.015628427267074585 -0.10538623481988907 -0.4782667361646282 0.0996449738740921 0.1322259680837534
0.051272408814956316 -0.13429335806845277 0.1577071100473404 0.028071671724319458 -0.0635049119591713 -0.10462035983800888 0.10557012259960175 -0.16385126828361632
0.09112180769443512 0.13531112841339113 -0.07150382648196076 0.06026068329811096 0.07911364734172821 0.10986341536045074 -0.11574219761113604 0.13292600214481354
0.06994755566120148 0.009506366953684842 0.1585974544286728 0.018081827085381114 -0.12717124819755554 0.050353005167396755 0.14512130464358008 0.01692250370979309
0.033258360554116566 -0.1659243051800228 0.09968100189867375 0.12011094391345978 -0.13506071269512177 -0.15145740364590876 0.10168366134166718 -0.09599475832525275
0.012635446841083753 0.33992770321408083 -0.07140015065670013 -0.056429570349268786 0.06366352782947053 -0.1390542984008789 0.04764646291732788 0.06254881698531588
0.12478043138980865 -0.014920900547603613 -0.05946126477528798 0.16837500035762787 0.1644066721200943 0.08069024980068207 0.26430058182411326 -0.010927349328994751
-0.13367292284965515 0.1317754353513977 0.175658717751503 -0.07092262197706341 0.04849462759011604 -0.5262797247985262 -0.16966850949666434 0.19218568231794445
-0.061471467707605525 0.42230286483944635 -0.11826973784929097 -0.03462694585323334 -0.15162155032157898 -0.012640613020912258 -0.024059385061264038 0.13277486427463217
-0.08979027615250983 -0.4665574603334325 0.1482807844877243 -0.015128325402002837 0.09603830908139782 -0.06966646015644073 -0.005007192492485046 -0.015100987687926231
-0.06290876120328903 0.09342841931968072 -0.024074553999693056 0.08765266835689545 -0.07789778709411621 -0.12981146574020386 -0.4805558578588212 -0.05943907052278519
0.1331760436296463 0.19316569671989983 0.12591831386089325 -0.0717589493171953 0.03761735705946676 0.7874139486267826 0.25186572752196684 -0.02366789799534383
0.04821731011146554 -0.3960012970908512 -0.023282023936305355 -0.1752270609140396 0.03760014474391937 0.06826609998187001 0.014270499348640442 0.18838495449407053
-0.08754385012579852 -0.1790153427604953 0.1726336032152176 -0.156827911734581 -0.09661511331796646 -0.08048541098833084 0.0463973730802536 -0.12671468656519486
-0.13817386329174042 0.0989789776123719 0.055910855531692505 -0.1401532143354416 0.05142176151275635 -0.12465457618236542 -0.17958160871201626 0.06926006078720093
0.0093822181224823 0.06807601997751168 0.1335325390100479 0.13670386373996735 0.06177431344985962 0.12968774579763234 -0.16987651586532593 -0.14697394014130585
-0.14149868488311768 -0.08378171920776367 -0.09001743110403504 0.057126760482788086 -0.08153992891311646 -0.14154160858591286 -0.1565902829170227 0.05625617602863533
-0.0908443613481664 0.11059330025753294 -0.03771685063838959 -0.13393898647187477 -0.08636367749128435 0.07751522958278656 -0.0011012405157089233 -0.06866951019667246
0.10737116634845734 0.09755220821333106 -0.06348210411698169 -0.14924931526184082 0.16851992905139923 -0.10994450002908707 -0.12815133628319889 -0.051528722047805786
-0.12688003480434418 -0.147914733763004 0.13653792440891266 -0.05890904472680575 -0.028348653798063898 0.30495446545800964 -0.16287270690057307 0.02176635746393511
0.17190157255836383 0.12445375153322306 -0.12583166197354562 -0.031227752566337585 -0.0078764408826828 -0.0906988348947128 0.0641200840473175 0.23566669472653487
-0.326096500983623 0.2221699793054725 0.13302023708820343 0.031243467378456565 0.055006940270077465 -0.14791221916675568 -0.1648079752922058 -0.2527856423572137
0.005360916256904602 0.16631622729499004 -0.13593563612722914 -0.02585582435131073 0.0094241201877594 -0.17479972541332245 0.31173826716394426 -0.009396612644195557
0.03911826014518738 -0.3734128240773997 -0.17062203586101532 0.17015717923641205 -0.019304763006194214 -0.12393665119889495 -0.14202937060502646 0.27053433912684355
-0.10391699522733688 -0.04758189383467933 -0.12902220512076826 -0.17564888298511505 -0.06469395756721497 0.19098606618802028 -0.010104641318321228 0.08398666076312529
00000000: 819f d920 f583 b3bf 6b64 c037 6010 d93f
00000010: 0000 0020 3729 c63f cc79 c98d 8344 bf3f
00000020: 17ff 5422 1a13 c43f 0000 00c0 bb1c b43f
00000030: 0000 0020 92ce c43f 320a c9d1 319b a4bf
00000040: 0000 00e0 478c c0bf d332 083a 3cad cabf
00000050: a07d 0f40 81f5 abbf 0000 00e0 7a6d c53f
00000060: 0000 00c0 a493 c1bf 0000 0040 e7e0 b03f
00000070: c61b 8e43 888b e13f 0000 0000 f8e2 7f3f
00000080: 0000 0080 c398 a83f bce4 463b f25a bbbf
00000090: 0000 0060 9702 c53f d609 09c7 77fa be3f
000000a0: ebd0 c0ac 6829 b2bf 4dd2 0262 3bb3 e1bf
000000b0: bc30 bbbd 977f b53f a793 243a c285 b73f
000000c0: 685f c2df c86a bd3f d8bc 37a7 c1e0 da3f
000000d0: 44a1 a38b 7e93 a23f 0000 0060 69a8 b4bf
000000e0: 0000 00c0 af52 b2bf af8a ae09 987b aa3f
000000f0: 0000 0040 9e2b b83f 2ed0 de95 e9ed b73f
00000100: 71ac 9793 e2d9 c03f a2c3 a09c bb30 b6bf
00000110: 0000 0000 e172 983f 0000 0000 bd64 a83f
00000120: 3329 2e8f be89 b03f 0000 0000 53ac c4bf
00000130: 0000 00e0 dbce b8bf 0424 6d98 f4d7 bdbf
00000140: 0000 00a0 2fc6 c0bf 2669 d9a2 9746 b5bf
00000150: c1ed d97c f99a c53f 0000 0040 c833 bfbf
00000160: 0000 0080 1192 a83f 0000 0020 0e1a c33f
00000170: f390 eacb 0786 cabf 0000 0080 8daa ad3f
00000180: 0000 0000 a01b 6e3f f0e3 fec3 adb9 9d3f
00000190: 0000 0000 036f 97bf 6048 0fa9 6601 c23f
000001a0: 7ea6 4324 c475 ac3f c499 1d81 b882 e13f
000001b0: c2f6 79ad de9e c33f 3064 daac 0c47 d5bf
000001c0: 7b34 cbf3 031b c2bf ec89 0f69 dd75 dbbf
000001d0: 19b6 95cf f522 aa3f 0000 0000 e600 903f
000001e0: 0000 00a0 97fa babf 0cdf a515 ec9b debf
000001f0: 0000 0040 5582 b93f 3703 4dd0 c7ec c03f
00000200: 2042 188e 6040 aa3f c4ac 7c56 8630 c1bf
00000210: 0000 0020 bf2f c43f 0000 0000 d2be 9c3f
00000220: 0000 00a0 db41 b0bf 0000 0060 66c8 babf
00000230: 0000 00c0 a406 bb3f 2dd7 570f 14f9 c4bf
00000240: 0000 0040 c253 b73f ed01 a903 e051 c13f
00000250: b164 4724 134e b2bf 0000 0000 7dda ae3f
00000260: 0000 00c0 ca40 b43f 0000 0040 0220 bc3f
00000270: a9ca 81d9 47a1 bdbf 0000 0020 b803 c13f
00000280: 0000 0040 15e8 b13f 20db 5bf9 1278 833f
00000290: 0000 00e0 eb4c c43f 083f efdf 0a84 923f
000002a0: 0000 00c0 2547 c0bf 1609 e67c dec7 a93f
000002b0: dcd1 b2bc 5593 c23f 0000 0000 2254 913f
000002c0: 1f09 cc65 3d07 a13f 590b 2ef4 013d c5bf
000002d0: 0df4 2fb3 b184 b93f 0000 0040 97bf be3f
000002e0: 0000 0060 ab49 c1bf 4cb8 b2c9 f462 c3bf
000002f0: 0000 00c0 f007 ba3f 9229 98cb 1c93 b8bf
00000300: 4056 9ff7 9ce0 893f 8cc4 1320 60c1 d53f
00000310: 0000 00c0 4747 b2bf 83d9 5a2e 56e4 acbf
00000320: 6bbe f9c1 404c b03f 0000 0000 88cc c1bf
00000330: 0000 0000 1e65 a83f dffc 5a03 3303 b03f
00000340: 0000 0040 9cf1 bf3f eed5 075f d98e 8ebf
00000350: ab64 2df7 b471 aebf 0000 00e0 4f8d c53f
00000360: 0000 0020 470b c53f 0000 00c0 1da8 b43f
00000370: c7e4 cffc 4cea d03f 0000 0000 1461 86bf
00000380: 0000 00c0 311c c1bf 9d0d a078 04de c03f
00000390: 0000 0020 fc7b c63f 9524 f025 fc27 b2bf
000003a0: b2ff 0faf 49d4 a83f 74d7 d193 48d7 e0bf
000003b0: a880 b99d b2b7 c5bf 7952 285a 8a99 c83f
000003c0: 37f0 e12e 3079 afbf 9e85 5f98 0207 db3f
000003d0: 9150 2bf0 ec46 bebf 0000 0080 9fba a1bf
000003e0: 0000 00c0 5568 c3bf 8bad 355c 52e3 89bf
000003f0: 0000 0000 06a3 98bf 4d2b e549 c4fe c03f
00000400: 13e7 92db 7efc b6bf ee8f 75d2 13dc ddbf
00000410: 0000 0060 ddfa c23f cb3f c276 99fb 8ebf
00000420: 3cf1 aa74 f795 b83f 0000 0040 a9d5 b1bf
00000430: 0000 0000 6c82 74bf 8337 0e42 44ed 8ebf
00000440: 0000 00e0 c91a b0bf 89b8 7ec5 ecea b73f
00000450: 22bc 60f8 ffa6 98bf 0000 00c0 6770 b63f
00000460: 0000 0000 1cf1 b3bf 0000 0080 a99d c0bf
00000470: 41e9 595b 6dc1 debf 0000 0040 cc6e aebf
00000480: 0000 00a0 e90b c13f b97d 0f4f a7b9 c83f
00000490: 0000 0060 171e c03f b13e 8364 cb5e b2bf
000004a0: ad2b aa0c 9542 a33f 2a85 b8bc 7e32 e93f
000004b0: 832a ac6d 911e d03f 5896 6bbf 653c 98bf
000004c0: 7b46 0f74 f0af a83f 3a71 0bd3 1558 d9bf
000004d0: f181 902d 3ed7 97bf 0000 0020 d76d c6bf
000004e0: 0000 0080 5340 a33f 2dfc d81a e379 b13f
000004f0: 0000 0000 da39 8d3f 3f24 4e89 ff1c c83f
00000500: 4c98 4115 4669 b6bf 42bc 5189 f9e9 c6bf
00000510: 0000 00a0 db18 c63f 0000 00e0 ef12 c4bf
00000520: 0000 00a0 c4bb b8bf 0000 0020 b19a b4bf
00000530: 0000 0080 65c1 a73f 2636 5cd5 2f38 c0bf
00000540: 0000 0060 aeaf c1bf ec2e d6af af56 b93f
00000550: 0000 0000 59a0 ac3f 0000 0060 8af0 c1bf
00000560: 0000 0000 f453 aa3f 0000 00c0 5ce9 bfbf
00000570: 75ca 30b8 87fc c6bf 0000 0000 07bb b13f
00000580: 0000 0000 fc36 833f 41fc 7117 6e6d b13f
00000590: 0000 0020 9817 c13f 0000 0020 837f c13f
000005a0: 0000 0000 e2a0 af3f 0547 72a9 9b99 c03f
000005b0: 0000 0080 83be c5bf b5b5 22c5 0ad0 c2bf
000005c0: 0000 0000 a11c c2bf 0000 0000 b872 b5bf
000005d0: 5869 a9e2 610b b7bf 0000 0000 b83f ad3f
000005e0: 0000 0000 cddf b4bf 4e2a f311 091e c2bf
000005f0: 0000 0080 260b c4bf 6365 7b08 9ccd ac3f
00000600: 8e31 0479 9341 b7bf ac47 c3af d74f bc3f
00000610: 0000 0080 9f4f a3bf e92d 47a7 e924 c1bf
00000620: de29 6312 ee1b b6bf 0000 00c0 09d8 b33f
00000630: 0000 0000 f00a 52bf 89ec 8634 5394 b1bf
00000640: 0000 0040 ad7c bb3f 6dc8 ed77 2ef9 b83f
00000650: dc4e 10f9 5c40 b0bf 0000 0000 9a1a c3bf
00000660: 0000 00a0 0f92 c53f 0000 00a0 5225 bcbf
00000670: 6d34 2353 4367 c0bf 0000 0000 f961 aabf
00000680: 0000 00e0 9a3d c0bf 38e8 0db8 deee c2bf
00000690: 0000 0020 137a c13f 4899 1489 5329 aebf
000006a0: f111 cbf3 6d07 9dbf f452 fabb 5f84 d33f
000006b0: 2744 c64a 03d9 c4bf cbb3 d785 eb49 963f
000006c0: 4d73 22e8 de00 c63f bb1f b378 33dc bf3f
000006d0: 7225 7d7c 401b c0bf 0000 0000 2bfa 9fbf
000006e0: 0000 0000 8621 80bf eb78 a8f1 0938 b7bf
000006f0: 0000 0080 2c6a b03f 57ae 4d85 532a ce3f
00000700: ed23 c4db c3de d4bf 668f a2dd 1070 cc3f
00000710: 0000 00a0 ce06 c13f cf9c 6a9a 49fe 9f3f
00000720: 00a9 06a3 de29 ac3f 0000 00a0 c9ee c2bf
00000730: 0000 0080 6d18 c5bf 3ca5 b4d4 a32d d0bf
00000740: 0000 0000 54f5 753f bf56 83a2 d949 c53f
00000750: 0482 c3c3 5666 c1bf 0000 0000 f379 9abf
00000760: 0000 0000 f44c 833f 0000 0060 d65f c6bf
00000770: de5f 980f 85f3 d33f 0000 0000 883e 83bf
00000780: 0000 0000 4f07 a43f 9771 d4e6 fee5 d7bf
00000790: 0000 0060 f1d6 c5bf 0000 00e0 b5c7 c53f
000007a0: 0015 13b7 a0c4 93bf a7cd acf7 4fba bfbf
000007b0: 7af7 e8b6 042e c2bf 40aa bf42 6f50 d13f
000007c0: 0000 00e0 4d9a babf 8baa cd6b a75c a8bf
000007d0: ddca b9b3 cc83 c0bf 0000 00a0 a97b c6bf
000007e0: 0000 0080 c88f b0bf 6876 223e 3b72 c83f
000007f0: 0000 0000 beb1 84bf 7522 4759 2680 b53f

hidd_layers.2.bias f8 [32]
-0.08362153808983146 0.09598482369512729 -0.09842248093064129 -0.180649068904333 0.3421416644854254 0.13301833725293366 0.26695544803493726 -0.08550162508144699
-0.01556037291848932 0.05717213136424021 0.09819397501225716 -0.0037691135036445346 -0.07834177770497887 -0.22451642421754256 0.2649029777071904 0.15876997218540773
-0.13047783926260884 -0.16947295107986277 0.18750107095769247 -0.038837973559623686 -0.2211977365082149 -0.17985189379422972 0.14424391102233822 0.22407626858152316
-0.02401607956655827 0.0952057114519194 0.011196032981711294 0.039084069608026885 -0.003473901799898069 0.1032033970929237 -0.05670122802257538 0.15028997943549724
00000000: 8b48 569b 3868 b5bf 60d2 ae1e 7692 b83f
00000010: 3ecd c938 3732 b9bf 699c 7f39 821f c7bf
00000020: 0c17 e426 a6e5 d53f d883 22b0 be06 c13f
00000030: 2d24 b34d cc15 d13f 88cb 7a3b 6fe3 b5bf
00000040: 3b47 63e6 1dde 8fbf 2870 e764 aa45 ad3f
00000050: d285 5787 3d23 b93f 4345 7567 67e0 6ebf
00000060: 5144 27ed 340e b4bf 47f0 b645 f4bc ccbf
00000070: b662 779e 2bf4 d03f 92c3 0f0f 9352 c43f
00000080: c529 3e72 7fb3 c0bf 42e9 3827 4ab1 c5bf
00000090: c637 ddfb 0800 c83f 4d20 9024 92e2 a3bf
000000a0: ce41 201a 3550 ccbf 1825 fc08 6305 c7bf
000000b0: 4b79 3ea0 9576 c23f 7705 affa 87ae cc3f
000000c0: 0119 44d1 ab97 98bf 7312 14c9 665f b83f
000000d0: 62d7 021c f2ed 863f 0daa 85c1 d302 a43f
000000e0: 47ad d7d3 4c75 6cbf 48a7 59af 896b ba3f
000000f0: 0000 0080 f107 adbf c7c5 4bb9 b33c c33f

out_layer.weight f8 [1, 32]
0.6429304871923947 -0.16334885301940813 0.0375028917602466 0.46869789820241525 -0.649379321730459 -0.1439671765131186 0.2815720761524639 -0.3994438876586668
-0.35317816249028006 -0.22872845334241798 0.6109552952022426 0.19271818567701016 -0.3557892503319842 0.35275517839167114 -0.18502486392205503 0.5866996735992519
0.04830538330662742 0.16348537675751315 0.31697636820145564 -0.11484066459049196 -0.13372364580013116 -0.08190102174964024 -0.27709542619718835 0.1942356161380305
-0.05974904506421714 -0.27827306676351904 -0.6581139414818414 -0.3710277589427073 0.17438077395515253 -0.3521272231295222 0.068976491689682 0.6241212797040145
00000000: 40f7 02f5 e292 e43f 235b c77e 9de8 c4bf
00000010: 543b 3b3b 9433 a33f 90ee 1e78 25ff dd3f
00000020: d1fd b024 b7c7 e4bf 7b20 6935 846d c2bf
00000030: 75aa a2e2 4605 d23f 4830 8518 7d90 d9bf
00000040: f7a7 6394 789a d6bf bc9a 6255 f946 cdbf
00000050: e6c5 861e f28c e33f 28e2 6950 fdaa c83f
00000060: 416e 9c46 40c5 d6bf bcf5 ab74 8a93 d63f
00000070: 5efc be0d e5ae c7bf 5dd8 d564 3ec6 e23f
00000080: 87a0 0bb3 7bbb a83f eb1c 46bd 16ed c43f
00000090: 43ed c13f 5749 d43f fbc4 aaa2 3266 bdbf
000000a0: f7eb b43e db1d c1bf eb76 ec21 77f7 b4bf
000000b0: b9d6 5874 eebb d1bf 0700 8471 b6dc c83f
000000c0: e93c 0945 6d97 aebf 16d8 46d6 39cf d1bf
000000d0: eb98 f6f7 440f e5bf 5b4b a436 ebbe d7bf
000000e0: 5d22 98f4 1b52 c63f 8fd8 d79e 4089 d6bf
000000f0: 0000 0080 71a8 b13f 0a20 a230 cdf8 e33f

out_layer.bias f8 [1]
0.006681547923429536
00000000: 5fa7 155d 1c5e 7b3f
