homework1/result/model_save/adam-64-0.001-Relu-5-32-0/model.pt (torch, 29063 bytes, 10 tensors)

proj_layer.weight f8 [32, 1]
00000000: 0000 0080 0820 e7bf 6ffc 2a32 ade3 dabf
00000010: f150 8dfa 2cbe e03f 5b52 73e5 147c d0bf
00000020: 0000 0000 b114 cdbf 0000 0080 015b e9bf
00000030: 0000 00c0 9146 e1bf 0000 0000 8460 d1bf
00000040: b46c e9e9 53b2 e1bf 0000 0000 b0d0 c5bf
00000050: b035 a82a 2e84 d13f 8364 bdff f1dd cabf
00000060: 38ba 4cdc b3c9 efbf 0000 0040 ab4e e5bf
00000070: 1d2d 7515 031c c53f 0000 0080 7403 dfbf
00000080: 0000 00c0 1a2f e6bf 14cd f1b1 6432 e53f
00000090: 2179 607e 5553 dd3f 0000 0080 aaba e4bf
000000a0: 36d6 d7b3 a9e0 eb3f dcd4 29bd ca50 e03f
000000b0: 7385 1347 e833 e03f 0000 0000 d7f2 d6bf
000000c0: 0000 0000 c44a b4bf 2bb4 ead4 14fd eb3f
000000d0: 6fa4 5310 e4b3 ed3f 0000 0000 e837 e1bf
000000e0: f01b 2a77 735a c3bf f0cd ff35 c736 ec3f
000000f0: 7b0c 9a02 6c33 d43f b81d 1c4b d412 e53f
-0.7226603031158447 -0.4201462736054457 0.5232148068994588 -0.2575733414389895 -0.2271939516067505 -0.7923591136932373 -0.5398644208908081 -0.2715158462524414
-0.5530185288038383 -0.17043113708496094 0.2736926476071302 -0.20989823329253818 -0.9933718970040166 -0.6658531427383423 0.164917359807398 -0.48458588123321533
-0.6932500600814819 0.6624015307883462 0.45821130124558535 -0.6477863788604736 0.8711746704636372 0.5098622984502543 0.5063363445480448 -0.35857176780700684
-0.07926583290100098 0.8746437223941305 0.9282093352204707 -0.5380744934082031 -0.1511978465898376 0.8816867880508976 0.3156385445983642 0.6585484950054967

proj_layer.bias f8 [32]
00000000: 0000 0000 3336 efbf be3c 9fa4 18d2 bf3f
00000010: 5b56 c862 5a9a ebbf a027 2137 ea32 f03f
00000020: 0000 0080 8af8 d6bf 0000 0000 ebe6 debf
00000030: 0000 0000 da22 b3bf 0000 0000 1481 a3bf
00000040: f08d 81f7 6ccb e83f 0000 0000 04cf bfbf
00000050: dd6f 2970 4a4a c1bf 386f 1f96 c9fa d53f
00000060: 79ff 13ba 448a c13f 0000 0000 c146 c2bf
00000070: 6526 72a0 d403 f5bf 0000 0000 3481 dbbf
00000080: 0000 0000 60a0 7ebf 2160 f38b e4cf dabf
00000090: 8b4c a808 1fb2 ee3f 0000 0000 58ac 95bf
000000a0: 6bf2 82ac 855d 99bf 3fa0 9b86 022d f3bf
000000b0: 77f0 6a88 2187 dfbf 0000 0000 c0b7 e9bf
000000c0: 0000 0000 0fbc d1bf 714e df3b 91a0 c23f
000000d0: 4429 817d 0101 dd3f 0000 0080 f571 d9bf
000000e0: b786 aa4c 4273 f23f 622e 7455 3ef0 bcbf
000000f0: 95e8 7450 b393 f03f 5cb0 f892 a0b4 f13f
-0.9753661155700684 0.12429956454365063 -0.8625919274661088 1.012430396413471 -0.35891973972320557 -0.48284411430358887 -0.07475054264068604 -0.038094162940979004
0.7748322328665704 -0.1242525577545166 -0.13507967449811434 0.34343185100964346 0.13703211866231493 -0.1427842378616333 -1.3134351985376267 -0.4297609329223633
-0.007477164268493652 -0.41893876711901795 0.9592433137026019 -0.02116525173187256 -0.024770821241633472 -1.1984887369271886 -0.49262274095577346 -0.803680419921875
-0.2771031856536865 0.1455251257271928 0.4531863904600366 -0.39758050441741943 1.1531393999834287 -0.11304082475924696 1.0360596793021035 1.1065984479019084

hidd_layers.0.weight f8 [32, 32]
00000000: 0000 00e0 1873 b6bf 0000 00c0 2b19 bc3f
00000010: d849 ad71 691a ca3f a491 c6c3 c1b5 c53f
00000020: 0000 0000 e4b4 7d3f 0000 0080 e549 b4bf
00000030: 0000 0080 cd67 a93f 0000 0000 20b7 a53f
00000040: 2c08 3d8e 92e4 6d3f 0000 0040 91a6 b13f
00000050: f0b7 67d3 6eb6 b33f e768 940c 2b65 c5bf
00000060: 0000 0000 00fe 43bf 0000 00c0 cebc b6bf
00000070: edcd 8b86 bc05 cd3f 0000 00c0 db5a b63f
00000080: 0000 0000 f6c7 8abf 3aac d9f0 8c25 c0bf
00000090: d957 3607 ef31 9b3f 0000 00c0 7374 be3f
000000a0: fb9d 6133 0d1a c63f 9e64 36ce a4c7 be3f
000000b0: 2b65 0981 ac53 c83f 0000 0040 eb5c b7bf
000000c0: 0000 00a0 91cb b2bf 8f3f 049d 0867 b23f
000000d0: 978b 1055 da22 bc3f 0000 00c0 f619 bebf
000000e0: a93b 0f1a 08ee dcbf 9ab4 1399 c26a c53f
000000f0: 8241 369f 7f78 a73f 8bcb 25de ca27 c9bf
00000100: 0000 0000 26b8 a2bf 769f 0a85 9b1b bdbf
00000110: edc4 6f3f 4111 a4bf aae9 ce4e bd38 cebf
00000120: 0000 0000 2da3 94bf 0000 00c0 d3a1 c2bf
00000130: 0000 0040 eb7a be3f 0000 0040 1ca8 bd3f
00000140: e3b6 841d 5433 b33f 0000 0080 a60d a53f
00000150: 7944 853d cd3c c23f 6dd6 2fca 47e1 993f
00000160: b9df fa55 e55f bcbf 0000 0000 1a9d 9bbf
00000170: 81b5 72ad 7a64 c53f 0000 0060 b76c c0bf
00000180: 0000 00c0 9307 b43f 84f7 cee0 8768 babf
00000190: f271 140d 3478 823f 0000 00c0 d9cb c4bf
000001a0: 3839 ed1a 4ef5 c03f d90c 1d60 38b1 73bf
000001b0: f591 21d0 8bba b13f 0000 0040 69eb bf3f
000001c0: 0000 0000 c374 c1bf dd51 a3b2 900e abbf
000001d0: 06f4 961c 1928 c03f 0000 0020 e331 babf
000001e0: 4344 a326 2a50 883f 77ef 5ade 7bd9 a53f
000001f0: a175 6e0d 9628 99bf be07 d053 d249 be3f
00000200: 0000 0000 4de9 a13f 0000 0020 cf3a c43f
00000210: 0000 0000 3285 af3f 0000 0000 a4f7 933f
00000220: 0000 0000 acce a43f 0000 0080 8766 abbf
00000230: 0000 00e0 f3a6 c13f 0000 0000 4e76 a4bf
00000240: 0000 0000 b065 6d3f 0000 00a0 ce68 c5bf
00000250: 0000 0080 9e3a bebf 0000 0000 84fc 993f
00000260: 0000 0000 e90f b6bf 0000 0000 f63a ad3f
00000270: 0000 00c0 0d2f b7bf 0000 0080 de19 a13f
00000280: 0000 0080 6f63 aa3f 0000 00c0 1da2 bb3f
00000290: 0000 0000 5f0f a3bf 0000 00a0 819f c03f
000002a0: 0000 00e0 b553 c1bf 0000 0060 db9c bcbf
000002b0: 0000 0020 34c5 c23f 0000 0000 04a2 8abf
000002c0: 0000 0060 258c c5bf 0000 0040 1782 b3bf
000002d0: 0000 00a0 45bc bcbf 0000 00e0 499c c03f
000002e0: 0000 0020 780e c6bf 0000 0040 0554 b33f
000002f0: 0000 0000 f450 813f 0000 0000 b21f a43f
00000300: 0000 0060 3438 c4bf eb03 985b 6518 c83f
00000310: 0c5f 6d0b c796 b3bf 6427 7261 34fe ce3f
00000320: 0000 00a0 bae0 c13f 0000 0040 8762 b13f
00000330: 0000 0040 10ec bbbf 0000 0000 47fa 933f
00000340: a936 848b 127e d4bf 0000 0000 9cdc 7b3f
00000350: 0ce9 2040 861a b43f e2c7 7d3c c5db d0bf
00000360: 3634 fa05 9903 c63f 0000 0000 25e2 a5bf
00000370: 44e7 aa8d 4964 eebf 0000 0080 ca90 a23f
00000380: 0000 0080 b8da a9bf 36a8 289a 34b6 b5bf
00000390: ff76 b991 a21d a53f 0000 0040 827f b73f
000003a0: 54c5 9606 b1d2 953f 7593 9e7b 332e d3bf
000003b0: 9a1c cf1d 3993 c0bf 0000 00c0 ada7 b93f
000003c0: 0000 0040 9e69 aebf d7fc 56df 4581 bb3f
000003d0: 8aa4 3300 b2bc bf3f 0000 0040 32dc b73f
000003e0: 5c27 4b86 38cd de3f 95f9 3a7b c680 c1bf
000003f0: 0137 ea8d 23b9 cf3f b447 ac20 0347 943f
00000400: 0000 0000 12ac 8e3f 0000 00c0 000b b73f
00000410: 9397 2241 6f75 c33f 0000 0060 b90a c23f
00000420: 0000 00a0 d9ef c33f 0000 00e0 a70e c23f
00000430: 0000 0000 1e41 a1bf 0000 00a0 3f05 bbbf
00000440: 0000 0080 b8a5 b2bf 0000 0040 fb39 b03f
00000450: 4633 eee9 bcf1 c3bf 0000 00a0 9125 b8bf
00000460: 0000 0080 391f c1bf 0000 0060 8eca c23f
00000470: d96f 01f3 db36 babf 0000 0040 97ae be3f
00000480: 0000 0080 cc1f c1bf b685 7f7f 931d b03f
00000490: 287a adf5 96d0 8ebf 0000 0060 ebf8 c23f
000004a0: 1da5 d84d 4683 b73f 0358 6826 317e 6d3f
000004b0: c1a8 988b 4552 833f 0000 00a0 41e3 c53f
000004c0: 0000 00c0 fc8a b63f e66c eb96 7c6b c5bf
000004d0: 6947 4a12 ca8e 88bf 0000 00c0 2b7a c5bf
000004e0: 8f2d 54b3 4998 bcbf d377 3084 7c46 76bf
000004f0: 0b9e bf92 49c9 a63f bba2 f217 77d3 7abf
00000500: 0000 00a0 35ba c4bf 0000 0000 8a48 94bf
00000510: 0000 0040 1aff b03f 0000 0000 16d7 843f
00000520: 0000 0080 e2ba ab3f 0000 0020 8832 c4bf
00000530: 0000 0040 9e91 b23f 0000 00c0 abb6 b53f
00000540: 0000 0020 cf6f bbbf 0000 0000 0cee 7bbf
00000550: 0000 0000 5e25 98bf 0000 0040 a610 b33f
00000560: 0000 0080 50e7 a03f 0000 0080 4c8c c1bf
00000570: 0000 0000 0e3f a5bf 0000 0060 9205 c1bf
00000580: 0000 00a0 8b7e c43f 0000 0000 30d6 7dbf
00000590: 0000 0000 be36 97bf 0000 00e0 ce7e b3bf
000005a0: 0000 00e0 2482 c4bf 0000 0000 cd66 ad3f
000005b0: 0000 0000 3887 a0bf 0000 0040 d843 bc3f
000005c0: 0000 00e0 a48f b6bf 0000 00a0 a072 c63f
000005d0: 0000 0040 79d5 b23f 0000 0020 eabb c5bf
000005e0: 0000 00a0 baf6 c4bf 0000 0020 e8ce bbbf
000005f0: 0000 0000 93e0 96bf 0000 0000 3a27 89bf
00000600: 0000 0040 bbf5 b73f 38d4 9984 bc5c b6bf
00000610: d5c6 7fb7 4161 c5bf e166 f065 f42e e0bf
00000620: 0000 0020 94b4 c03f 0000 0020 cab3 c53f
00000630: 0000 0000 6636 86bf 0000 0060 25b0 c3bf
00000640: a402 838a 70b9 cbbf 0000 00e0 35dd c33f
00000650: 1f93 6ca5 804b bebf cef8 c224 c639 ddbf
00000660: e9cb 5dd0 871a c03f 0000 0060 7d25 c63f
00000670: 7e53 4dea 249a e2bf 0000 0000 31f2 aabf
00000680: 0000 00c0 4eda bd3f 7470 2f8f f409 c1bf
00000690: 56dc d363 71ba c13f 0000 00a0 c400 bbbf
000006a0: 7aff 20f0 8618 b53f eff6 c66d 15d2 adbf
000006b0: 1b58 bdd4 ff09 9ebf 0000 00a0 7b2b c03f
000006c0: 0000 00c0 e2ec b83f db63 727d 5019 c4bf
000006d0: 1c9a 6914 e8f1 b43f 0000 00c0 9ca4 b5bf
000006e0: 5216 4e5b 52a2 cd3f e89b f649 031c be3f
000006f0: 393d 5325 39d2 ce3f 8981 c385 7852 adbf
00000700: 0000 0040 7709 bc3f ae7c d97a 72c3 cc3f
00000710: 99f4 17ce e525 bcbf 0b20 6ed2 c095 9c3f
00000720: 0000 0040 60d8 be3f 0000 00a0 7906 bcbf
00000730: 0000 0000 2aeb bebf 0000 0060 c13c c43f
00000740: 2325 8b3b 663c ccbf 0000 0000 ae19 a7bf
00000750: 9e9f a817 b461 bd3f 0760 1ee0 d342 c1bf
00000760: fa2f 6aa6 f13f c83f 0000 00e0 e9c1 b6bf
00000770: 60c7 85d7 72d7 91bf 0000 0000 d35b 98bf
00000780: 0000 0000 00dc 703f 528b 7df9 cfa3 9f3f
00000790: 422f d4fa e93e b7bf 0000 0000 38eb 7f3f
000007a0: 22ec cecd 663a c3bf fe2e 7519 c453 c9bf
000007b0: 5b77 8937 4c17 b63f 0000 0000 cd80 9bbf
000007c0: 0000 0020 013f c63f eced 5480 c7e4 acbf
000007d0: add3 3d15 8ff5 97bf 0000 0060 d57a b9bf
000007e0: fae9 1073 a69a c33f 08f7 e282 27cb bf3f
000007f0: 8351 dd38 080e a8bf 88f8 92db 368a a4bf
-0.08769374340772629 0.10975907742977142 0.20393102694158816 0.16960928019865407 0.007252588868141174 -0.07925257086753845 0.04962007701396942 0.042412757873535156
0.003649030915682713 0.06894786655902863 0.07700245534189754 -0.16714990724796694 -0.0006101131439208984 -0.08881847560405731 0.22673756188997576 0.08732388913631439
-0.01307670772075653 -0.1261459518458155 0.026557669463350784 0.11896441876888275 0.1726700306783043 0.12023382219776343 0.19005352306957354 -0.09126158058643341
-0.07341871410608292 0.07188466866887054 0.10990681244633858 -0.11758367717266083 -0.45202829880593726 0.16732056116544386 0.04584120577340213 -0.1965268692689189
-0.03656119108200073 -0.11370250700076476 -0.03919414424297849 -0.2361065516286776 -0.020153716206550598 -0.14556357264518738 0.11906309425830841 0.1158464103937149
0.07500196190514034 0.0411197692155838 0.14248052123960855 0.025273439136034904 -0.11083825444336427 -0.026966482400894165 0.16712888211388235 -0.12831775844097137
0.07824061810970306 -0.10315751303184412 0.009018332146802675 -0.16247102618217468 0.13248611750391048 -0.004807682243895794 0.06925271827055453 0.12468583881855011
-0.1363757848739624 -0.05284549885405785 0.12622369667033712 -0.10232371836900711 0.011871651939516897 0.04267489518448902 -0.02456888634661925 0.11831392809111116
0.0349830687046051 0.1580447107553482 0.061563074588775635 0.019499361515045166 0.040639281272888184 -0.05351661145687103 0.1379074901342392 -0.03996509313583374
0.0035885274410247803 -0.16726095974445343 -0.1180819571018219 0.025377333164215088 -0.08618026971817017 0.05709046125411987 -0.09056173264980316 0.03340049088001251
0.05153988301753998 0.10794244706630707 -0.03722664713859558 0.12986774742603302 -0.13536714017391205 -0.1117684468626976 0.14664317667484283 -0.013004332780838013
-0.16833941638469696 -0.07620377838611603 -0.11224780231714249 0.12976954877376556 -0.1723165661096573 0.07550080120563507 0.00845518708229065 0.03930431604385376
-0.15796522796154022 0.188244504664936 -0.07651943234429498 0.2421327091035962 0.13967068493366241 0.06790967285633087 -0.1090707927942276 0.019509419798851013
-0.32019485115675167 0.006802186369895935 0.07852973046911788 -0.26341372401577534 0.17198479453910104 -0.042740970849990845 -0.9497421042390006 0.03626091778278351
-0.05049683153629303 -0.08481148494379984 0.04124172238219436 0.0917893797159195 0.02131153681483984 -0.299694891664607 -0.12949289279479076 0.10021482408046722
-0.0593995526432991 0.10744129850990035 0.12397301201748881 0.09320367872714996 0.4812756835423124 -0.13674241082294417 0.24783749036253513 0.019802140111160063
0.014976635575294495 0.09001164138317108 0.15202131920267145 0.14095227420330048 0.1557571440935135 0.14107225835323334 -0.03369992971420288 -0.10554883629083633
-0.07284119725227356 0.06338472664356232 -0.1558147566069243 -0.09432325512170792 -0.13376539945602417 0.1468065232038498 -0.10239958460573408 0.11985154449939728
-0.13378292322158813 0.06295129645106709 -0.015046290752875072 0.14822141826152802 0.0918468418173188 0.0036002120934979245 0.009434264490739587 0.17099781334400177
0.08805827796459198 -0.16734273308870867 -0.01199109905545344 -0.16779085993766785 -0.11169872882981323 -0.005438314811753347 0.04450445095409002 -0.006549325188793527
-0.16193266212940216 -0.01980796456336975 0.06639255583286285 0.01017586886882782 0.05416019260883331 -0.1577921062707901 0.0725344568490982 0.08481858670711517
-0.1071748211979866 -0.006818816065788269 -0.023580044507980347 0.07447279989719391 0.03301478922367096 -0.13709408044815063 -0.04149669408798218 -0.132982537150383
0.16011185944080353 -0.007284343242645264 -0.02266976237297058 -0.07615368813276291 -0.16022168099880219 0.05742493271827698 -0.03228163719177246 0.11041022837162018
-0.08812933415174484 0.1753731518983841 0.07356984913349152 -0.16979719698429108 -0.16377957165241241 -0.10862589627504349 -0.022341057658195496 -0.012281849980354309
0.09359331429004669 -0.08735254514051938 -0.16703053913038582 -0.5057317725179155 0.1305108219385147 0.16954924166202545 -0.010845944285392761 -0.15381304919719696
-0.2165966678931187 0.15518830716609955 -0.11833957709002306 -0.4566512450218284 0.125809647313502 0.17301909625530243 -0.581316430684282 -0.0526290237903595
0.11661235988140106 -0.133116311945631 0.13850228666680903 -0.10548046976327896 0.08240550386926584 -0.05824343648008134 -0.029335019454571048 0.12632699310779572
0.09736458957195282 -0.15702253461202428 0.08181620119430771 -0.08454303443431854 0.23151616533521008 0.1176149421286109 0.24079050371663316 -0.05726982720239266
0.10951943695545197 0.22471457479966744 -0.10995327264386602 0.0279150131641757 0.12048913538455963 -0.1094738021492958 -0.12077581882476807 0.15810410678386688
-0.22059324176215353 -0.04511779546737671 0.11477208688358906 -0.13485191767972557 0.1894514143535842 -0.08889638632535934 -0.01742343368955035 -0.023787781596183777
0.004116058349609375 0.03089833221691702 -0.09080374120474935 0.007792681455612183 -0.15021977471573772 -0.1978688358598148 0.08629299503215064 -0.02685852348804474
0.17379774153232574 -0.05643294755506276 -0.023397670432547524 -0.09953054040670395 0.1531570493551298 0.12419363923524085 -0.04698205656191858 -0.04011699133251151

hidd_layers.0.bias f8 [32]
00000000: d09f eb24 b891 dbbf 5d86 dd1e e6c2 bf3f
00000010: 0000 0000 6efb 8e3f 8083 1be9 7682 d63f
00000020: 8cfa 5354 e827 b8bf 0000 00c0 30a0 c6bf
00000030: 1c8c e2bb 7c1a e03f 4c3f 0a4b 2b8b cc3f
00000040: 5304 6240 335c dfbf 0852 9c14 d60d d3bf
00000050: 5369 a2dc 7845 d33f 0000 0040 8cd2 bdbf
00000060: 0dae 1d5c 7d39 ad3f b5cd 1a3b 4a4b da3f
00000070: e965 c919 f30f cf3f 0000 00a0 8990 c53f
00000080: 0000 0020 82d5 c13f 6481 24f4 2fc1 97bf
00000090: 5b47 fa54 b675 913f 5d20 0e63 b767 d03f
000000a0: 1764 6541 0b03 b2bf f57a 6bad ab96 df3f
000000b0: 0000 0080 83e9 c2bf 1052 71d4 b5b9 c43f
000000c0: 0000 0080 1a8e a7bf 356b 4bb5 bc39 c53f
000000d0: 0bb1 d0f4 c12a b6bf 5a46 f1ef faee d13f
000000e0: 0000 0060 08b6 c43f cfc6 f1f8 e082 c73f
000000f0: b9b3 f9e6 8da3 b73f c6e1 2c89 d25e b2bf
-0.43076900105961347 0.12406767133281833 0.015128001570701599 0.351712920803088 -0.09435894068517764 -0.1767636239528656 0.5032333058956087 0.22299710430206188
-0.49000245368376233 -0.29771949780231965 0.3011152414925579 -0.11649395525455475 0.05707923650228617 0.41084533473914614 0.242674243537109 0.16847343742847443
0.1393282562494278 -0.023197888637811373 0.017050599037765717 0.2563303439460521 -0.07035894724448642 0.49357120452434283 -0.14775127172470093 0.1619174277608555
-0.046006038784980774 0.1658244977214395 -0.08658992983754758 0.28021119529612337 0.16180519759655 0.1836816039608977 0.09233939065025155 -0.07175937508589589

hidd_layers.2.weight f8 [32, 32]
00000000: 2849 0289 2721 c23f bde3 d257 6ee2 9dbf
00000010: 0000 00c0 9370 b83f 4745 68b8 6d88 c6bf
00000020: f6e4 1095 651d b23f 0000 00e0 af1a c4bf
00000030: 1b5e 57d8 a891 d93f 35c9 c65e 5079 9c3f
00000040: a420 0878 a0e6 283f 103c da46 679d c7bf
00000050: 1dd7 30cb b9ab d6bf 0000 0040 223e b33f
00000060: 51a9 6d10 d253 d0bf c28b b73b 1454 b3bf
00000070: 595b 5dc9 dbc1 aebf 0000 0000 c3ab 9b3f
00000080: 0000 00c0 3e59 c3bf 17dc c933 0bd1 c5bf
00000090: 0000 0080 2c9c ac3f 3c31 8c9b 8b1a ba3f
000000a0: 0000 00e0 9e62 c13f d281 f8d6 7e48 d6bf
000000b0: 0000 0040 b156 bf3f 39a4 1350 9c83 aa3f
000000c0: 0000 0000 8201 ae3f f2b3 c1e4 220c c23f
000000d0: c633 e6e7 651d b7bf 32e8 c9fc 3d1a ac3f
000000e0: 0000 0040 e72d b63f c36f 7819 7409 acbf
000000f0: 49ca 8b48 9a79 a63f 7c25 9c59 5206 b3bf
00000100: fd05 9404 9c2f b13f d1b5 7d68 1760 a2bf
00000110: 0000 0080 a7c3 a83f 71c0 5ddb 9ccc a63f
00000120: 0000 00c0 499d bebf 0000 0000 a871 99bf
00000130: 93c9 dbc3 46bf c3bf b9dc db52 2b5b c33f
00000140: fa16 a570 543d c23f 306c 4adf 5549 a53f
00000150: d7c5 2f82 0305 a6bf 0000 0060 0aad bdbf
00000160: a3bc 6f07 6630 d23f 1d0f c038 1a87 c73f
00000170: 2dd1 3edc e839 c83f 0000 0060 5a36 c23f
00000180: 0000 0000 006f b8bf 4ed3 a097 3842 b2bf
00000190: 965b e307 1754 bebf c555 54bf 9b13 cdbf
000001a0: 6e70 fd1c 1eaf c23f b1ae 7cc8 e361 b53f
000001b0: 0000 0000 f7df c3bf 6d83 702f 962d aebf
000001c0: 0000 00c0 660c b53f 6392 7f3c 2bcc aa3f
000001d0: 2f3a a42e b077 c43f 8783 cbe2 8b33 cabf
000001e0: 0000 0000 eeb5 abbf 2ce8 7225 6be3 bfbf
000001f0: 030e 47b2 602d a2bf a6b7 77b9 f060 95bf
00000200: 0eea a77c b78b b63f 64b4 8b4c c0d5 c4bf
00000210: 0000 00c0 11ff c3bf 2b5f 1897 9551 d23f
00000220: 29a1 0d23 ee66 c2bf 0000 0040 37d0 ba3f
00000230: 1c4f 05d9 405c c53f b2fd 0147 73c3 c53f
00000240: 20da c27f 4e15 c3bf 1f1f 72ef fe11 b8bf
00000250: feff 46a3 3685 85bf 0000 0000 578d a1bf
00000260: bf76 c610 8f5c cb3f 534f ed7c a1bb ccbf
00000270: ede3 a27a aa9b b5bf 0000 0040 25bb c1bf
00000280: 0000 0060 6605 c03f a004 86e3 d674 a5bf
00000290: 2cd1 2278 1edb a4bf 74fa 7c73 4e48 c13f
000002a0: 6136 0ed4 962e c1bf 06da ba89 b3d0 d73f
000002b0: 0000 00c0 b54b adbf 8711 e42f 8892 c23f
000002c0: 0000 0080 94b6 b5bf 2f04 5c79 ef5b b4bf
000002d0: dca6 2d77 7b37 d5bf 333c 2da0 f016 c4bf
000002e0: 0000 0080 19c6 abbf 4e00 e4ac 2f87 c23f
000002f0: 46c3 69b3 036d bebf 10f6 1071 20b6 b13f
00000300: 5ca2 7b2a 24d4 b3bf 7f1a 5208 fd2d b63f
00000310: 0000 0000 64c4 733f 43f3 6ed3 a1b0 d6bf
00000320: 3bab 4f70 7461 c5bf 0000 0080 0a28 af3f
00000330: 8fca f2e9 85dd d23f 0e2b 874d e361 c7bf
00000340: ab60 1078 2797 c6bf bc1f f0cf 6447 b13f
00000350: b2fa 5ff2 fd80 c0bf 0000 0080 e90a c5bf
00000360: acf3 3500 d62a d2bf a487 7c8f 1026 ca3f
00000370: e28f c57e 9067 8a3f 0000 0000 d04f 59bf
00000380: 0000 00e0 4254 b8bf 0473 e198 17b7 c23f
00000390: 0000 00c0 74fd b8bf 19f9 07d5 dc8c 87bf
000003a0: 0000 0000 541a a13f 40e8 1820 6b65 d5bf
000003b0: 0000 0080 e750 c4bf da12 39af d4f5 90bf
000003c0: 0000 0000 7b0a 99bf b092 c06f 30fd c0bf
000003d0: 215e 00d4 a911 d4bf 93a3 2d6a 2ed6 c23f
000003e0: 0000 00a0 ee27 c33f 7302 ef40 5d81 bd3f
000003f0: 31b6 4741 0258 80bf 1380 3300 7999 a0bf
00000400: c1b0 497e e617 c63f 5ac5 a4cd bcd7 b5bf
00000410: 0000 0000 5276 80bf b69f beaf 8042 e7bf
00000420: b3d6 f09c a6e6 acbf 0000 0000 623a 9c3f
00000430: 1b50 7139 d597 95bf c377 ab8b 61ed b63f
00000440: 7d48 5310 4961 ba3f 05c5 638d ff48 75bf
00000450: 0000 0000 b01d 6d3f 0000 0000 39da 98bf
00000460: 5b6b fa17 142c ae3f 56a9 c74b 0390 d1bf
00000470: 0000 00e0 01ed c2bf 0000 0000 4858 6fbf
00000480: 0000 0000 6462 aa3f d4e1 a59c 6a60 a73f
00000490: 0000 0000 4453 a13f 1d1f 55fd eecc aa3f
000004a0: 0000 0020 2bda c43f b0e0 a77e 44f1 e3bf
000004b0: 0000 00c0 e63b abbf 0614 4210 4f3d 85bf
000004c0: 0000 0000 3d2d b13f 84b5 6a2b d4b6 b3bf
000004d0: 7cb3 6de5 fcff ca3f 958a e6ed c480 bdbf
000004e0: 0000 00e0 a562 c6bf a946 165b cd19 c03f
000004f0: 9e11 bf7c 4622 c0bf cad8 37d8 de29 9bbf
00000500: ad6b a6d6 12ca c63f ad0a e4a1 0f51 a63f
00000510: 0000 00c0 7d48 b63f c04e 126a 448a c0bf
00000520: 9603 6f3b a792 bcbf 0000 0080 812b aebf
00000530: 21d0 1c9b 680e d23f d852 a465 f621 c5bf
00000540: db3b 98fa a384 aabf 234f 203d 0930 a53f
00000550: fb3b 1bb3 8b25 b7bf 0000 0020 7e33 bdbf
00000560: 0115 333c ac8c cbbf a2c2 54c1 e7c8 bb3f
00000570: b80d 3c79 60fa d1bf 0000 0000 12b7 9b3f
00000580: 0000 0000 1d24 c1bf 4f1b 1d87 0cef 9e3f
00000590: 0000 0040 0db9 b83f b339 39bd 8e48 c53f
000005a0: 0000 0040 7daf bb3f e8af 8b06 c12f cbbf
000005b0: 0000 00c0 d28b bdbf 1d33 6653 9850 993f
000005c0: 0000 0060 a162 c13f 815d e8f9 e813 c33f
000005d0: 80ab 2927 56f0 c5bf 27dd f423 3f8a babf
000005e0: 0000 0000 aa2f b7bf 0049 0833 7311 c83f
000005f0: cced 8a8a deba 9d3f ea71 6d67 c830 b4bf
00000600: 75a2 cae3 0afa b7bf 4d26 3ad1 9432 bfbf
00000610: 0000 0080 b99b a6bf bd59 f96f c9b3 703f
00000620: d9fd 217e 9cfc c23f 0000 0000 16d0 c1bf
00000630: 2551 8aeb 45ba a0bf a0d2 e7e3 e043 71bf
00000640: 10e8 0b93 97ed d6bf 6172 8d61 848a d1bf
00000650: 7eef aa97 0d03 85bf 0000 00c0 efdc c1bf
00000660: 5cbe 40b0 ef34 c33f f9b5 0208 060f c03f
00000670: a340 a3a1 2f7a be3f 0000 0060 a0ce c2bf
00000680: 0000 0040 f742 b13f 67b7 a329 d1b0 c23f
00000690: a4d3 dda8 a317 c2bf 22a0 14c0 be99 82bf
000006a0: eedb ec75 1825 b1bf e0f9 1c7a 3212 c53f
000006b0: 0000 0040 16eb c4bf cfc3 4354 ef79 b83f
000006c0: 0000 0040 68c6 c1bf d875 3231 672c 733f
000006d0: d51e 5a0f 8510 b7bf 5ca1 98e5 89eb 953f
000006e0: 0000 00c0 a6fa b43f 1b09 614c 1496 a1bf
000006f0: 271d 0fa4 531a 9f3f 9e05 7105 b580 d6bf
00000700: b469 7d43 ceca c6bf 386b f9ed 209c 773f
00000710: 0000 0000 0609 bcbf e5f6 9f09 afd4 d93f
00000720: 31c7 02e2 745c ad3f 0000 00c0 b50f c2bf
00000730: 5a9c edc6 207c c33f 7f9c 8e09 3124 94bf
00000740: 1523 7820 29e6 d3bf fcc4 9347 ee9d c7bf
00000750: 3ec3 490c 8afd 63bf 0000 0020 90a7 c03f
00000760: f657 dd76 0bad 8bbf aaf8 d3ec 5f92 da3f
00000770: 12fa 1e45 672a cabf 0000 0000 11f2 bdbf
00000780: 0000 0040 dda5 c4bf 0f52 6b51 d2ab a53f
00000790: 1efa 4e64 ca40 943f 747c 6592 77b6 5f3f
000007a0: 6db7 4f9a b5d4 c43f f1e5 4bb0 d0ac d33f
000007b0: 0000 0040 374b c0bf 80f4 a874 a625 c33f
000007c0: 0000 00c0 a38d b93f f659 39d5 fb9e d43f
000007d0: 8839 6be4 5da7 ad3f 3dcb 46bb 6449 c03f
000007e0: 0000 00a0 1013 c5bf 05a3 b6d5 3214 9f3f
000007f0: 040f e1a7 9f4e b2bf 1b5d c0e1 edfa b3bf
0.14163679304017163 -0.029184078321779817 0.09546779096126556 -0.17603847030890504 0.07076105965906607 -0.15706442296504974 0.39951535346105665 0.027806525978754954
0.00018997868393478168 -0.1844910713157053 -0.35423130839204636 0.07516683638095856 -0.25511600117046834 -0.07550169427808753 -0.06007277329506761 0.027022406458854675
-0.1511610448360443 -0.1704420092462164 0.05587901175022125 0.10196754977750272 0.13582216203212738 -0.34817477219806137 0.12241657078266144 0.051785359168043894
0.05860525369644165 0.14099537057646178 -0.09029232894518122 0.05488771162795593 0.08663792908191681 -0.05475962458532948 0.04389650474140134 -0.07431521117918821
0.06713271247647153 -0.03588936949277478 0.04836772382259369 0.04452982118425631 -0.11958752572536469 -0.02484762668609619 -0.15427479327588553 0.15121976419297825
0.14249663830030795 0.041575129992644455 -0.04300700153533981 -0.11592163890600204 0.2842040131208227 0.18381049891478876 0.18926726106804762 0.14228372275829315
-0.0954437255859375 -0.07132295324192947 -0.11847061102467502 -0.22716090051896579 0.14596916595008075 0.08352492947295322 -0.15527236461639404 -0.05894154862494969
0.08222047984600067 0.05233893502716993 0.15990259435098284 -0.2046980721852629 -0.05412238836288452 -0.12456388153341952 -0.035502454531094706 -0.020877610511824372
0.08806940835339835 -0.16277316796859786 -0.15622159838676453 0.2862295127429088 -0.14376618110260012 0.10473962128162384 0.16687784764018765 0.17002716986824634
-0.14908772695862726 -0.09402459474415224 -0.010507990701512423 -0.03428146243095398 0.21376217192749 -0.22447603797865642 -0.08440652364778574 -0.13852372765541077
0.12516479194164276 -0.04190703894983838 -0.040734245457686974 0.13501911772796726 -0.13423428873322776 0.37211311769661426 -0.057218246161937714 0.14509680117056353
-0.08481720089912415 -0.07952782357098508 -0.33151137007244613 -0.15695007153633042 -0.054245755076408386 0.14475055639195705 -0.11885092859462273 0.06918528328329665
-0.07745576893979361 0.08663922742025852 0.004825964570045471 -0.3545307698039332 -0.1670365856546939 0.06085236370563507 0.2947706970836998 -0.18267480168864164
-0.17648785936831266 0.06749563290224975 -0.12893652281487317 -0.1643955111503601 -0.2838644983347034 0.20428664213346537 0.012892845982328486 -0.0015449076890945435
-0.09503572434186935 0.1462125298011402 -0.09761743247509003 -0.01149914288634739 0.033403992652893066 -0.3343150914621482 -0.158719003200531 -0.016562770075568924
-0.024454042315483093 -0.13272672135021457 -0.31357808783784163 0.14716129478918258 0.14965613186359406 0.11525519213956574 -0.007980363480750348 -0.03242090346770978
0.17260438124083602 -0.08532314320179549 -0.008038178086280823 -0.7268680031311223 -0.05644722619801481 0.027566462755203247 -0.02108700907804471 0.08955964717776425
0.10304695747916699 -0.005196569682298651 0.0035541951656341553 -0.0242699533700943 0.058930042197252695 -0.2744148483312946 -0.1478578895330429 -0.0038262754678726196
0.05153191089630127 0.045657474157397765 0.03383839130401611 0.05234476892888849 0.16290797293186188 -0.6232016061540175 -0.05319138616323471 -0.01037084358564223
0.0670965313911438 -0.07700849590283637 0.21093712999882175 -0.11524611290091465 -0.17488549649715424 0.1257874197731799 -0.12604600039607033 -0.026526910731228516
0.17804179650269472 0.04358719683843524 0.0870436280965805 -0.12921958140633727 -0.11161275101677712 -0.05892567336559296 0.2821294321795467 -0.1650989528940474
-0.05179321702973257 0.04138211127442861 -0.09041665194239094 -0.1140669658780098 -0.21523049296789767 0.10853432149884637 -0.28090679015459896 0.027065545320510864
-0.13391458988189697 0.030208774325071016 0.09657366573810577 0.16627678145819189 0.10814650356769562 -0.21239483661281544 -0.11541478335857391 0.024721508112224833
0.13582246005535126 0.14904510691188125 -0.17139698898548872 -0.10367197635502078 -0.09057104587554932 0.1880325316602196 0.029033162313437264 -0.078869366885051
-0.09365909634892396 -0.12186555965504305 -0.04415683448314667 0.004077708115423237 0.14833408507182247 -0.13916277885437012 -0.032671151163557156 -0.004215124585688429
-0.3582514701844284 -0.2740794136678116 -0.010259729567557715 -0.1395549476146698 0.1500529871568571 0.12545848265783358 0.11905191131814034 -0.1469307392835617
0.06742806732654572 0.14602102788142732 -0.1413464140456685 -0.009082308041414026 -0.06697228316339451 0.16461783373411176 -0.1634242832660675 0.09561057860606968
-0.13886740803718567 0.0046810179657348 -0.09009582161717884 0.021406321180763896 0.0819496363401413 -0.03434813911782638 0.030373865974778227 -0.3516056588306017
-0.17806413932232845 0.0057641302406306535 -0.10951268672943115 0.40360618534019316 0.057346012677398035 -0.14110442996025085 0.15222558701791195 -0.019669309814756005
-0.31092289133862155 -0.18450716490728059 -0.002440232872963937 0.1301136165857315 -0.013513650479278976 0.4151840031407895 -0.2044190490250491 -0.11697489023208618
-0.1613117754459381 0.042326519430989966 0.019778406498284544 0.0019355933851199743 0.16274137530075042 0.30742280212834233 -0.12729540467262268 0.14958649345672725
0.09981749951839447 0.3222035963312061 0.057917532094154345 0.12723979133951416 -0.16464431583881378 0.030350488943130766 -0.07151220177280143 -0.07804762612828535

hidd_layers.2.bias f8 [32]
00000000: 49ca 7064 3dff cd3f 4531 d327 ac14 963f
00000010: fda6 ad96 f7f2 cb3f 0755 35bd 189d bb3f
00000020: 835c 472e 1d64 c6bf 1da9 93b4 7218 b9bf
00000030: 0d7f 0c6a c259 d03f 89ad 1f40 babf c13f
00000040: 0000 0000 c424 9cbf f387 e619 ce10 acbf
00000050: 43a9 8487 e6dc c0bf 0000 00e0 c909 c0bf
00000060: 3367 86a4 46ba 94bf 5015 842a 57ad adbf
00000070: 14e9 ac9f 3e18 c43f 844a a0c1 4a5b c1bf
00000080: 3783 de44 b350 d23f e25e d350 2c4a d83f
00000090: 3c92 3988 c94c ca3f 1c7a 5f7c 598a d13f
000000a0: 761b ca99 ab91 c6bf c1f0 5293 6450 bd3f
000000b0: 78a1 f09a 66fe c1bf c877 cd0b 0976 8d3f
000000c0: 41ec d950 f702 c8bf ec16 6858 b67e d63f
000000d0: 5643 3eee 1a60 cbbf 928a f00c a8b4 b7bf
000000e0: 2056 6941 6ce5 a33f 1de3 06ba ee2d c33f
000000f0: 9d78 89cb d841 cf3f d606 437b 5252 c23f
0.23435180095983046 0.021563234263156223 0.21835226876583383 0.10786585444778406 -0.17493023643212177 -0.09802929791081678 0.25547848087624986 0.13866356020967555
-0.027483999729156494 -0.054815712606128296 -0.13174134842967974 -0.12529872357845306 -0.02024183634930594 -0.057963108005462005 0.15698988720561913 -0.13559851126099798
0.2861755535650902 0.37952716725474833 0.20546836043935623 0.27406918664738256 -0.17632050523044612 0.11450794789101605 -0.1405761963408272 0.014385290787398378
-0.1875905175000714 0.3514839042039586 -0.2138703978821705 -0.09260034862431102 0.0388597326133715 0.1498392494520652 0.24419698656396785 0.14313727396625237

hidd_layers.4.weight f8 [32, 32]
00000000: 0000 00e0 a7f0 c4bf 0000 0000 ac6d 933f
00000010: 0000 0000 209d 5f3f 0000 0000 9020 613f
00000020: 0000 00a0 e5f6 c43f 0000 00a0 db48 b8bf
00000030: 0000 0000 a088 90bf 0000 0000 f75f adbf
00000040: 0000 0040 68da bd3f 0000 00e0 6f8b c23f
00000050: 0000 0080 5db8 a13f 0000 0060 5100 b5bf
00000060: 0000 0080 e7fa bfbf 0000 0040 7db3 aebf
00000070: 0000 00a0 d89e c53f 0000 0000 1cb8 823f
00000080: 0000 0000 14c7 78bf 0000 00c0 3e85 ba3f
00000090: 0000 0020 7417 b6bf 0000 0000 bffe 91bf
000000a0: 0000 00e0 ea0e c23f 0000 00c0 c773 b73f
000000b0: 0000 0020 567f c53f 0000 0000 c26a 963f
000000c0: 0000 00a0 70cb c5bf 0000 0000 0b14 92bf
000000d0: 0000 00a0 f796 c4bf 0000 0000 8044 b23f
000000e0: 0000 0000 f48b a0bf 0000 0000 5ba1 9ebf
000000f0: 0000 00a0 e0cd c5bf 0000 0000 62e6 a6bf
00000100: 5e4e b508 87a6 d0bf 09fa 58ba dad0 bc3f
00000110: 537c bcad 505d 77bf da56 0bb2 6e47 a63f
00000120: 0000 0040 93d6 b73f e78d c89a 4af7 a63f
00000130: 68dd 4760 03a6 c93f 0b9f c83d 9bc5 ccbf
00000140: 0000 0000 2a7f 9e3f 72b9 9e28 9959 c43f
00000150: f561 58b3 225c 98bf 0000 0000 baef 863f
00000160: 0000 00c0 eedf be3f 5feb e20b 8f16 dbbf
00000170: bc56 ef6f 339b b5bf 0000 0000 fda7 95bf
00000180: 3d46 aa61 006d c83f 28ab fca7 95e7 c1bf
00000190: 3100 1d4a 6010 cb3f ca42 beb7 67ba c6bf
000001a0: 5d71 589d e9a6 b33f c9c0 3ed9 5334 b6bf
000001b0: e158 c99c 1e27 b2bf 0000 00c0 d160 b13f
000001c0: 0000 0040 88b4 b83f bf5a ba51 4b0c 98bf
000001d0: a07b b28b b7fa d5bf e464 7673 68a7 d7bf
000001e0: 2325 2e42 3b2e c3bf 9b6f 81f5 8e73 9ebf
000001f0: c59d 3a66 e76e be3f 3c06 942d 182d bf3f
00000200: bba7 e6b3 bd7a c2bf 0000 0020 f29e c4bf
00000210: 8c5f b00d 3ca8 c1bf e22b ec33 a541 98bf
00000220: 96aa 7a8d 8777 c0bf cbc8 106c 052c b5bf
00000230: 0000 0040 3cb0 b53f 0000 0040 bfc3 bfbf
00000240: 0000 0040 1f09 bf3f 0000 00c0 5991 b13f
00000250: f9a1 132a 4682 a5bf 0000 0000 7603 9b3f
00000260: bd45 490a 6db1 a83f 58ae a445 0eda 923f
00000270: 0000 0060 6ea3 c1bf 0000 0060 ad5c c5bf
00000280: 0000 0000 c50d 9d3f e403 6606 b4c0 b6bf
00000290: 0000 0000 6b47 a63f 5682 9e36 a28a 99bf
000002a0: 0000 00a0 3500 c23f 090b e396 3c6b b73f
000002b0: 0000 0020 317f c3bf 0000 0000 b616 92bf
000002c0: 0000 0000 cc13 79bf 743c 5c69 64dc bebf
000002d0: 81f4 d999 a152 993f 74f7 e2f9 4ffc ac3f
000002e0: 0000 0000 e042 70bf 7ecc 3e62 00b7 c0bf
000002f0: 0000 0020 6cf6 b4bf 4410 8f1e dfc4 be3f
00000300: 0000 00c0 f969 b7bf 0000 0080 9e7c ae3f
00000310: 0000 0020 5df1 c43f 0000 0000 c472 a9bf
00000320: 0000 0040 03af bf3f 0000 0060 5844 b6bf
00000330: 0000 0080 7876 a43f 0000 00e0 70e5 b0bf
00000340: 0000 0080 eab4 aabf 0000 00a0 be89 b9bf
00000350: 0000 00c0 d21d b43f 0000 0060 bb07 c33f
00000360: 0000 0040 6a11 bfbf 0000 0000 6eab 8b3f
00000370: 0000 0020 826a c3bf 0000 0040 fe10 b33f
00000380: 0000 0060 ce2f c6bf 0000 0000 e8dd c0bf
00000390: 0000 0080 a6d5 c3bf 0000 0020 7eef c43f
000003a0: 0000 0040 daa6 b73f 0000 00c0 8c75 c5bf
000003b0: 0000 00e0 5add c33f 0000 0060 f923 c2bf
000003c0: 0000 00c0 dacb b63f 0000 0000 e4e1 8fbf
000003d0: 0000 0080 576f c4bf 0000 00c0 cff4 c4bf
000003e0: 0000 0000 9f58 a6bf 0000 00a0 364d c43f
000003f0: 0000 0020 d69b c33f 0000 0080 fd9e a0bf
00000400: 0743 5bc0 34ee 80bf b0df 1639 ef29 ccbf
00000410: f5f0 a2a5 44b6 c43f 3f2e 28cb e7b9 adbf
00000420: 0000 0000 fa2f 93bf 94d1 a52e 2c68 6bbf
00000430: 1c1b 5536 c772 c93f 6b11 3cb1 ef7d b33f
00000440: 0000 0040 fb02 bf3f 4ba8 c114 96d3 b23f
00000450: 8932 423e 0374 b0bf 0000 0000 98df b03f
00000460: 9059 0109 f252 d5bf 921b 5695 666f babf
00000470: 77d1 6c2f 97c3 b53f 0000 00c0 6a2c bcbf
00000480: c39b 1714 1f3c c43f ffe4 afbf c7e5 afbf
00000490: d905 e533 2614 bd3f 99e9 936e 31bf b1bf
000004a0: a257 28e7 d4ec 9cbf 9406 809d 2f8b c2bf
000004b0: 15c7 8674 70c3 b5bf 0000 00e0 15fb c43f
000004c0: 0000 0080 a910 c1bf c8a1 b933 caca c33f
000004d0: b4c5 dca2 4784 cdbf 5933 03c0 761c a8bf
000004e0: d52d 9dc5 83ad b53f 9341 2e05 972b ad3f
000004f0: 0336 bc31 fc83 ae3f 045c 6008 8092 b23f
00000500: 0000 0060 f999 c6bf 0000 0000 ce80 a63f
00000510: 0000 0000 3d46 9a3f 0000 00c0 e144 bdbf
00000520: 0000 0000 0035 2abf 0000 0080 b043 a9bf
00000530: 0000 00c0 3a6e ba3f 0000 0080 69b6 a5bf
00000540: 0000 0080 ba36 aa3f 0000 0020 207f b2bf
00000550: 0000 0040 cd4d b43f 0000 0040 570a b7bf
00000560: 0000 0080 63a3 a83f 0000 00e0 9514 b6bf
00000570: 0000 0000 aeb2 aebf 0000 0020 a3a6 b1bf
00000580: 0000 0000 d3b5 bdbf 0000 0000 e7bb a43f
00000590: 0000 0080 1e76 a23f 0000 0000 483d 6b3f
000005a0: 0000 00c0 3a37 bf3f 0000 0080 fff9 a63f
000005b0: 0000 0000 0810 8b3f 0000 0040 3bfe b93f
000005c0: 0000 0000 42d3 abbf 0000 0080 14c8 a2bf
000005d0: 0000 0020 0d94 c0bf 0000 00c0 5e2e bf3f
000005e0: 0000 0040 7aa0 bbbf 0000 0080 806a c0bf
000005f0: 0000 00a0 8de1 b9bf 0000 0080 cea0 a93f
00000600: 85ee 0970 7984 b8bf 77e9 17ab 5ed7 ca3f
00000610: 5343 ec4b 1999 bfbf 7af7 7896 1a0e b13f
00000620: c38f 1bf4 f9f5 c33f 572c b1a7 ebe9 c13f
00000630: 595e 5d57 cd3f a7bf fcce 2979 73d9 a03f
00000640: 0000 00c0 2687 ba3f 66d0 f18d 1c2c c13f
00000650: b32c 1761 4260 c03f 0000 0000 7bd8 9cbf
00000660: fc5b a9c3 2578 babf e3e5 1b3c ff04 c6bf
00000670: 7565 4aa0 e593 bc3f 0000 0000 281f a93f
00000680: faaa c415 2307 6e3f 4013 5563 d3bf a2bf
00000690: 2a63 d8f5 b0ac c03f aa30 ae8e 07a3 b63f
000006a0: d0b6 17e6 f85d 88bf f3fa 996c afb4 c1bf
000006b0: 7dd1 65d7 3193 b83f cb08 5a87 74ef b03f
000006c0: 9eea 3c81 59aa b43f 8c48 3b49 f786 b43f
000006d0: 2473 85bf e8d4 b93f a4aa 4e22 b6b6 c0bf
000006e0: 6c3b 9d53 423c c53f fa03 4867 eec7 a23f
000006f0: fd42 b46c 1250 91bf fa79 caf9 2f3d 8d3f
00000700: c1f6 6cb9 071d c7bf c138 e65c 9fde a0bf
00000710: 4214 b7fd 0d07 b03f a977 5290 acec ae3f
00000720: bf49 e245 d2e9 e1bf 073c 91ee 5ab8 af3f
00000730: cbef 5587 c962 d03f 67e4 de5f 6418 debf
00000740: 0000 00c0 2ce8 c2bf 49b6 5d83 2b35 bebf
00000750: 8c21 9a57 d28a 96bf 0000 00e0 bd9f c53f
00000760: 583f 1bf3 4da5 c13f e4e8 f21c f006 bebf
00000770: 83b8 1dfb fbd5 b23f 5c03 3e2b 8047 983f
00000780: b3d1 654b be6b ccbf d6d9 4e5c 0eb8 953f
00000790: 2778 e6e0 b616 c93f 6155 d20d 1707 91bf
000007a0: 0000 0000 a4ce 87bf 38c0 9ec3 7a80 91bf
000007b0: 3b85 9406 5df9 c43f 478b 1d2b 566a bbbf
000007c0: 0351 099d f290 b13f a347 1128 9231 cabf
000007d0: 114a f431 dab2 c53f 265c 0d1b f010 c03f
000007e0: 6151 fc4a beab 753f a8bc 6077 adfe b1bf
000007f0: 5e78 9a05 2ae9 b63f 8cbe 99e9 dd23 c53f
-0.16359423100948334 0.018973052501678467 0.001929551362991333 0.0020907223224639893 0.1637846976518631 -0.0948617234826088 -0.016146183013916016 -0.05737277865409851
0.11661387979984283 0.1448802798986435 0.03460972011089325 -0.0820361003279686 -0.1249222457408905 -0.05996314436197281 0.16891010105609894 0.009140223264694214
-0.006049230694770813 0.10359565913677216 -0.08629537373781204 -0.017573341727256775 0.14108024537563324 0.09161041676998138 0.16794849932193756 0.021891623735427856
-0.17027099430561066 -0.017654582858085632 -0.160857155919075 0.07135772705078125 -0.03231775760650635 -0.029912397265434265 -0.17034538090229034 -0.044726431369781494
-0.26016403055584714 0.11256186532498459 -0.005704226637845161 0.04351373599426518 0.09311790764331818 0.04485543384023654 0.20037882043082367 -0.22478046910077185
0.029781967401504517 0.15898432238959576 -0.02378896922718528 0.011199429631233215 0.12060444056987762 -0.4232518783643879 -0.08439942820344987 -0.02114863693714142
0.19082646149449714 -0.13987990095605451 0.2114372598534842 -0.17756363365017186 0.076765633501457 -0.08673595479808961 -0.07090941741748537 0.06788359582424164
0.09650470316410065 -0.023484398711469675 -0.3434275497656305 -0.3695927741587879 -0.14984837275941584 -0.029737695440743655 0.11887975927185497 0.12178183663129344
-0.14437075885990489 -0.16110064089298248 -0.13794661205679082 -0.02368791703615248 -0.12864775093233466 -0.08270295990294867 0.08472038805484772 -0.1240806132555008
0.12123294174671173 0.06862412393093109 -0.042009537350001076 0.02638038992881775 0.048228652482645164 0.018409941673935698 -0.13780002295970917 -0.16689078509807587
0.028372839093208313 -0.08887791782582571 0.04351362586021423 -0.024942907890024145 0.14063139259815216 0.09148005183946507 -0.15231908857822418 -0.01766476035118103
-0.006122395396232605 -0.12055041858933341 0.02472927571806283 0.05661249089597123 -0.003970026969909668 -0.1305847625459115 -0.08188510686159134 0.12019152160706975
-0.09146080911159515 0.05954451858997345 0.16361583769321442 -0.04970371723175049 0.12376423180103302 -0.08698036521673203 0.03996635973453522 -0.06600099056959152
-0.052161529660224915 -0.09975806623697281 0.07858006656169891 0.14867345988750458 -0.12135948240756989 0.013510569930076599 -0.1516878753900528 0.07447804510593414
-0.17333392798900604 -0.13177204132080078 -0.1549575924873352 0.1635587364435196 0.09238971769809723 -0.16764983534812927 0.15519271790981293 -0.14172284305095673
0.08904807269573212 -0.015567570924758911 -0.1596478819847107 -0.16372105479240417 -0.043644875288009644 0.1586063653230667 0.15319325029850006 -0.03246299922466278
-0.008266842003111131 -0.22002973830762818 0.16181238258094024 -0.05805897097533518 -0.018737703561782837 -0.0033455717977465913 0.19881525185538684 0.07614038540856931
0.12113924324512482 0.07354105002164706 -0.06427021284089042 0.06591176986694336 -0.3331875884954565 -0.10326234002978499 0.08501572521055843 -0.11005274951457977
0.15808475953164533 -0.062299959325125435 0.11358870284040935 -0.06932362508442792 -0.028247191056003047 -0.14487261953768338 -0.08501341671833658 0.16391251981258392
-0.13332098722457886 0.15462615514412748 -0.23059936001076908 -0.04709216207411399 0.08467887472686837 0.05697318971863576 0.059600716658774665 0.0725479145479398
-0.17657391726970673 0.043951451778411865 0.025658562779426575 -0.11433230340480804 -0.00019994378089904785 -0.04934455454349518 0.10324446856975555 -0.0424073189496994
0.051198795437812805 -0.07225228101015091 0.07931216061115265 -0.09000153839588165 0.048121556639671326 -0.08625160902738571 -0.05995696783065796 -0.06894893199205399
-0.11605566740036011 0.04049608111381531 0.036057427525520325 0.0033251196146011353 0.12193648517131805 0.044876083731651306 0.013214170932769775 0.10153551399707794
-0.05434614419937134 -0.03668273985385895 -0.12951816618442535 0.12180130183696747 -0.10791744291782379 -0.12825018167495728 -0.10109791904687881 0.05005498230457306
-0.09577139840433276 0.20969756464166853 -0.12342985251986009 0.06662145780225429 0.15594410342521145 0.1399511879738806 -0.045408646502150325 0.032909019985622096
0.10362474620342255 0.13415867739570614 0.12793760052440958 -0.028169557452201843 -0.1033958056153636 -0.17202749667175884 0.1116317287764071 0.04906582832336426
0.003665512586072392 -0.036619764209297134 0.13027011875308264 0.0884251330700773 -0.011897987863416587 -0.1383265762596789 0.0959960127709731 0.0661537962387541
0.08072432904456625 0.08018441713218943 0.10090498615086269 -0.13057591128502566 0.16590146143650075 0.03668160448797404 -0.016907012829565627 0.014276861963762311
-0.18057343057619415 -0.03294847497009946 0.06260764545648193 0.06039942991013387 -0.5597926487847004 0.06195339357565648 0.25602949348808285 -0.47023877489443183
-0.1477104127407074 -0.11799880940608277 -0.0220139375656188 0.16893742978572845 0.13785719271117602 -0.11729336458930423 0.07357764130367354 0.02371025337152176
-0.22203806573419413 0.021209930786165142 0.1960056875367979 -0.01662860891209073 -0.01162460446357727 -0.017091673078255293 0.16385996648117804 -0.10709131767866352
0.06861797651191996 -0.20463778454228274 0.16952063979313484 0.12551690407664856 0.005290740329446515 -0.07029232182024947 0.0894953025512861 0.16515706926610496

hidd_layers.4.bias f8 [32]
00000000: 0000 0000 1461 a6bf 7bb4 f252 2c6a b4bf
00000010: 3fcc b2bf 4d20 c5bf 0000 0000 53d3 b0bf
00000020: 37c7 f7d5 e843 b43f 0000 0080 b75f a83f
00000030: 420e ed38 1e11 c9bf 96f5 c8f7 149b bd3f
00000040: 0000 0080 6e2a bdbf baf3 d575 1d04 9f3f
00000050: e22c a9a5 085a a2bf 663a 45b2 06bc c9bf
00000060: 6826 1ab8 5987 adbf 1648 2b4f b6ed b83f
00000070: ced0 8bad 4a96 ca3f 3b88 814e 22c1 bdbf
00000080: 1bbc aa52 f2e2 c73f 454f cfcb 60e5 683f
00000090: b5b4 2603 e43a c93f e9c5 e38b 5041 cd3f
000000a0: dcc4 6631 672f b73f 6451 dbb3 b163 c03f
000000b0: 0000 0000 e9b7 95bf 5e76 4fe7 658c c43f
000000c0: ec66 c751 f5fe d4bf e796 094e 5da6 b23f
000000d0: 405b 3408 5a48 c33f 3f63 a399 c741 c43f
000000e0: 0f8d 19c1 2f63 c83f 7371 f2da 7e97 c83f
000000f0: c4f4 365f 0c36 c7bf a2ad 9d08 76ef d0bf
-0.043709397315979004 -0.07974507355784681 -0.16504833088183266 -0.06572455167770386 0.07916121696305543 0.04760526120662689 -0.1958349016150454 0.11564761208952343
-0.11392870545387268 0.030289135281680514 -0.03584315321185173 -0.20105060295687166 -0.057673267100722125 0.09737719948614684 0.20771153901990264 -0.11622824112558387
0.18661335979911162 0.003039063506074332 0.19710970071665704 0.22855574446252483 0.09056706386651875 0.1280424240309329 -0.02120937407016754 0.1605346087880432
-0.3280614184019288 0.07285102038585088 0.1506454982815857 0.15825743677012302 0.19052693299008935 0.19212327662252057 -0.1813369240680115 -0.2646155437602947

out_layer.weight f8 [1, 32]
00000000: 0000 00c0 f40e b33f e746 fb70 4cd7 d0bf
00000010: 0cb4 a7c6 b1d7 aa3f 0000 0080 9932 a13f
00000020: 91f9 ae1c 1d2b c73f 0000 0000 181a 64bf
00000030: c02e b5aa 6900 bfbf b1f7 b7df e73a cf3f
00000040: 0000 0080 5cb9 af3f 0966 34d7 c4bd abbf
00000050: cd96 3ba1 307c c33f 5d83 ec41 d6c2 cc3f
00000060: 312d 6daa 1aa1 a33f fbfa 2f26 9561 b1bf
00000070: 0e1d b937 db63 bfbf cd00 271b a510 ce3f
00000080: f453 0d5d 9372 ca3f f110 35ff 92d9 33bf
00000090: 8358 e271 867c d33f 0623 2e19 51d4 c7bf
000000a0: 1a3e 2329 3ffc b63f 8b43 1f8c d182 c43f
000000b0: 0000 0000 255f a6bf 7cb3 0b17 1996 c6bf
000000c0: 488a 6f15 81d7 e23f 12ce 11d7 4822 babf
000000d0: 845f 4e9d 385e d0bf 1b69 a35d 7126 b43f
000000e0: ad91 d4ad 83a6 c83f 1e73 85b6 ad63 e33f
000000f0: c62a e65e 8e09 bf3f f841 988e e3f2 e93f
0.07444696128368378 -0.26314078362803034 0.05242686796177773 0.03358916938304901 0.18100322628556545 -0.002453848719596863 -0.12110004823369547 0.24398516105423831
0.06196106970310211 -0.054182196874716544 0.15222747681325757 0.22469595164241243 0.03833850222016578 -0.0678952425223364 -0.12261743650843845 0.2348829634265769
0.20662157100255707 -0.0003028854254874111 0.3044754135274916 -0.18616689424040817 0.08978647951448018 0.16024226514721493 -0.043694645166397095 -0.17645562768248257
0.5888066691080178 -0.10208564043733073 -0.2557508026306936 0.07871159111110552 0.1925816153317447 0.6059177937382605 0.12123956505653685 0.8108995232633438

out_layer.bias f8 [1]
00000000: 9876 82ed 6a1c b63f
0.08637111948561438
