homework1/result/model_save/adam-16-0.001-Relu-3-32-0/model.pt (torch, 11223 bytes, 6 tensors)

proj_layer.weight f8 [32, 1]
-0.08478999137878418 -0.6684924364089966 -0.055575999614534785 0.025722893524389147 -0.14301223600568885 0.10026718929864838 -0.2736130952835083 -0.5303748437351751
-0.3521005478980411 0.16936474917186245 -0.41250026387602207 0.21889243173701314 -0.12559914588928223 -0.9485388994216919 -0.03654006961050374 -0.6092290878295898
0.01309591334382868 0.058920596755657584 -0.29250718062179437 -0.33711133330038084 0.25735090490347196 0.10728020840488217 -0.23060329344821479 0.5874729587610917
0.6416024465728595 0.5759084985658608 0.05206906795501709 0.3484373680441378 -0.36082854106343926 -0.5032945871353149 -0.7661912441253662 -0.9701011180877686
00000000: 0000 0000 ccb4 b5bf 0000 0040 4a64 e5bf
00000010: 36e9 9219 7574 acbf 7a70 c829 1a57 9a3f
00000020: 0e40 4996 394e c2bf fd47 e64a 1cab b93f
00000030: 0000 0080 e082 d1bf 87d6 0eaa d4f8 e0bf
00000040: 960c 88bc d088 d6bf 0aea 647d bead c53f
00000050: b116 bc81 6766 dabf 5181 d3cd aa04 cc3f
00000060: 0000 0000 a213 c0bf 0000 0040 6e5a eebf
00000070: 94fc f047 61b5 a2bf 0000 0000 ce7e e3bf
00000080: 9317 2fbc 07d2 8a3f 58b1 4028 d72a ae3f
00000090: ce68 a709 70b8 d2bf b9b5 e869 3b93 d5bf
000000a0: c102 0aee 6f78 d03f 8866 9b3a b776 bb3f
000000b0: 6ae0 daa1 6884 cdbf 4f39 2517 94cc e23f
000000c0: 710c a2da 0188 e43f d185 daa8 d76d e23f
000000d0: 0000 0000 cca8 aa3f 7d0c 1d3f cc4c d63f
000000e0: e32c d597 d017 d7bf 0000 0040 fd1a e0bf
000000f0: 0000 0080 a384 e8bf 0000 0080 110b efbf

proj_layer.bias f8 [32]
-0.33212530612945557 -0.15964734554290771 1.1922168943277036 1.922942331692264 2.0319952434235 0.031538055227857936 -0.1873856782913208 0.9228023985333709
1.3649831544867712 -0.08996809737771386 0.8880674017546348 -1.2289901450646206 -0.2218608856201172 -0.320215106010437 0.27004786625426985 -0.023831486701965332
1.2897631623187342 1.7039578705407756 0.07107769882867966 0.6496051136610484 -1.3138332963853319 -0.3596801487229831 0.5548793037931007 -1.350816073574624
-2.0749631017263943 -1.2139829178551753 -0.8445186614990234 -1.664651341552327 1.571148503855056 -0.39487242698669434 -0.3005373477935791 -0.09649360179901123
00000000: 0000 0080 8a41 d5bf 0000 0000 536f c4bf
00000010: d004 ae05 5213 f33f 6965 ab2d 5fc4 fe3f
00000020: 4b0d e1b8 8641 0040 64f1 9087 c125 a03f
00000030: 0000 0000 41fc c7bf c2e0 4be5 9887 ed3f
00000040: 1bc9 8193 f8d6 f53f 0aae eb33 2608 b7bf
00000050: 54c1 e553 0c6b ec3f 9d8a 0292 f1a9 f3bf
00000060: 0000 0000 f065 ccbf 0000 0080 677e d4bf
00000070: bdaa 7ad8 7648 d13f 0000 0000 4867 98bf
00000080: 7ce9 9bb2 dea2 f43f 3dc0 fb53 6943 fb3f
00000090: a1b1 f1e7 2532 b23f 55a2 cfa9 90c9 e43f
000000a0: 1bef 0510 7605 f5bf bd47 f2e2 ff04 d7bf
000000b0: 8198 e03d 92c1 e13f 51a0 ae50 f19c f5bf
000000c0: 9b92 3241 8699 00c0 3b73 215a 796c f3bf
000000d0: 0000 0000 4c06 ebbf 385b f371 69a2 fabf
000000e0: fe77 139d 6c23 f93f 0000 0000 9745 d9bf
000000f0: 0000 0000 013c d3bf 0000 0000 ceb3 b8bf

hidd_layers.0.weight f8 [32, 32]
-0.03369496762752533 0.15876270830631256 0.09189141815437962 -0.01196160469320111 -0.0034535943054685137 0.10361429526313419 0.08733110129833221 -0.03496215074546194
-0.18354364913919086 0.13659673288703833 -0.08771488627335124 -0.016403999180078656 -0.13056430220603943 -0.1495811641216278 -0.12687476011786736 -0.01820424199104309
0.022330243267393624 0.07596526734291774 0.16071077456566524 0.041311142401240654 -0.12772692064319346 -0.0820325541015919 0.040477523067284644 -0.06449534863019533
-0.08830544398225414 -0.1637903939392136 0.006366744637489319 0.10137485731733747 -0.0905346613753038 0.06345254182815552 -0.03509567677974701 -0.12346895784139633
0.10106004774570465 -0.04035264253616333 0.030613622460479585 -0.07226093451384501 3.4194352679376736e-05 0.03372899862371589 -0.07981759309768677 -0.1790259775626509
-0.21531764589697655 0.1104636514188281 -0.14693987401230585 0.04504970116772748 -0.1513565629720688 -0.0788540318608284 0.03920069496688722 0.08874310553073883
0.025532557181802515 -0.1990437414926347 -0.15026044044622003 -0.06971093419565143 0.0032866217863313034 0.007153455272547379 -0.27645780519959534 0.11617225379103797
0.0007555571419018556 -0.1803828251876559 -0.053747281432151794 -0.06564445021481428 -0.14002726773321303 0.13852687180042267 -0.17007720470428467 -0.12612102925777435
0.03921401500701904 0.1246912032365799 -0.2560358849166132 -0.4529597323133707 -2.3264290862493793 -0.008647652266114768 0.04724535346031189 0.18814766642274422
-0.06463318147348371 -0.05449654995857567 0.21578831921058272 0.20166990608567376 -0.04912713170051575 -0.16351273655891418 -0.010327410489203022 -0.009040728211402893
-0.3027249090774305 -0.43220489742074425 0.0027061276011798785 0.0812214264490743 0.3282314263051788 0.021760034247695525 0.2473270400859079 0.22176778870512967
0.2946111686022696 0.08856608697555943 0.1264158934354782 0.4058766286972213 0.03063470130862726 -0.04888126254081726 0.14433254301548004 0.044226810336112976
0.1508495956659317 0.13890106976032257 -0.08704673389182895 0.2794338696683684 0.5261974979668594 0.12742073081262636 -0.17410129308700562 0.02208714948380942
-0.9381771754403563 -0.05506610944078916 -0.2777323146433238 -0.3275710983017494 0.04423670470714569 0.09958116710186005 -0.1006635733187057 -0.12732496857643127
0.2259452292570074 0.19284520280376655 -0.1871854623925094 -0.1265181630278486 -0.6496151177507443 0.10694224890646507 -0.5969209979668951 0.09483398705168576
-0.3880759886429311 0.08411624917062839 -0.1297498643398285 -0.4292436976307147 -1.2004534192245897 -0.037271320819854736 -0.13089820742607117 0.07277271151542664
-0.13993100821971893 0.08797849714756012 -0.10791016531058166 0.12614958746251131 0.0733540598280263 0.09787316813948954 0.1447414606809616 -0.09800332416222211
-0.14921218078345946 -0.015435266913193479 0.09047842258497199 -0.15259228646755219 0.10055406391620636 -0.11127602308988571 -0.14219556213770682 -0.0576920360326767
-0.11887285561280203 -0.04178326541838671 -0.14215399652110583 0.0025040752302561632 -0.06516699492931366 -0.04879762626143387 0.12125322564172172 -0.014505341649055481
-0.14573714137077332 -0.14272062480449677 0.06520888209342957 -0.09560611844062805 -0.1607657199259435 -0.09463227540254593 0.022472381591796875 0.05991534888744354
-0.05608763545751572 0.10964711010456085 -0.1533707082271576 0.06868143379688263 -0.1299845427274704 -0.09134812653064728 -0.017372027039527893 -0.00862833857536316
-0.14967778325080872 0.15690474212169647 -0.08875491470098495 0.14854906499385834 -0.025845184922218323 0.11579383909702301 -0.1435505747795105 0.12880448997020721
0.07369883358478546 -0.16608722507953644 -0.09873636811971664 0.17129088938236237 0.16128195822238922 0.09661583602428436 -0.16088071465492249 -0.1479254513978958
-0.13179580867290497 -0.09959620237350464 0.16071082651615143 -0.014389455318450928 0.08583204448223114 -0.08583515137434006 -0.08571465313434601 0.0863838940858841
0.0848957747220993 -0.0037525445222854614 -0.082247179600173 0.19767336387409232 0.44083248823665055 -0.0844059470641809 -0.11427801847457886 0.03312476321091991
-0.621940775773133 0.026378437119768845 -0.21848619809480396 -0.31981402561682676 0.038975924253463745 0.09128417074680328 0.12796083506762668 0.11557699739933014
0.13260621285598756 -0.03513926760138182 0.01965517059188014 0.021113300317836793 -0.5247517549370241 0.06738613413222734 -0.21831940283145393 0.10986362739131544
-0.2065050770775834 -0.09199103758305867 -0.0043633729219436646 -0.3677760575701235 -0.7265830347646391 -0.04667265713214874 -0.0029608309268951416 -0.07600707560777664
-0.11212170124053955 0.14501921832561493 -0.02036657837274801 0.05253191638833055 -0.037392976814069626 -0.18256301670630082 0.09694705903530121 -0.02984977811459316
-0.46278451863934783 -0.16714516055343834 -0.07378940295972028 0.10683778121106324 -0.06691254675388336 -0.01539941132068634 -0.028993349951167192 -0.0022208690643310547
0.10435129521250996 -0.0389233386413817 -0.16026619614394247 -0.15213662000902875 0.10490805359570192 -0.007460582353604825 0.054646700988922915 -0.12712539593027664
0.13562093071007794 0.0006695959857972264 -0.07468326389789581 0.09521396510546985 -0.4045970858129748 0.062273502349853516 0.0905277281999588 -0.0023688822984695435
00000000: 0000 0080 7740 a1bf 0000 0020 5652 c43f
00000010: 2891 c12b 3286 b73f d946 b867 537f 88bf
00000020: bb79 0f53 b64a 6cbf bba1 8d69 7786 ba3f
00000030: 0000 00c0 545b b63f b062 191c 8fe6 a1bf
00000040: 487d 38b9 5b7e c7bf 68c1 3e72 007c c13f
00000050: 6199 ea97 7b74 b6bf 0a19 02c0 35cc 90bf
00000060: 0000 00c0 54b6 c0bf 0000 00c0 7925 c3bf
00000070: 6471 b2a0 6e3d c0bf 0000 0000 22a4 92bf
00000080: 9d43 2e42 bddd 963f 87a6 deb2 7572 b33f
00000090: 0eeb 6fb0 2b92 c43f 9dbf 25eb bb26 a53f
000000a0: 589b 7d11 5b59 c0bf 35dd 12e1 1500 b5bf
000000b0: f919 984b 78b9 a43f df5d 1c65 c482 b0bf
000000c0: 1f69 f681 2f9b b6bf a916 af68 15f7 c4bf
000000d0: 0000 0000 0414 7a3f a48b d0e0 b3f3 b93f
000000e0: c4e8 c291 472d b7bf 0000 0000 6d3e b03f
000000f0: 0000 0080 0ff8 a1bf 0000 0060 a99b bfbf
00000100: 0000 0040 12df b93f 0000 0000 1aa9 a4bf
00000110: 3a91 1e6d 2d59 9f3f c3ee 834e b17f b2bf
00000120: 1982 0003 7ded 013f 5b08 0864 ed44 a13f
00000130: 0000 0000 ed6e b4bf cb0c 62bf 52ea c6bf
00000140: 608a b053 878f cbbf a998 3d8a 5847 bc3f
00000150: 423c ae00 edce c2bf 3680 6b22 c110 a73f
00000160: 0000 00e0 a65f c3bf 0000 0020 c72f b4bf
00000170: 38fc b90d 1d12 a43f 0000 0040 deb7 b63f
00000180: 6cfd 50e8 3425 9a3f 9898 17ec 437a c9bf
00000190: 59ae ccee bb3b c3bf 0f3f 8b66 93d8 b1bf
000001a0: d38a c5a2 8bec 6a3f e30f 2f07 f14c 7d3f
000001b0: cb98 0314 7cb1 d1bf d530 bcfe 76bd bd3f
000001c0: 8332 7c9b 12c2 483f e374 78cf c816 c7bf
000001d0: 0000 0080 c384 abbf ab26 d61e 13ce b0bf
000001e0: 772f bbdb 69ec c1bf 0000 00a0 3fbb c13f
000001f0: 0000 0000 17c5 c5bf 0000 00e0 bb24 c0bf
00000200: 0000 0000 dc13 a43f 0000 0040 c3eb bf3f
00000210: fa6e 1456 e462 d0bf c036 2cd1 4afd dcbf
00000220: e63b 4fda 869c 02c0 0c74 5c3d dcb5 81bf
00000230: 0000 0000 8b30 a83f 1a5d 0d05 3915 c83f
00000240: 6e40 aad8 cc8b b0bf 6042 a2c7 f8e6 abbf
00000250: 3023 ef9e f39e cb3f 9ad8 9cc9 51d0 c93f
00000260: 0000 0000 3127 a9bf 0000 0040 fced c4bf
00000270: 718e 6d92 8926 85bf 0000 0000 f283 82bf
00000280: 4d04 0b4c d85f d3bf ddf5 e5ba 3ea9 dbbf
00000290: 6ec5 7731 292b 663f 734f 556a edca b43f
000002a0: e702 6062 be01 d53f b394 d02d 4348 963f
000002b0: 34f0 4a96 69a8 cf3f 07bb e50b e362 cc3f
000002c0: bfb7 8bcd e8da d23f 863f 185f 44ac b63f
000002d0: 0000 0060 652e c03f 7cc7 9df7 e1f9 d93f
000002e0: 0b1f f900 b45e 9f3f 0000 0000 f706 a9bf
000002f0: 0000 0020 7d79 c23f 0000 0080 e5a4 a63f
00000300: 0000 0020 0a4f c33f 0000 00a0 82c7 c13f
00000310: 39fd 49db b148 b6bf 1fb4 e798 3ee2 d13f
00000320: 6726 a022 9cd6 e03f 6319 d68f 524f c03f
00000330: 0000 0080 f348 c6bf 2380 c782 039e 963f
00000340: ead6 cb23 8c05 eebf 2011 5506 a031 acbf
00000350: 8ade 1bc2 5dc6 d1bf 3b88 94c4 ecf6 d4bf
00000360: 0000 0080 31a6 a63f 0000 00c0 267e b93f
00000370: 1a66 4d83 16c5 b9bf 0000 0040 2f4c c0bf
00000380: ff4b 2cf5 c5eb cc3f f6c7 9dcf 26af c83f
00000390: 7b98 a177 b1f5 c7bf 55fd 4646 bf31 c0bf
000003a0: 9a40 b7a4 a5c9 e4bf 6f2c 9d35 9160 bb3f
000003b0: 2b08 9210 fa19 e3bf e7af ef48 0a47 b83f
000003c0: 7564 e5ab 3cd6 d8bf 5d02 407b a488 b53f
000003d0: 0000 00c0 a49b c0bf 52a2 d58e ba78 dbbf
000003e0: 4c0e ffa4 0e35 f3bf 0000 0000 3a15 a3bf
000003f0: 0000 00c0 45c1 c0bf 0000 0080 3ba1 b23f
00000400: 0000 0060 42e9 c1bf 0000 0040 c285 b63f
00000410: 0337 ea26 00a0 bbbf 9e16 4770 ab25 c03f
00000420: c57d fde7 54c7 b23f f0a4 5048 370e b93f
00000430: 0000 0060 e386 c23f 5710 2df0 be16 b9bf
00000440: 399d 507e 6219 c3bf 260f c774 869c 8fbf
00000450: e201 ff09 9829 b73f 0000 00e0 2488 c3bf
00000460: 0000 0040 e9bd b93f 0000 00e0 957c bcbf
00000470: d546 82d4 7633 c2bf 0000 0080 cf89 adbf
00000480: a036 3d93 736e bebf 1def fbbc 9d64 a5bf
00000490: 78e4 0627 1a32 c2bf b1c2 0f27 6d83 643f
000004a0: 0000 00c0 c8ae b0bf caa0 d4a1 00fc a8bf
000004b0: 8a6b aa8e 730a bf3f 0000 0000 fab4 8dbf
000004c0: 0000 00c0 83a7 c2bf 0000 0060 ab44 c2bf
000004d0: 0000 0080 87b1 b03f 0000 0080 a479 b8bf
000004e0: 652d b39a f893 c4bf 0000 0020 d239 b8bf
000004f0: 0000 0000 0003 973f 0000 0080 39ad ae3f
00000500: 0000 00c0 84b7 acbf 0000 0040 d511 bc3f
00000510: 0000 00c0 a6a1 c3bf 0000 0040 1b95 b13f
00000520: 0000 0060 55a3 c0bf 0000 0040 9762 b7bf
00000530: 0000 0000 f9c9 91bf 0000 0000 bcab 81bf
00000540: 0000 0040 a428 c3bf 0000 0060 7415 c43f
00000550: 0000 0060 a4b8 b6bf 0000 00e0 a703 c33f
00000560: 0000 0000 2977 9abf 0000 0040 aaa4 bd3f
00000570: 0000 0080 dd5f c2bf 0000 0060 aa7c c03f
00000580: 0000 0040 eddd b23f 0000 00a0 5842 c5bf
00000590: 0000 0060 c946 b9bf 0000 0020 dcec c53f
000005a0: 0000 0020 e3a4 c43f 0000 00c0 d0bb b83f
000005b0: 0000 0040 bd97 c4bf 0000 00a0 38ef c2bf
000005c0: 0000 0060 afde c0bf 0000 0000 237f b9bf
000005d0: 0000 0020 2c92 c43f 0000 0000 3878 8dbf
000005e0: 0000 00c0 16f9 b53f 0000 00e0 4af9 b5bf
000005f0: 0000 0040 65f1 b5bf 0000 0040 411d b63f
00000600: 0000 00c0 babb b53f 0000 0000 a8bd 6ebf
00000610: d62b 92b2 260e b5bf 9594 905c 5c4d c93f
00000620: f067 ff77 9936 dc3f 2f83 3ace a09b b5bf
00000630: 0000 0000 5341 bdbf 5a77 5b9d baf5 a03f
00000640: bed2 7f57 f0e6 e3bf c2f9 fef2 f202 9b3f
00000650: 5ce7 b811 5bf7 cbbf 5de3 343f d577 d4bf
00000660: 0000 0000 a7f4 a33f 0000 0040 665e b73f
00000670: 2864 e448 0561 c03f 0000 0040 7496 bd3f
00000680: b23f bb89 3df9 c03f ea80 4e2a c6fd a1bf
00000690: bcc5 8e2b 7c20 943f cac0 8099 b99e 953f
000006a0: d723 3f31 c4ca e0bf d541 4dba 3740 b13f
000006b0: e925 9fe3 e3f1 cbbf b466 aace 0520 bc3f
000006c0: 81ca 4024 c26e cabf 85c0 f181 b98c b7bf
000006d0: 0000 0000 54df 71bf d9fd e096 a489 d7bf
000006e0: d28f 8410 2b40 e7bf 0000 0080 7ae5 a7bf
000006f0: 0000 0000 5041 68bf 0000 0020 3375 b3bf
00000700: 0000 0000 02b4 bcbf 0000 0060 fd8f c23f
00000710: fc63 2bf0 f9da 94bf f1a6 c49d 76e5 aa3f
00000720: b274 0819 2c25 a3bf 9038 1b95 395e c7bf
00000730: 0000 00c0 85d1 b83f 6f1d 2eb3 f090 9ebf
00000740: a5ab 29f5 429e ddbf f57e 213b 0365 c5bf
00000750: 7adc 80c0 dce3 b2bf 305a 4788 b859 bb3f
00000760: 0000 0040 2e21 b1bf 0000 0000 ba89 8fbf
00000770: bdf2 5dc7 6eb0 9dbf 0000 0000 8031 62bf
00000780: 08a4 3b38 c4b6 ba3f c81f 0885 c2ed a3bf
00000790: d1d8 8b4b 9a83 c4bf a53b bb77 3679 c3bf
000007a0: 73d2 4713 41db ba3f 974d 7cd3 fc8e 7ebf
000007b0: 85d6 2903 a7fa ab3f c57b 011d a545 c0bf
000007c0: 57c4 06d3 065c c13f 5ae9 256e faf0 453f
000007d0: 0000 0040 711e b3bf 571f 4042 f15f b83f
000007e0: 98e9 e72c ebe4 d9bf 0000 0000 50e2 af3f
000007f0: 0000 0040 d32c b73f 0000 0000 e867 63bf

hidd_layers.0.bias f8 [32]
-0.19667989930757668 -0.04459205961895992 -0.638719159437471 0.28425576292299976 -0.09081805675810131 0.03825749456882477 0.38870023421963906 -0.2767482783146863
0.35003880397092413 0.5208910473340426 0.10162703159722708 0.023203418998343227 0.4239439848306713 0.01616133898842873 -0.03555583532012539 0.39935665189417463
-0.07752087119641689 0.3261062353010472 -0.7226708958744623 0.106461301445961 -0.1148449182510376 0.12524857646211368 0.14280767724680118 0.3369089842187519
-0.01908247172832489 0.26864543673242924 -0.11796855926513672 -0.15590022504329681 0.0809311717748642 -0.15304000675678253 -0.11454855650663376 -0.12683634339504957
00000000: 283f a793 ce2c c9bf db0d 733b c5d4 a6bf
00000010: fe99 a329 6370 e4bf 470b 5d15 3f31 d23f
00000020: 9a8d a927 da3f b7bf 0000 0080 7c96 a33f
00000030: dcef 7af2 76e0 d83f 1e7f 2569 3eb6 d1bf
00000040: 70b5 d827 0967 d63f 5b86 a2b3 23ab e03f
00000050: 9882 19a9 3a04 ba3f 0359 0317 a3c2 973f
00000060: fac0 8bf3 e521 db3f f9d3 a819 998c 903f
00000070: 6e88 c3db 5f34 a2bf 97d5 d433 0f8f d93f
00000080: 35c9 8b66 68d8 b3bf 7ef0 e8af ecde d43f
00000090: a6a8 f1b6 1e20 e7bf 0000 0040 0c41 bb3f
000000a0: 0000 0000 7a66 bdbf 223e e335 2508 c03f
000000b0: 1f45 b29f 8547 c23f fdad 3cb3 ea8f d53f
000000c0: 0000 0000 5b8a 93bf 2211 3fa1 7c31 d13f
000000d0: 0000 0000 3033 bebf 0000 00e0 89f4 c3bf
000000e0: 0000 00c0 e7b7 b43f 0000 00a0 d096 c3bf
000000f0: 0000 00e0 0d53 bdbf 2cb9 695d 2c3c c0bf

out_layer.weight f8 [1, 32]
-0.023756733441552793 0.0036182171505208436 1.319733456414827 -0.26602982952772486 0.11906478673645342 -0.00660744309425354 -0.38543485634862895 -0.008165217432432637
-0.7187028834773614 -0.5825553517278996 2.2303970105241374e-06 0.0060473889251180515 0.10736716727711264 -0.018967901340912485 0.002180592424529094 0.05438147358032345
-0.224335914302241 0.04556216254667331 -0.5482194392717114 0.05616147816181183 -0.05302848666906357 0.4749645195410118 0.08717550526352602 0.5300811625736948
0.1376938670873642 0.4561712916524796 0.14570753276348114 0.012840136885643005 -0.04021677374839783 -0.08770253509283066 -0.10404843091964722 -0.05851772861592383
00000000: 57d9 c364 af53 98bf 6b1e 9a8a f3a3 6d3f
00000010: d0d1 2bd4 a01d f53f 0940 65fa a106 d1bf
00000020: 7366 23a5 077b be3f 0000 0000 6810 7bbf
00000030: 585f b0f5 f6aa d8bf 5a3b b2ee ecb8 80bf
00000040: f46f 8230 9dff e6bf d2fe f81e 4ba4 e2bf
00000050: d1e0 4bb9 bdb5 c23e 1f9e 8d9a 25c5 783f
00000060: 638e 1e28 6a7c bb3f 735d bb4f 526c 93bf
00000070: 4fb8 c6a4 08dd 613f 6551 1275 e3d7 ab3f
00000080: 8189 9f0b 0ab7 ccbf fc5f 257c ec53 a73f
00000090: bb82 567e 038b e1bf 0000 0080 32c1 ac3f
000000a0: 0000 00c0 8c26 abbf 8e18 8c95 d165 de3f
000000b0: a87e 1e48 2251 b63f 8659 2fc5 6cf6 e03f
000000c0: 0000 00e0 f39f c13f e45f c112 e931 dd3f
000000d0: 0000 0060 8ba6 c23f 0000 0000 ee4b 8a3f
000000e0: 0000 0000 4b97 a4bf 0000 0060 ac73 b6bf
000000f0: 0000 0000 eba2 babf 4c7f 4825 09f6 adbf

out_layer.bias f8 [1]
-0.059310453978990436
00000000: 8925 4d98 f05d aebf
