homework1/result/model_save/adam-32-0.001-Tanh-3-32-0/model.pt (torch, 11223 bytes, 6 tensors)

proj_layer.weight f8 [32, 1]
0	0xbfd0e4e6bde169c0	-0.263971028738208
1	0x3fc63455ff9ddc77	0.1734721658828879
2	0x3fbf64fa9d5e4d79	0.12263456670762264
3	0xbfd25aa69da4bc64	-0.2867828883635808
4	0x3fdab3ce0d2cddf9	0.4172244194664639
5	0x3fe08a77a39a56fc	0.5169027514809552
6	0x3fd32f75b7ac5532	0.2997717183764791
7	0xbfc7d9dd1e8924ef	-0.18633617392541832
8	0xbfe0a5cf631f23f9	-0.5202404914826949
9	0xbff6cb966e0e83ba	-1.4247040080156084
10	0x3fd200af4d90854a	0.2812917954889441
11	0xbfbde05795763074	-0.11670443915335388
12	0xbfc07686a436570b	-0.12861712473084483
13	0xbfe301f34c221733	-0.5939880835510166
14	0x3fe057f19bb1df18	0.5107353249468103
15	0x3fabecb61c23cbdc	0.054540339407956856
16	0xbfd84c0b26d9dd5d	-0.3796413306622151
17	0x3fe5137251ead033	0.6586238479562837
18	0xbfd2d564a9aaba6f	-0.29427448815378104
19	0xbfe2e46e41522fd3	-0.5903846050073248
20	0xbfa34908ff632a15	-0.03766658895036216
21	0xbfb2aec0b4aa5d66	-0.07297901545313365
22	0xbfcfd0f8b99b7157	-0.24856480658389543
23	0x40044af538cf0b99	2.536600536173364
24	0xbfe321359a892e34	-0.5978038805273571
25	0x3fc0cb76cd2b326e	0.13120923059468076
26	0xbfbf5068e3aa05d2	-0.12232070501524753
27	0xbfe17c4bf1980420	-0.546422931540409
28	0xbfbdb4ab6f509b17	-0.1160380503430186
29	0x3fe67e7e6ac33b3d	0.7029411397178148
30	0xbfe38e6ae1d1dc9f	-0.6111349497358737
31	0x3fc5a37a01aa7300	0.1690514095434068

proj_layer.bias f8 [32]
0	0xbfd9b6bcf077d7e4	-0.40177844508377647
1	0x3ff8f76150ed8091	1.5603955422630273
2	0xbff20b224b17084c	-1.1277182515336959
3	0xbfea78eedfbbd1bf	-0.827262341480086
4	0xbff461ba214fecc2	-1.2738591481454908
5	0xbfec0ab5f4fbcb49	-0.8763074669680943
6	0x3ff8e648fe21b9f8	1.5562219550153014
7	0x3ff34790ced98b11	1.2049720840520346
8	0x3ff5ad06c785bb9d	1.3547427934497371
9	0x3fea1ad9a05d828d	0.8157776004919285
10	0xbfc409982cfa2c8f	-0.15654279895929732
11	0x3ff1b8c0f34aa7d6	1.1076058868006746
12	0x3ff4a1d5b274bd43	1.289510438054848
13	0x3ff4df368c81f3ee	1.3044953812197906
14	0xbfee313113d5c644	-0.9435048472789238
15	0x3fd01f2b74a194ae	0.2519024504638975
16	0x3fea97fd87b60ba9	0.8310535097701762
17	0xbfb337a125a0028a	-0.07506758850650833
18	0x3fcc7d8f9d780110	0.22258181752113915
19	0x3ffc756b149b4516	1.7786665730421354
20	0xbfe4ac7d5e778a2e	-0.6460558743531857
21	0x3fda68a103764941	0.4126360448655256
22	0xbff75d3418f71863	-1.4602547621921296
23	0xbfd8c4199dfebd04	-0.38696899823385444
24	0x3ffd32a80191d2e4	1.824867254382462
25	0xbfd20689ae77f6bf	-0.28164903676939085
26	0x3ff372b41d6275e9	1.215503802093162
27	0x3ff9620d50f49d19	1.5864384805989344
28	0x3ff06f2343fd1422	1.0271332412533032
29	0xbffae597964c6907	-1.6810527678522378
30	0x3ffee4e4b8e871fc	1.9308821890800791
31	0x3ff1efe8cdbc209f	1.1210716282385318

hidd_layers.0.weight f8 [32, 32]
0	0x3fb4616028719016	0.07961083400147148
1	0xbf8f26e84688d2e4	-0.015210928585568557
2	0xbfe1bc28dd96f798	-0.5542187049793368
3	0x3fbcb57b803b82b3	0.11214420204806679
4	0x3fdeea2e46c085bc	0.4830432597101113
5	0xbfb718c8d50281bb	-0.09022193146166206
6	0x3fb2056b23958396	0.07039517992735819
7	0x3ff0a8a4850ac873	1.0411725232084137
8	0x3f8cb8f30406b253	0.014024637756699187
9	0x3fb3d16ec5264df9	0.0774144393274624
10	0x3f3c22d1bf811939	0.0004293214874490251
11	0x3fd5b15c3c507463	0.3389502133375741
12	0x3fe2917a273baddc	0.5802584425231845
13	0x3fc38acf40ed9e54	0.15267363233873488
14	0xbfb75e8a7e8a64e4	-0.09128633107538381
15	0xbfb77f4702ab7287	-0.09178584876230832
16	0xbfd9377aab2fb877	-0.39401118009016706
17	0xbfb8bedf5017f22c	-0.09666248040589015
18	0xbfbe85bcdacb7944	-0.11922817556066884
19	0x3fc7623b2e58a309	0.18268527758598221
20	0x3fc616fe356a9fd7	0.17257669075229273
21	0x3fceff374005a36f	0.2421635687453789
22	0xbfbe75f61d578e9a	-0.11898744789464857
23	0x3fc486bff3b10533	0.16036223792074508
24	0x3fbd97fca76e8d69	0.1156003865021852
25	0xbf896f389203a512	-0.012419168430329228
26	0x3fe433d8c0779d2e	0.6313289412618468
27	0xbfac3fcd4e2cc8b5	-0.05517427043231874
28	0x3feb0b73d198ce87	0.845148000115345
29	0x3fcc7fbb86c9c793	0.22264808732466843
30	0xbfab9fc9a02e0657	-0.05395345764464981
31	0xbfc5533ccbd99834	-0.16660270646679154
32	0xbfa208a5e56cdbe9	-0.03522222924805602
33	0xbfba029132a7160a	-0.10160167204511353
34	0x3fc8135cd117f08d	0.1880908986057687
35	0x3fc064ec8c540055	0.12807995655021168
36	0x3fe0c60860a18c73	0.5241739165616209
37	0xbfa0d8ccac63d6bb	-0.03290404896135387
38	0xbfb85e0a808a8a10	-0.09518495214664591
39	0xbfa37accd7dc7e79	-0.03804626593614286
40	0x3fb665b01b4dc8d3	0.08748913446996491
41	0x3fc1f1e47716c052	0.14019447150122005
42	0x3fcc2dd62e476019	0.22014882335383915
43	0x3fa28271bc3187af	0.036151460860096456
44	0xbfca34a87053ad5d	-0.20473199352941665
45	0x3fc9e78290fca50a	0.20237762526929998
46	0xbfbdcbd189195a1e	-0.11639127347130127
47	0x3fa32ca11559ae3d	0.0374498690187832
48	0xbfc9343f6a69e538	-0.19690697380046074
49	0x3fc0a39ffbc9ab4d	0.12999343675923072
50	0xbfad843fe179b1d0	-0.057649608873223124
51	0xbfb229257bcf7ae2	-0.07094034455029033
52	0xbfd0cab16d806143	-0.26237140363220507
53	0x3f8dc34f093f9e15	0.014532678098432542
54	0xbfb948545a7611b6	-0.09875991066480236
55	0xbfb3f38884193703	-0.07793477273045472
56	0x3fa88851fbe23d9d	0.04791504096749153
57	0x3fb5e608db695e2d	0.08554129940727569
58	0xbfb52ad492a0a85f	-0.08268478946470868
59	0x3fbe6d5ecfa9fc29	0.11885635919496508
60	0xbfb746e4b8cb08f0	-0.0909254981188814
61	0x3fb77f3e39ae03e3	0.09178532512852615
62	0x3fb8814906aa6a04	0.09572273648010571
63	0x3fb657d799fa1eec	0.08727786549763622
64	0xbfc45908cc16a1d2	-0.1589671131635116
65	0xbfae5f702d8f26a8	-0.05932188564436319
66	0x3fa376a5e49ba06a	0.03801458755134564
67	0xbfc5c4a639f49584	-0.1700637610421546
68	0x3fc280ea58efb25e	0.144559186387954
69	0xbfc0237b42e9ccaa	-0.12608280913591347
70	0x3fb79dea00b50385	0.09225332753432099
71	0x3fd03703fde433b8	0.2533578853042928
72	0x3fcd56a9a8d21a3e	0.2292072367019546
73	0x3f6d4e7fd1954665	0.0035774704416915875
74	0x3fc811e638b55fe8	0.1880462433716723
75	0xbfa1515c5219ef6f	-0.03382385732854131
76	0xbfd3931052fc6183	-0.3058510599526231
77	0x3fc8962a1c8206c0	0.19208265678394376
78	0x3fb5f705950c9a1e	0.08580050362488875
79	0x3fcbef69fdf564af	0.21824383640595132
80	0xbfd1ad6c6cd8819b	-0.27620993260827625
81	0xbf30ca64b8c6753d	-0.00025620421436108374
82	0x3f907adfd539333e	0.016093728436590064
83	0x3fa42fdc1e184107	0.039427641557383146
84	0xbfbfb4493603e143	-0.12384469574670214
85	0xbfc46a1569dc56b0	-0.15948741597155935
86	0xbfa250029936ce3e	-0.03576667900361173
87	0xbfb5c1233cf785e5	-0.08497829664658914
88	0x3fc0d7e9b23749ec	0.13158913804961914
89	0xbfb12da606153bda	-0.0671027912951411
90	0xbfccf8b4d25283d2	-0.22633991498608325
91	0x3f96b15c228cf293	0.022160949333953694
92	0xbf8f5377605fd7e2	-0.015295918110478316
93	0x3fc4dd81d39990e6	0.16300986129784362
94	0x3fc87136e6d6fd75	0.19095503112292148
95	0x3fd18a6cfe34fa20	0.2740738375177063
96	0x3fc9d1b6079cadc5	0.2017123734634493
97	0xbfb08bdde061c998	-0.06463419654918423
98	0x3fb34e782b7d9973	0.07541609823019772
99	0x3fcefd4813e3033e	0.24210453959497075
100	0xbfd7948821130cc7	-0.36844065885470595
101	0x3fac2ba17bc46403	0.05502037654714089
102	0xbfc6e65ecb03c454	-0.17890534317806106
103	0xbfc628dd04b493d9	-0.17312205056910449
104	0xbfb49dfe62638694	-0.08053579237050662
105	0x3f75d6f8a5ad2cf6	0.0053319657116148635
106	0xbfc85b1294667878	-0.19027931448085034
107	0x3fcd32079558f483	0.2280892829166171
108	0x3fb7ddcdc1a9d5c6	0.09322820642576976
109	0x3fb187aec34e3a12	0.06847660320475082
110	0x3fb9e86a8f3b9f8c	0.10120264050385525
111	0xbf940cb54704329f	-0.019579727611061967
112	0x3fcf066d522991f4	0.24238363754115222
113	0xbfb111aad052bc94	-0.06667583070769673
114	0x3f8835b7f4ced06e	0.011821210058634981
115	0xbfb580872dea7028	-0.08399243231764386
116	0x3f8c0f98ffd15d59	0.01370162516302169
117	0x3facc0a9091f95cb	0.05615738140458467
118	0x3fb066bf743a0d96	0.06406780803268072
119	0x3f8391c8e6fe1f84	0.009555406140648655
120	0xbfc202c9c78ceb70	-0.14071008914637728
121	0xbfa56c517a4fbe42	-0.04184202783642067
122	0x3fc651f0cca9e172	0.1743756293615309
123	0xbfcdd95f8ab3a9f2	-0.2331962039236966
124	0xbfc5eb62edffd1a5	-0.17124592419680798
125	0x3fbbd6b2488f8305	0.10874475738047458
126	0xbfcba9ca600c3afb	-0.2161190957053448
127	0xbf8b805cd845b2b8	-0.013428426122766055
128	0xbf804869095b08dd	-0.00795061168480909
129	0xbfc980a3a1b51b28	-0.19923825641509407
130	0xbfcd19cc75fb7e34	-0.22734981308802704
131	0x3fc748ea2ff2c3d6	0.18191268292642232
132	0x3f833448c530cc07	0.009377068059711403
133	0xbfa31746063833bd	-0.03728693796083558
134	0xbfa30f89d10d8d68	-0.03722792317310103
135	0x3f8ad4cbea8f165a	0.013101189704580896
136	0xbfcc951b252b7309	-0.22330035509994442
137	0xbf70c3ba8d02a959	-0.0040929114476660694
138	0xbfb3458f9ab0695c	-0.07528016592587988
139	0x3fc3366f206251fa	0.15009869652989477
140	0x3fe0aee5b1df364f	0.521349761396502
141	0xbfc7bd0d8c101149	-0.18545693720819603
142	0xbfb5625d33ce237d	-0.08353216662193393
143	0xbfbfe02eef7cb001	-0.12451451632358614
144	0x3fb409df2b0a4c2d	0.07827563095843067
145	0x3fa75b42401af49f	0.0456181243184599
146	0xbfc0d5e7285dc75f	-0.13152780028354535
147	0xbfcd01ba206c98bf	-0.22661520560467882
148	0xbfb2ada67c2412e8	-0.072962193782654
149	0x3fcc60c87713e745	0.2217035848078074
150	0xbfad2dab13f5a628	-0.056989046274633914
151	0xbf867a68ff060f10	-0.010975666315750782
152	0xbfb7a32db4d7ad36	-0.09233365693187498
153	0x3fc2a5d8c6271a0f	0.1456862418692286
154	0x3fd2a140edd6e092	0.2910921404504815
155	0xbfcd85c64926d334	-0.23064497539385231
156	0x3fc5ec0e238d955d	0.17126633392323756
157	0xbfbc842ea3173a8c	-0.11139193994243096
158	0xbfcd9e3454022795	-0.231390515346274
159	0xbfc04dce447d3786	-0.1273744425220082
160	0xbfb05e407b659cc1	-0.06393816959972566
161	0x3fd20a0ed64d8b0e	0.28186388900773884
162	0xbfebc1097a91b3f9	-0.867314090149761
163	0xbfc2c9521ac3720b	-0.1467688208275749
164	0x3fdd9127a40517c6	0.46198454873626493
165	0xbfbe9c65b16167b3	-0.11957393246248564
166	0x3fc0076de78a4cbb	0.12522672467875914
167	0x3ff4625e3b29cf65	1.2740156470362873
168	0x3fbbfcdd2827dfea	0.1093271468197369
169	0xbf9cafcc7134e367	-0.028014368447859008
170	0x3fd31f93eae1604f	0.29880235612427425
171	0x3fda227df6acc247	0.40835522736873425
172	0x3ff6420dfd04c7a1	1.391126621584114
173	0x3fb9ea008d404f9e	0.10122683952823627
174	0xbfc18196f47f0c13	-0.13676726282400917
175	0x3fbbe63402681edf	0.10898137148626173
176	0xbfd3f1c23e9ae7c6	-0.31163078416613776
177	0x3fc6124fdcb3069b	0.17243383671125376
178	0xbfca4bc81b30cf63	-0.20543767287892498
179	0xbf90746670ed0ea4	-0.01606903137441286
180	0xbfbc7ffea3df60ab	-0.11132804394526612
181	0x3fe32857c39538ec	0.5986746616343033
182	0xbfc36945cd579d45	-0.15165016676403745
183	0x3fcd34976cc38545	0.22816746531229107
184	0x3fcb45244b52dba6	0.2130475395003632
185	0x3fa51403748fcf8b	0.04116831586716704
186	0x3ff5add4ecb5e6bd	1.3549393888956012
187	0x3fc924e3398d1151	0.19643822012052195
188	0x3ff0142a4d4960ca	1.0049231547364337
189	0xbfa700b7a757148a	-0.0449273483059552
190	0x3fd0693e098e327a	0.2564234822573678
191	0xbf8f5d7297e29cf7	-0.015314955959480943
192	0x3fad8d1d4c1aadab	0.05771724275595188
193	0xbfb34e1188bd1dda	-0.07540998066280427
194	0xbff445df60b54396	-1.2670587327631657
195	0xbfa7c4bc9313a626	-0.046422856286721534
196	0x3fe1ddda497ef710	0.5583316264598768
197	0x3f9079a143c4b444	0.016088981400731464
198	0x3fbedc7bcd92b3a3	0.12055181282876375
199	0x3ff4b5c7eba3cd1e	1.2943801121408067
200	0xbfb3daa643a859ec	-0.07755507613942542
201	0xbfc720c4c13f5415	-0.18068751750857417
202	0x3fb24ac26c1041f2	0.07145323885220714
203	0x3fda9d251244e6fb	0.4158413580331481
204	0x3ff0e8c6802780bd	1.0568299299266493
205	0xbfb61df48625a193	-0.08639457964966928
206	0xbf72f795589017d9	-0.004630645163166102
207	0xbfbf5c9965853014	-0.12250670174142925
208	0xbfcfc40284164100	-0.24816924523884865
209	0xbfb8e0ccdf2e2da8	-0.09718018006076667
210	0x3fbc27a496cc2531	0.10997990304544626
211	0x3fc57928ffa322e7	0.16776001436507856
212	0xbfaf5e71bf1d141c	-0.06126742799691717
213	0x3fdca1f6208a7b92	0.4473853414328285
214	0x3f3b0ffdd9cbdc02	0.00041294047859657967
215	0xbfa745fdc2008bc6	-0.04545586579504106
216	0x3fab180d41aad4ae	0.0529178755436218
217	0xbfb253a9969ab2ca	-0.07158908774244846
218	0x3fea7caae7b631c8	0.8277182126635632
219	0x3fc86df33706c00b	0.19085540949663513
220	0x3fee89d49ccb2730	0.9543250143408155
221	0x3fce6d46dcda21b5	0.23770986350815596
222	0x3fabca6c4a1bc111	0.05427873997348532
223	0x3fb1706fc79cf7c0	0.06812189696662951
224	0xbf5c19b27fea4cce	-0.0017151110802487326
225	0xbfacb32f0038b35a	-0.056054562356030416
226	0xbfd543a1cf6ce9c2	-0.3322529340399819
227	0x3fcbd90fdd6b8bde	0.21756170569923844
228	0x3fa5cb05bf13d8ea	0.042564563345807674
229	0x3fc39f5b4f716350	0.15330067996071728
230	0xbfa02c650450c203	-0.03158870389632187
231	0xbfca2cb3512e0a20	-0.20448914970263932
232	0xbfb547681db19656	-0.08312082982009747
233	0x3fc6d6df4ace7cde	0.17843238022485414
234	0xbf813b382638296c	-0.00841373316417978
235	0x3fd730a4c563d0a1	0.36234397198064455
236	0x3fe094f89588f752	0.5181849403959211
237	0xbfc7eb9f101a41d0	-0.18687809263475552
238	0x3fbad12d5dbef735	0.1047542909500095
239	0xbfc73fa28b184d04	-0.18162948409790414
240	0xbfb76fde6c789c5a	-0.09155073307248199
241	0x3fbc4f75853a4290	0.110587449098839
242	0x3fb1019514949049	0.06643039467286473
243	0xbfcd832719844a05	-0.2305649637788322
244	0xbf75312c23f705d4	-0.00517384760263569
245	0x3fa3a671dc420068	0.03837924779600216
246	0x3fcfba2cb1896fbc	0.24786909741203356
247	0x3faba8c0815c9e41	0.054021850386842825
248	0xbfcefbd4d9a3dbf2	-0.2420602858253172
249	0xbfb9331c4a3a64d7	-0.09843613445481779
250	0x3fdf74a967025bd2	0.49149546679967415
251	0xbfd543bbf0ac4748	-0.3322591638872052
252	0x3fcb5eb9cc5d3625	0.21382830122677024
253	0xbfcbd898975c4ac8	-0.21754748716974448
254	0xbfd6e30a5892b8c2	-0.35760744714469805
255	0xbfb6cd119a75be59	-0.08906660099977994

hidd_layers.0.bias f8 [32]
0	0xbfa9e10a91fc9d11	-0.05054505378785213
1	0x3fc6909037f96cc8	0.1762867234527674
2	0x3fb6c250bff1f0bc	0.08890251814040345
3	0xbfa79ad16c28f068	-0.04610304303466323
4	0xbfa7edc279564f4e	-0.04673583727995255
5	0x3fb6dc6a64ff35b3	0.08930077520127248
6	0xbfc4cbf47979cedd	-0.16247421199260872
7	0xbfc8e353ea54cfc7	-0.1944374937244204
8	0x3fd2ee86011b6c6f	0.29580831630818855
9	0xbf7a12cc0121d192	-0.006365582363390481
10	0x3fc303ccdb2d91a4	0.14855347349215464
11	0x3fc2c9610323f322	0.14677059796658748
12	0x3fb3c2c3a5ce606e	0.0771906165886109
13	0xbfb692a61913f975	-0.08817518341309045
14	0x3fc6bc5d3fb43a6c	0.17762342081592253
15	0xbfafa5a0c9dd7f7a	-0.06181051696944358
16	0x3fb0c6e159dca839	0.06553467220206323
17	0xbf80dfa1b11a69ce	-0.008239043442974128
18	0x3fb8c25f46120500	0.09671588383391239
19	0xbf9bba3a3ba07e87	-0.027077588929499654
20	0xbfcc49fdc469769b	-0.2210080346148303
21	0x3fa0825ff135626d	0.03224468059005834
22	0xbf8ea75f9b5450a3	-0.01496767704751562
23	0x3fa4ac3f7d66a65d	0.040376648004280404
24	0x3fbea371628238c2	0.11968144087788615
25	0xbfc670e72492844c	-0.17532052312620505
26	0x3fbdb6f8e32345a3	0.11607318444591512
27	0xbf91319751361c50	-0.016790737468479755
28	0xbf8d3d1c4c22a194	-0.014276715348686499
29	0xbfc34c5c1f17b20f	-0.15076781767074052
30	0x3fcb73e1eb9da7a2	0.21447395329169888
31	0xbfb4753b2c8a3419	-0.07991380536459793

out_layer.weight f8 [1, 32]
0	0x3feff4fe78c9e8ee	0.9986564978746892
1	0x3fd96c100412d7d3	0.3972206153661066
2	0x3fddadea81526c16	0.46373999241922215
3	0xbfd601c959ac1928	-0.3438590408044484
4	0xbfd7b6216b305e39	-0.3704913660780878
5	0x3ff2f933bfc8058e	1.1858403674562825
6	0x3ff1b3f403d916fb	1.106433882743146
7	0xbfd87c2ae5052c62	-0.38257858624701246
8	0xbff079c6b6be05d9	-1.029730523907679
9	0xbfc0d11b4f1acea4	-0.13138142931494656
10	0x3fe06d8b7e733e83	0.5133721799592909
11	0x3fe0563c971a4a74	0.5105269385552007
12	0x3fcfd2fa7979e6e0	0.24862605029539164
13	0xbfe0983e2f784190	-0.5185843398231089
14	0x3fc4c3eb02fee88a	0.1622289433124176
15	0x3ff2212397800697	1.133090583607929
16	0xbfcbe4587535c0d1	-0.21790605281012757
17	0xbfc707a1a1efcba3	-0.17992039115014533
18	0x3fbb235e14021109	0.10600841511228877
19	0x3fd82e947091ad64	0.37784300797530634
20	0x3fe94ccbae39ca15	0.7906244662138443
21	0xbfda50ec9d49fe18	-0.4111892257714955
22	0xbfc9aca17bf86ed2	-0.2005807738613528
23	0x3fd48f9920d1f40f	0.3212645359524808
24	0x3fd615b510d1a3f2	0.34507490770789595
25	0xbfd8185431a350a9	-0.3764849171395875
26	0x3fd52dd4ae0ce8e1	0.33092228886711267
27	0xbfd358bfdd66ab86	-0.3022918378944087
28	0xbfde41efe099e92f	-0.4727744763728365
29	0x3feca4bce44a93a7	0.8951096018614536
30	0x3fc54f7e679f4098	0.16648845729514927
31	0xbfd1532019b0252b	-0.2706985712871581

out_layer.bias f8 [1]
0	0x3f9c6aaa428b82b9	0.02775064498098587
