homework1/result/model_save/adam-64-0.0001-Relu-3-32-0/model.pt (torch, 11223 bytes, 6 tensors)

proj_layer.weight f8 [32, 1]
0.4995979925412235 0.06745168531045122 -0.44734854244631894 0.04185317538015721 0.0668562650680542 0.6054373127634669 0.8141422822490638 -0.8612585153631116
-0.20351008950987842 -0.36431760580588196 -0.48743228351288104 0.10303397536247133 -0.5216047763824463 0.7345009314878842 0.30220138072585 0.7925389163927881
-0.5969724655151367 0.6876953662506057 -0.7677922248840332 0.7663806740579633 0.13330830678247949 -0.20347853982143693 0.5060063288823288 0.6356624835761848
-0.857380747795105 -0.6091597080230713 -0.12494103133227179 -0.10205521810286548 -0.16435127639577454 0.4832067848046595 0.7032305638629703 -0.16228687058757982
00000000: d827 c7db 69f9 df3f c1ed 777e 8344 b13f
00000010: e217 eec7 5ba1 dcbf 81a9 fb86 c76d a53f
00000020: 0000 0000 7e1d b13f 601c 4312 be5f e33f
00000030: f29d 911d 740d ea3f c05a 9c04 6e8f ebbf
00000040: 46ec 6c5d 9e0c cabf 25c5 92ca fa50 d7bf
00000050: 84f4 2c2d 1732 dfbf ec05 8f42 6f60 ba3f
00000060: 0000 0080 fcb0 e0bf 6be7 f318 0881 e73f
00000070: 2e82 c175 4457 d33f 92db d692 7a5c e93f
00000080: 0000 0000 661a e3bf e906 75b6 9901 e63f
00000090: 0000 0000 c191 e8bf 42b1 6bc3 3086 e83f
000000a0: b33b f520 3f10 c13f a046 fcb4 950b cabf
000000b0: c1cb 432f 3431 e03f 8c1f 48d9 5857 e43f
000000c0: 0000 00c0 a96f ebbf 0000 0080 3c7e e3bf
000000d0: 8b28 80ab 22fc bfbf fb50 2370 4a20 babf
000000e0: 9d7d 966e 7609 c5bf a03e 7c26 dcec de3f
000000f0: e2d9 2a62 dd80 e63f 2336 dff0 d0c5 c4bf

proj_layer.bias f8 [32]
-0.6478492901444123 1.305782047421591 0.6411201521211793 0.9187855997815109 -0.9540524482727051 -0.8720062856719046 -0.09328125644328403 0.36784870647263723
0.7784782076089002 0.4484144266527752 0.1372762631593371 0.9930063488161587 -0.3528730869293213 0.5793825807560579 -0.010066244863628053 1.2286595606074153
-0.3428696393966675 -1.423217448484715 -0.12997901439666748 -0.8470959849773569 0.8973243500102687 0.7261967920559116 -1.135707817268566 -0.11080639949394949
-0.5592520236968994 -0.06511139869689941 1.36474194050172 0.4191350147102936 0.6657933652066051 0.8020721776207158 -0.6476243813975764 0.6554976902038355
00000000: af06 3d6f 2ebb e4bf 1113 56b7 7be4 f43f
00000010: 2658 c568 0e84 e43f 5c1d e30e b166 ed3f
00000020: 0000 0000 9987 eebf a0c0 dbb9 79e7 ebbf
00000030: 1af2 c0c9 47e1 b7bf a041 0b4d d58a d73f
00000040: 8d86 4a21 4be9 e83f 04cf 616c d2b2 dc3f
00000050: 26aa 64c2 4492 c13f 3a58 1c40 b5c6 ef3f
00000060: 0000 0000 7995 d6bf e504 8756 4d8a e23f
00000070: bccb dc83 9c9d 84bf 11a0 6bed 96a8 f33f
00000080: 0000 0080 93f1 d5bf 276a c5a8 7fc5 f6bf
00000090: 0000 0000 27a3 c0bf f89e 010a 691b ebbf
000000a0: 9d5a 268e e1b6 ec3f 5ae3 0a0e 013d e73f
000000b0: 39ae cff5 db2b f2bf 1497 03e6 ce5d bcbf
000000c0: 0000 0080 64e5 e1bf 0000 0000 24ab b0bf
000000d0: 92f3 1ea5 fbd5 f53f 1682 32ab 1bd3 da3f
000000e0: cf98 2ee3 2d4e e53f 0433 7d45 93aa e93f
000000f0: fa3b 46c4 56b9 e4bf aded c04a d6f9 e43f

hidd_layers.0.weight f8 [32, 32]
-0.37254550158223804 0.07012951421216397 0.47262398180628373 -0.03036510829663917 -0.10944792628288269 -0.2802464048276128 -0.03837389688590586 0.002031021178916645
0.18446466806060877 0.47617243917565194 -0.1928980587094026 0.17277468787025232 -0.0010053515434265137 -0.13301350269230583 0.0913075705033095 0.011377099807978469
-0.10103882849216461 0.3740233335368704 -0.09213897585868835 -0.12826197226799577 0.023861073584571634 0.3213236765342909 0.3465410552928969 -0.047064876440274135
0.12686295807361603 0.16172315180301666 0.24356661264114057 0.3575399016263382 0.3584572066510478 -0.010250241864423708 -0.295238349291926 0.16481530311387868
0.07065324485301971 0.11109615862369537 -0.1313735842704773 -0.005623862147331238 -0.04883521795272827 -0.09130734950304031 0.16442064940929413 -0.05120241641998291
0.12608931958675385 -0.020398393273353577 0.052247852087020874 -0.16480989754199982 0.15545837581157684 -0.1524191051721573 0.10745646059513092 -0.15145808458328247
-0.09249147027730942 -0.14461031556129456 -0.09290644526481628 0.07821910083293915 -0.03960844874382019 -0.05485235154628754 0.0657750815153122 0.1220233291387558
-0.17348335683345795 0.03761081397533417 0.14520056545734406 -0.12994225323200226 -0.03483666479587555 -0.07050737738609314 0.12656472623348236 0.020049840211868286
0.004044497357755653 0.1473630863079997 -0.1610881562064601 -0.09820256646410755 0.15715323388576508 0.12818584287954818 -0.02052252029997732 0.10792768691408543
-0.3432597199352032 -0.1988170450157559 -0.07386871012660398 -0.049395979977994914 0.16424690186977386 0.17038140300855933 -0.07857192175371412 0.09989832480563744
-0.06074342876672745 -0.07282325692228031 -0.10088787972927094 0.017203856104537632 0.04643907180593459 -0.3476380286957496 -0.18175785017564924 0.02325832175012056
-0.16549108922481537 -0.12770065665245056 0.33417821960831207 -0.41747705008005465 -0.3547241336507855 -0.10616444846046302 -0.09145420590729626 -0.24734467523200301
-0.07147102875812443 -0.1294237909070195 0.007320952470621769 -0.034592900927965624 -0.015356779098510742 -0.10191837653750675 -0.11238730973477871 0.04864358321589319
-0.16052230420559493 0.09493826001390185 -0.12156267534255957 -0.06717114480920856 -0.025936037302017212 0.019490631754278297 0.033884112985438496 0.1687284150574193
-0.10259826481342316 -0.12734209356192205 -0.03508147597312927 0.14222886089316608 0.0956294000353273 -0.1206954456152565 -0.06911220137992045 -0.057565260989982485
0.13663692772388458 -0.14721077680587769 0.16509719806698878 -0.13116361487682376 -0.2239875885306603 0.17555938891840137 0.00874524712229977 -0.4954872863393096
0.1263381129520885 0.037921679595007945 -0.0312757783570285 -0.06613806646498432 0.07556237280368805 -0.1139587095612022 0.10261644792675335 -0.11601150485351848
0.2493530333269077 -0.021413466075139977 0.10160862827541796 -0.17023064208157535 0.16344322264194489 0.17268429271244035 -0.08151564014796767 -0.03174462224592837
-0.05274117738008499 0.09379541800736911 -0.16277961432933807 0.157564874209981 0.057154835549368135 0.16784579480277687 -0.06542827509072413 -0.05239028847521058
0.08105887472629547 -0.04666522145271301 -0.179014532549787 0.0715083242003646 0.21724483049604323 0.01433630105509919 0.09861047772471 0.34566063848320766
0.13551814966700992 -0.036196806780532206 -0.21994590818329146 -0.12324552118769277 0.05039156973361969 -0.026866139236746727 0.030056042110240166 0.06836058784119296
0.3817406373571696 -0.1982921853461033 -0.1479348551674096 0.11784510074511742 0.1406668871641159 -0.010072991646456522 0.1592969104374836 -0.17125700193650142
0.13430915772914886 0.20202665609170126 -0.1357928216457367 0.14915922709906515 0.08049943778052927 0.2385928093787493 0.08845748453363313 -0.017498418377757962
0.1621711105108261 0.16565997898578644 -0.1849780198082263 0.4143662062188187 0.2497600593274012 0.030385782354936382 -0.12729932920071768 0.2606816108530792
0.15292369768506925 0.03157037888226062 -0.03929028968170539 0.15458420225396372 -0.03731648623943329 0.01655345395056945 0.06512797205196591 -0.09850549186502787
-0.4386264961107976 -0.0032646262246571684 0.08310380046824127 0.027345810151223233 -0.005236119031906128 -0.13099639340323072 0.017824160201849956 0.09039323926738757
-0.0780879482626915 -0.048277096486099715 0.045412540435791016 0.05126498897940071 -0.012614155822888943 -0.05053654742069873 -0.19841184588698854 -0.0294213719384257
0.011190161108970642 -0.08353768289089203 0.07116610144834484 -0.4194500536366407 -0.22982550155800457 -0.05978620886210316 0.09314668366904952 -0.32594759486279856
-0.10350947912519218 -0.11679933108335298 -0.3024585140938364 -0.0401340266022888 0.022616267204284668 0.1482137690158481 0.17975602232497184 0.05780150451064176
0.19157444350063416 0.07008656019243185 0.029064070256965155 0.06053126738858999 0.06994412839412689 -0.1046550767335585 -0.08329105274768575 -0.11744576263461327
0.0445142537355423 0.12670335907923302 0.15538789331912994 0.042506895448924005 0.032621463845425816 -0.008570312640796536 0.026009790057636106 0.12140465549792259
0.022944316267967224 -0.07594118267297745 -0.12469110768626836 0.2763739049870588 0.37806258885754285 0.005269819488446746 0.07352094208908441 0.3950266736522994
00000000: 0754 6416 c9d7 d7bf 798e 0602 02f4 b13f
00000010: 4e73 4aa8 783f de3f 3b54 4bec 0718 9fbf
00000020: 0000 0080 c704 bcbf 5998 e39d 8eef d1bf
00000030: ef42 4a50 bea5 a3bf 2d4d 4f31 5ca3 603f
00000040: 5f3d 4bca 899c c73f b905 61f7 9b79 de3f
00000050: ed33 cf32 e2b0 c8bf 115b fd20 7b1d c63f
00000060: 0000 0000 c078 50bf c8b3 fe21 9606 c1bf
00000070: 9f5d 30d5 ee5f b73f 63ec c97c e04c 873f
00000080: 0000 0040 aedd b9bf 21d5 5e90 ffef d73f
00000090: 0000 0080 6b96 b7bf 7512 1b68 e36a c0bf
000000a0: 33d2 c58a 096f 983f f94b 892e 9190 d43f
000000b0: 9413 cd88 ba2d d63f 21d8 3332 e318 a8bf
000000c0: 0000 00a0 0b3d c03f 0000 0020 58b3 c43f
000000d0: 3579 d8d5 302d cf3f f202 200a efe1 d63f
000000e0: 9f3b e57e f6f0 d63f 099a ab2c 14fe 84bf
000000f0: 59f7 ae63 2fe5 d2bf 5b91 60f8 aa18 c53f
00000100: 0000 00c0 5416 b23f 0000 0040 cc70 bc3f
00000110: 0000 0080 d9d0 c0bf 0000 0000 0c09 77bf
00000120: 0000 0000 ee00 a9bf 0000 0020 eb5f b7bf
00000130: 0000 0060 bc0b c53f 0000 0000 3437 aabf
00000140: 0000 00e0 b123 c03f 0000 0000 51e3 94bf
00000150: 0000 0000 3bc0 aa3f 0000 00a0 7d18 c5bf
00000160: 0000 0060 0fe6 c33f 0000 0020 7882 c3bf
00000170: 0000 0040 4482 bb3f 0000 0080 fa62 c3bf
00000180: 0000 0060 85ad b7bf 0000 0040 9782 c2bf
00000190: 0000 0080 b7c8 b7bf 0000 00c0 2a06 b43f
000001a0: 0000 0000 8f47 a4bf 0000 0080 9b15 acbf
000001b0: 0000 00c0 a2d6 b03f 0000 00c0 eb3c bf3f
000001c0: 0000 00e0 b334 c6bf 0000 0080 b941 a33f
000001d0: 0000 00a0 ee95 c23f 0000 00a0 f2a1 c0bf
000001e0: 0000 0080 1cd6 a1bf 0000 0080 c50c b2bf
000001f0: 0000 00e0 4533 c03f 0000 0000 f287 943f
00000200: 51c9 157e f690 703f 4e4d 2a2a cbdc c23f
00000210: f0ff 5665 899e c4bf 52bb 58ab cd23 b9bf
00000220: 0000 00e0 981d c43f 512a 7dc9 6468 c03f
00000230: 5360 1406 db03 95bf 2b01 a11d 26a1 bb3f
00000240: e8f8 c99d f7f7 d5bf ab71 1d41 d672 c9bf
00000250: 0e04 314e 0fe9 b2bf 4c64 1e0d 6e4a a9bf
00000260: 0000 00e0 0a06 c53f 9159 e2cc 0ecf c53f
00000270: 2bea 501a 4a1d b4bf 5924 f7c5 ef92 b93f
00000280: 0000 0040 c319 afbf f890 de82 8ba4 b2bf
00000290: 0000 00c0 c9d3 b9bf d418 563d e39d 913f
000002a0: d77f 53ad dcc6 a73f 9f06 0693 b33f d6bf
000002b0: e3d8 255b d743 c7bf 8440 1b8d 07d1 973f
000002c0: 0000 00e0 cf2e c5bf 0000 00c0 7e58 c0bf
000002d0: 8834 100b 2d63 d53f 3029 3ba9 f1b7 dabf
000002e0: 9e73 48da ccb3 d6bf 78b4 22e2 972d bbbf
000002f0: c117 74f7 8a69 b7bf 6908 7b85 fda8 cfbf
00000300: b3ab 20e3 ec4b b2bf 108f a272 f590 c0bf
00000310: 5081 fd36 93fc 7d3f 4f9a 5124 29b6 a1bf
00000320: 0000 0000 6073 8fbf 950a 179e 5217 babf
00000330: 1fda cb2b 6ac5 bcbf c920 25ce cfe7 a83f
00000340: 56b9 6baf fe8b c4bf 3a1b e6b1 df4d b83f
00000350: feb3 0243 bb1e bfbf 15c0 30ce 2032 b1bf
00000360: 0000 0000 fa8e 9abf d31d da27 5af5 933f
00000370: 13bb 402a 4259 a13f 80ec 4988 e498 c53f
00000380: 0000 0040 e143 babf 1856 a0e7 be4c c0bf
00000390: 0000 0000 33f6 a1bf 87af 0a29 8e34 c23f
000003a0: c215 b019 2b7b b83f 9294 b18f e5e5 bebf
000003b0: 476b ae54 56b1 b1bf 4fe4 aca2 3179 adbf
000003c0: 0000 00a0 517d c13f 0000 0080 cdd7 c2bf
000003d0: 1df2 2dad e721 c53f b619 2926 f8c9 c0bf
000003e0: ce7b b913 a0ab ccbf 0384 f4e4 ba78 c63f
000003f0: 13f2 1533 07e9 813f d44f 9a4e 10b6 dfbf
00000400: ab0c afe7 d82b c03f a403 576b 786a a33f
00000410: 7998 66fa 6003 a0bf 48df 7ca0 6cee b0bf
00000420: 0000 0040 0e58 b33f cde3 a8e2 652c bdbf
00000430: 2589 e04f 1245 ba3f 453c 4e13 eeb2 bdbf
00000440: 6313 a6d9 ccea cf3f ca69 f261 69ed 95bf
00000450: f930 6fe7 0503 ba3f b83b 4220 1eca c5bf
00000460: 0000 0020 b5eb c43f 20cd ddd6 841a c63f
00000470: 6a4b 8c80 35de b4bf 8582 bdc4 d440 a0bf
00000480: 0000 0040 e400 abbf 7736 dbfc f902 b83f
00000490: 0000 0060 f6d5 c4bf ec77 ddf6 152b c43f
000004a0: 8a4f fc0a 6643 ad3f 957a b993 f87b c53f
000004b0: f893 bf4d e8bf b0bf e510 425f e6d2 aabf
000004c0: 0000 0040 46c0 b43f 0000 0000 81e4 a7bf
000004d0: 22b0 67bd f2e9 c6bf aa13 d599 5e4e b23f
000004e0: 1750 1ab9 adce cb3f fb07 6bc1 595c 8d3f
000004f0: 69dd de48 893e b93f d730 73cc 4d1f d63f
00000500: 68c8 6aa2 a858 c13f d61c af4a 6388 a2bf
00000510: 06a4 4401 3027 ccbf 7c2e e1ba 048d bfbf
00000520: 0000 0080 eccc a93f 1b02 9115 cc82 9bbf
00000530: 6389 a4d7 02c7 9e3f 8bfe 1c59 1480 b13f
00000540: 1335 4048 706e d83f c193 8e69 a361 c9bf
00000550: 71f6 7082 87ef c2bf d6b0 b1b5 182b be3f
00000560: 0000 0060 5f01 c23f db27 8e0d 26a1 84bf
00000570: 1367 5756 d763 c43f c19e 43db bfeb c5bf
00000580: 0000 00e0 0a31 c13f a9c3 6a6c 02dc c93f
00000590: 0000 00c0 a861 c1bf 68c0 2449 a617 c33f
000005a0: 611f 9d74 9c9b b43f b9d6 ab8c 358a ce3f
000005b0: 998b 2853 26a5 b63f f322 a8fa 1aeb 91bf
000005c0: 0000 00e0 05c2 c43f 0000 00a0 5834 c53f
000005d0: e20f c718 5cad c7bf 38c1 11d6 f984 da3f
000005e0: 2840 543b 23f8 cf3f 1f4b e955 731d 9f3f
000005f0: 1223 dc2b 584b c0bf b115 52ec 01af d03f
00000600: 229e 2bf4 0093 c33f caad a421 fe29 a03f
00000610: e871 775a db1d a4bf e35a 9446 6ac9 c33f
00000620: 0000 0080 251b a3bf cf05 6a7d 63f3 903f
00000630: 5c9b 040e 3aac b03f 6f64 09ea a737 b9bf
00000640: da1d fddd 7412 dcbf f24b cbdb 6abe 6abf
00000650: 3735 2f69 4a46 b53f 52e6 2041 8a00 9c3f
00000660: 0000 0000 7872 75bf 26c9 c764 7dc4 c0bf
00000670: df1a 9524 7f40 923f acd4 6ee6 0224 b73f
00000680: 0000 0060 92fd b3bf 0576 1b8d c6b7 a8bf
00000690: 0000 0000 5040 a73f b451 3196 673f aa3f
000006a0: 02c2 ce55 73d5 89bf 466c d924 eddf a9bf
000006b0: 2f9f 9c32 8f65 c9bf b0af 1dd9 a220 9ebf
000006c0: 0000 0000 deea 863f 0000 00c0 b962 b5bf
000006d0: 0cf1 4d0e f137 b23f 3630 ab09 45d8 dabf
000006e0: 163d 7d0a ec6a cdbf ce0d a147 4c9c aebf
000006f0: 8ee4 1608 76d8 b73f 2451 094d 53dc d4bf
00000700: 9a2f abe3 987f babf fb9a 329b 8fe6 bdbf
00000710: 8e81 9bf4 7a5b d3bf 2d60 6d77 728c a4bf
00000720: 0000 0000 b828 973f 32b7 5e35 abf8 c23f
00000730: ce88 92ce 3e02 c73f 89cb 10a7 2898 ad3f
00000740: f1d4 cae8 8285 c83f bf66 ea5b 31f1 b13f
00000750: 8c20 f8bc f8c2 9d3f b88b a34b f4fd ae3f
00000760: 0000 00c0 dbe7 b13f 4c56 eed3 acca babf
00000770: dec8 99fb 8f52 b5bf 01c7 91ed ec10 bebf
00000780: 0000 0080 92ca a63f 80f2 c4cf d037 c03f
00000790: 0000 0020 c0e3 c33f 5980 9dbb 76c3 a53f
000007a0: 7a3d bab0 c2b3 a03f f7d9 11e4 4f8d 81bf
000007b0: b388 b176 4fa2 9a3f fa1a f220 6014 bf3f
000007c0: 0000 0000 b77e 973f 0000 00a0 e170 b3bf
000007d0: 4952 9da5 c1eb bfbf 5cc8 d82c 1cb0 d13f
000007e0: ccfd be6d 2d32 d83f 8b3e bd65 ce95 753f
000007f0: 86fe d7b9 44d2 b23f 3898 18f5 1d48 d93f

hidd_layers.0.bias f8 [32]
0.18070947574035726 -0.11624151468276978 0.13906941975770384 0.2118034241106712 -0.06998447972888508 -0.02974534365828656 0.23682446020880418 -0.039585060531617824
-0.06062269026526928 -0.002198636531829834 -0.08813118420463552 -0.12007064366685524 -0.6303485819152975 -0.16010559468921973 -0.16756834977368545 0.0792011171579361
0.2908888518440249 -0.023196961363778065 0.1875364130851344 0.07532359815321446 -0.19066147576112175 -0.13536264898908132 0.09785954939218043 0.11932775588399058
-0.03290786983616097 0.12008089349985998 -0.14667008817195892 0.2714500200483743 0.2577707200158154 0.051969585769043466 0.13122929053680368 -0.18544641935129874
00000000: f5e9 30f4 7c21 c73f 0000 0000 01c2 bdbf
00000010: 11d4 ddd8 06cd c13f 303a dee5 5f1c cb3f
00000020: 4ec3 a9bb 80ea b1bf adea e138 9075 9ebf
00000030: 6bad be8f 4350 ce3f 1276 c938 7e44 a4bf
00000040: f773 2bf0 ef09 afbf 0000 0000 e002 62bf
00000050: 51aa eae9 c38f b6bf 8e41 c21f f3bc bebf
00000060: 6dff 0cca d02b e4bf ed64 8c12 577e c4bf
00000070: 96b3 0f33 e172 c5bf 0000 0040 8646 b43f
00000080: 983a 5c46 ec9d d23f ac2d b2b9 f1c0 97bf
00000090: 1641 8174 3101 c83f da62 af46 6848 b33f
000000a0: 8624 8061 9867 c8bf 2f07 4133 9053 c1bf
000000b0: 479f 3dcc 520d b93f 18dd 0689 438c be3f
000000c0: 6b65 74e1 4cd9 a0bf dad3 7416 9fbd be3f
000000d0: 0000 00e0 15c6 c2bf d1cd a6e7 6f5f d13f
000000e0: 2b65 15c3 507f d03f e687 87ee c19b aa3f
000000f0: 5d01 9113 1fcc c03f ae16 2351 b5bc c7bf

out_layer.weight f8 [1, 32]
-0.46039022737878743 -0.058430805802345276 -0.15987510599321322 -0.19139405519031566 0.07797587117431808 0.1855055827690054 -0.19482500548411208 0.1501599705901554
0.10604285723027998 -0.07997705787420273 -0.07073496350153706 0.03963551775402631 -1.1683105739149875 0.022943348078049257 -0.13624384260527625 0.13255591690540314
-0.17529275270535571 0.02868603269734596 0.4368575643454973 0.0055688477705311094 0.09625411210769699 0.3354560502960756 0.15638477167039416 0.45206205749934186
-0.17604663780322338 -0.006904428931889824 0.04328446090221405 -0.08035986966276874 -0.0859729298180911 0.048118993224354735 -0.21884608310231377 0.08151955619615166
00000000: 745a 7f92 0877 ddbf 0000 0080 a4ea adbf
00000010: adba d797 c976 c4bf 0e7a d8b3 997f c8bf
00000020: 4b20 9208 3af6 b33f 3bf1 9b9d a5be c73f
00000030: f0a6 7f99 06f0 c8bf 6430 6d21 7138 c33f
00000040: 7a48 c7eb 9f25 bb3f 0000 0060 6079 b4bf
00000050: 3f40 ecc2 af1b b2bf b2f2 0649 1b4b a43f
00000060: e492 a86d 66b1 f2bf 8eb5 9f06 767e 973f
00000070: 35b1 2230 7070 c1bf 0000 00a0 97f7 c03f
00000080: 6433 0c30 fe6f c6bf 48fa 2511 df5f 9d3f
00000090: b0f1 f76d 79f5 db3f ec36 d030 5ccf 763f
000000a0: e2aa 9b07 1ca4 b83f 2216 51a7 1c78 d53f
000000b0: ba58 f58b 6a04 c43f 9f37 2eb2 95ee dc3f
000000c0: ccc1 f73b b288 c6bf 1541 5c87 d147 7cbf
000000d0: 0000 0080 6129 a63f 2fc7 1ce4 7692 b4bf
000000e0: 0ef6 e869 5202 b6bf ed1a 6e7c 0da3 a83f
000000f0: 071d e400 2603 ccbf cdce d833 77de b43f

out_layer.bias f8 [1]
-0.13166159785258338
00000000: d53d 7588 49da c0bf
